cp-actor0.pth (torch_old, 183882 bytes, 6 tensors)

fc1.weight f4 [256, 48]
000000 63 32 a5 be 85 f6 b2 bf f7 ff 1f bd e5 c7 53 3f
       -0.32265005 -1.3981482 -0.039062466 0.8272689
000010 99 12 66 bf 33 e8 5d bf d8 4a 0b bd 37 6f 61 3f
       -0.8987213 -0.8668243 -0.034006923 0.88060325
000020 4b a4 a7 be 98 5b a3 bf 99 59 2a 3e 74 b1 47 3f
       -0.32742533 -1.2762327 0.16635741 0.78005147
000030 fe 57 ee 3d 48 d1 56 be 77 a9 69 3e 89 eb 5e 3f
       0.11637877 -0.20978272 0.22818552 0.8707815
000040 f6 4e 98 be 4a 94 99 bf 03 f3 5f be 81 b5 37 3f
       -0.29747742 -1.1998379 -0.21870045 0.7176133
000050 13 bd aa 3f ee f0 0a 3f 69 77 38 be ab a7 49 3f
       1.3338951 0.5427388 -0.18014301 0.78771466
000060 7b d8 93 3e dd a1 ac 3e 95 58 89 bd 50 01 13 bf
       0.288761 0.33717242 -0.06706349 -0.5742388
000070 aa 7a 65 3f 1a 73 6b bf 86 31 e3 3c 1c 98 11 bf
       0.89640296 -0.91972506 0.027733576 -0.56872725
000080 d1 4e c0 3e c5 ce 82 3e cf 75 c0 3e cd 3c 46 bf
       0.37560132 0.25548378 0.3758988 -0.77436525
000090 43 97 0b be 44 0b 55 be 01 a4 af 3e ed 31 3a bf
       -0.1363192 -0.20805079 0.34304813 -0.7273243
0000a0 dc 24 d9 3e 39 32 0a bc 54 ff 7b be 85 a7 bb bf
       0.42410934 -0.008434826 -0.24609119 -1.4660498
0000b0 a4 90 a9 bf d3 38 0c 3f a0 3a 4c be 36 86 b7 bf
       -1.3247266 0.54774207 -0.19944239 -1.4337833
0000c0 09 fa d3 3e 86 df 40 bf e6 be 83 be cf d7 9b 3f
       0.414017 -0.7534107 -0.2573158 1.2175235
0000d0 52 a3 21 bf cc 78 4f bf 21 bb 65 be cf e6 9e 3f
       -0.6313983 -0.81043696 -0.22434665 1.2414187
0000e0 e5 e1 b1 3e 4b 0c 65 bf de 81 3b 3d c3 64 03 be
       0.34742656 -0.8947188 0.045778148 -0.12831406
0000f0 47 63 61 be b7 4c 75 be 17 34 0a 3e e8 22 b7 bd
       -0.22010528 -0.23955046 0.13496433 -0.08942205
000100 d3 dd a0 bc 37 45 f6 bf ea 24 44 be ce 95 9d bf
       -0.019637024 -1.9239873 -0.19154707 -1.2311342
000110 4a 1a 56 be 89 0a 5b 3f 2f e1 52 be ac 52 a3 bf
       -0.20908466 0.8556295 -0.20593713 -1.2759604
000120 cd 66 fc 3e a9 4f 76 bf 1c 6f 78 3c 2b de 38 be
       0.4929718 -0.962153 0.015163209 -0.180535
000130 88 7d 15 3f 91 d8 50 bf 25 f9 38 3c e8 8e 6b be
       0.5839467 -0.81580454 0.011289869 -0.23003733
000140 68 bf a9 3e fb c5 80 bf 1b 76 81 be 44 51 36 3f
       0.33153844 -1.0060419 -0.2528542 0.7121775
000150 c9 2c 5c 3e e3 07 b2 be 58 38 8f be c6 88 25 3f
       0.21501459 -0.34771642 -0.27972674 0.64661825
000160 e2 8c d2 bd bb 64 83 bf e2 27 3b bf 9c 57 29 3f
       -0.102807775 -1.0265115 -0.7310773 0.66149306
000170 22 bb d8 3d 7a 61 61 3f ab 47 4d bf 0a 86 33 3f
       0.10582568 0.8803936 -0.8018748 0.701264
000180 c0 45 0d 3f 34 67 d4 be c7 e6 c7 bd 25 e0 40 be
       0.55184555 -0.41484988 -0.09760814 -0.18835504
000190 32 6c 53 be f1 cc 83 bf f7 6a 00 be 38 ab c3 bd
       -0.20646742 -1.0296918 -0.12540804 -0.09554142
0001a0 fa bd 1b 3f 4c f9 66 be 9e 4f 30 bd fc f5 47 3f
       0.60836756 -0.22556037 -0.04304468 0.7810972
0001b0 86 6b 12 be 0f 0a b6 bf ff 11 97 bd 0c f4 32 3f
       -0.1429883 -1.422182 -0.07376479 0.69903636
0001c0 22 c4 18 3f 41 f0 87 3e a4 22 5c 3e 60 f6 08 3e
       0.59674275 0.26550487 0.2149759 0.13375235
0001d0 b1 4b c3 bd 07 17 f8 bf 17 0f 4c 3e fa 21 18 3e
       -0.09535921 -1.9382027 0.19927631 0.14856711
0001e0 d4 90 be 3e 9f e9 99 bf f1 d0 37 3f c8 dd 26 bf
       0.3721987 -1.202442 0.71803194 -0.6518216
0001f0 16 fe 2e 3e 97 e2 83 bf 9a 43 49 3f ff dc 2c bf
       0.17089114 -1.0303525 0.78618777 -0.67524713
000200 cc 20 d0 3e c7 37 95 bf ab 3d ad 3e f5 43 10 bf
       0.40650022 -1.1657647 0.3383611 -0.56353694
000210 70 86 c7 3d 4b e2 b3 bf 37 de cc 3e cf 74 29 bf
       0.09742439 -1.4053434 0.40013286 -0.6619386
000220 bf 48 fb 3e 9f 5a 92 bf 37 e1 00 bf 99 9a 07 3f
       0.49078938 -1.1433905 -0.5034365 0.5297027
000230 73 38 a3 3d 07 71 fc bf 15 30 cb be 0b f4 fe 3e
       0.07969751 -1.9721993 -0.3968512 0.49795565
000240 83 24 cc 3f af 17 98 3f 3f cd a2 3d 5e 4e 36 bf
       1.5948642 1.1882228 0.07949304 -0.7121333
000250 1b 2b b3 3b b2 4c 26 bf fa 4b 02 3e 06 1e 47 bf
       0.005467785 -0.6496078 0.12724295 -0.7778019
000260 58 ab 8a 3f a6 4d 50 3f 85 4d 03 bf 04 6a 38 bf
       1.083354 0.8136848 -0.5129016 -0.72036767
000270 e2 00 a8 3d 47 5e 21 bf b8 0b 09 bf aa 9a 32 bf
       0.082032934 -0.6303448 -0.53533506 -0.6976725
000280 66 9c 56 3f f8 19 bb 3e fb 03 01 bf 24 84 7f bf
       0.83832395 0.3654325 -0.503967 -0.99811006
000290 9e 32 96 3d 21 92 e0 be 9f 1a 19 bf 86 25 7a bf
       0.07333873 -0.43861488 -0.59806246 -0.97713506
0002a0 c4 5c b8 3e 4f 79 5b 3e 42 08 f3 3e ad 79 33 bf
       0.36008275 0.21432994 0.47467238 -0.7010754
0002b0 1e b0 d4 bd 33 fb 2f bf 30 8d 00 3f e4 2a 34 bf
       -0.10385154 -0.68742675 0.50215435 -0.70377946
0002c0 b9 f4 ff 3e e7 a6 91 3e c1 77 cd be b1 14 f0 bd
       0.49991396 0.2844765 -0.40130427 -0.117226966
0002d0 db 2d 53 bd 23 c4 2c bf df e2 bb be b6 e5 3a be
       -0.051557403 -0.6748678 -0.36696526 -0.1825169
0002e0 31 95 f5 3e 7a ac e4 3e e5 78 e8 be a5 94 2b 3e
       0.47965387 0.4466284 -0.45404735 0.16755922
0002f0 d2 51 66 bc 6a ce a7 be 18 c0 09 bf 07 a6 1e 3e
       -0.014057593 -0.3277467 -0.53808737 0.15493022
000300 56 17 06 3f 8e 77 af 3d a1 17 33 3e 91 65 fe be
       0.5237936 0.08567725 0.17489482 -0.49686864
000310 2a 6a 4a 3f 16 60 89 be 9c 6d 77 3e 04 de 05 bf
       0.79068244 -0.2683112 0.24162906 -0.52291894
000320 94 1f 57 3f 73 3f 1c 3e 73 fa 83 3e a0 f7 31 bf
       0.8403256 0.15258579 0.25777015 -0.6951847
000330 85 6a 51 3f 2c 0b e3 be 9c 26 43 3e de 9a 27 bf
       0.8180316 -0.4434446 0.19057697 -0.65470684
000340 4f c7 3e 3f 25 72 34 3e a9 66 f1 bd 4a 43 cb bd
       0.7452287 0.17621668 -0.11787159 -0.09924944
000350 76 d3 33 3f 48 fd ef be 65 89 9a bd 2d 6b 29 be
       0.7024454 -0.46872926 -0.07545737 -0.1654479
000360 67 40 9b 3e 0b a8 3d bf b0 cc 76 3f 24 90 75 bf
       0.30322573 -0.7408454 0.9640608 -0.95923066
000370 1f 7e 5c bf 67 df 6c be 3c 04 83 3f 11 c4 56 bf
       -0.86129946 -0.23132096 1.0235667 -0.83892924
000380 50 2f c2 3e ac da e5 be ef 7a 34 bd 26 12 32 3f
       0.37926722 -0.44893396 -0.04406255 0.6955894
000390 3b 1f 53 bf a5 85 04 bf ca 73 24 3c d2 30 22 3f
       -0.8246953 -0.51766425 0.010037372 0.63355744
0003a0 1c 9b e0 3e 01 19 aa be e3 72 ff 3e ca 70 05 3f
       0.4386834 -0.332222 0.4989234 0.5212523
0003b0 88 f8 24 bf 14 0d fd be f2 a9 0f 3f f5 68 ef 3e
       -0.6444173 -0.4942404 0.5611869 0.46759763
0003c0 14 1f 66 3f a1 33 4e 3f 33 83 fb 3e a1 a0 f9 3e
       0.8989117 0.8054753 0.49123535 0.48755363
0003d0 58 02 7d 3e 7f 5f 26 bf d4 26 02 3f 37 e0 f8 3e
       0.24707925 -0.64989465 0.50840497 0.48608562
0003e0 6a 14 62 3f 0b 3b 91 3f d9 b0 e9 be 95 d5 f8 3c
       0.883124 1.1346143 -0.45642737 0.030375281
0003f0 ab a9 ce 3e 3b 7f 52 bf 48 25 f4 be 42 4f d7 3c
       0.4036382 -0.8222539 -0.47684693 0.02628291

fc1.bias f4 [256]
000000 32 59 9a be c6 67 0d 3e 3a df 09 bf 84 70 1d bf
       -0.30146176 0.13809118 -0.5385624 -0.6149981
000010 c1 20 f4 be 22 e4 1d bf c3 f5 9f bd 02 34 93 be
       -0.4768124 -0.6167623 -0.07810547 -0.28750616
000020 12 bb 39 bf 26 3c 30 bf be 1d 25 bf f9 a9 bc be
       -0.7255107 -0.6884178 -0.6449851 -0.3684843
000030 92 51 48 bf f5 55 11 bf bc 57 14 bf 06 94 85 3e
       -0.78249466 -0.56771785 -0.5794637 0.26089495
000040 b7 80 32 bf ac 49 06 bf e6 32 2b bf 95 1b c6 be
       -0.69727653 -0.52456164 -0.6687454 -0.38692918
000050 30 57 96 be 58 21 35 bf de 91 f8 be b8 c9 0e bf
       -0.29363394 -0.70754004 -0.48548788 -0.5577655
000060 23 92 1b bf c4 d3 43 bd 8d 5c bd be d2 85 46 bf
       -0.6076986 -0.047809377 -0.36984673 -0.77547944
000070 c7 be 64 bf b1 c0 67 bf d0 82 13 be 19 f6 91 be
       -0.89353603 -0.905284 -0.1440537 -0.2850807
000080 83 b0 14 bf f3 c2 1d bf 72 cc bc be 3b 5f 61 bf
       -0.58081836 -0.61625594 -0.3687473 -0.88035935
000090 44 22 2d bf 4c e9 18 bf 16 43 0c bd a6 40 b5 3e
       -0.6763041 -0.5973098 -0.034243666 0.35400885
0000a0 12 13 05 be 48 5a 0d bf 11 d8 bd be 3c a3 de be
       -0.12995556 -0.55215883 -0.37078908 -0.43483913
0000b0 f7 eb 23 bf 4d e7 01 bf e0 56 77 be 34 ed de be
       -0.6403193 -0.5074356 -0.24154234 -0.43540347
0000c0 68 3b 14 bf d0 d3 7d be 32 a1 39 bf 5f 36 cc be
       -0.57903147 -0.24787831 -0.7251159 -0.39885232
0000d0 fc f9 6f 3c 2e bd 29 be 58 30 dc be d1 95 14 bf
       0.014647003 -0.16576073 -0.43005633 -0.580411
0000e0 21 7b ff be 35 43 ae bc c9 79 0d bf 7f a6 ac 3f
       -0.49898627 -0.021272281 -0.55263954 1.348831
0000f0 0d 94 0b bf 85 e5 4c bf 40 07 32 bf 12 e4 29 bf
       -0.5452278 -0.8003772 -0.6954231 -0.6636363
000100 40 5f a8 be 94 92 02 bf a5 a5 8d be b7 8a 06 bf
       -0.3288517 -0.5100491 -0.2766544 -0.5255541
000110 c8 e8 29 bf 47 a9 93 be b9 dc 76 be 55 7c 1d bf
       -0.6637082 -0.28840086 -0.24107637 -0.6151784
000120 80 b8 e7 be 78 a4 b8 be 55 b4 bc be 17 9a e7 be
       -0.4525795 -0.3606298 -0.36856332 -0.4523475
000130 6f d7 f3 be a9 3e 54 be e4 52 35 bf 42 e4 fd be
       -0.476253 -0.20727028 -0.70829606 -0.4958821
000140 14 e8 1c be f9 06 36 bf 95 9a fc be ba 36 f4 be
       -0.15322906 -0.7110439 -0.49336687 -0.47698003
000150 30 80 10 bf f7 14 10 bf 28 76 00 bf 1c 98 03 bf
       -0.564456 -0.5628199 -0.5018029 -0.51403975
000160 5c ef ef be 81 0b 4b be 20 77 5e bf 59 6f 0b 3f
       -0.46862304 -0.19828607 -0.8690052 0.5446678
000170 f9 fa 28 bf b3 b5 15 be 44 a4 83 be e6 ee 1d bf
       -0.66007954 -0.14620094 -0.25711262 -0.61692655
000180 9f 64 bc bc aa 83 ad be 73 ba 04 bf dc fb b3 be
       -0.022997199 -0.33889514 -0.51847 -0.3515309
000190 cd 14 24 bf 0b c5 2c bf 43 18 b7 be a0 03 af be
       -0.6409424 -0.67488164 -0.35760698 -0.34182453
0001a0 a8 cd 18 bf 8b 16 4a bf 69 ca dc be 76 69 86 be
       -0.59688807 -0.7894065 -0.43123177 -0.26252335
0001b0 86 ee c8 be 9b ca 00 bf 94 f0 5e bf 10 d3 27 bf
       -0.3924448 -0.5030915 -0.87085843 -0.6555643
0001c0 21 19 f6 be 5e 85 4d bf 2d 77 e0 be 21 19 32 be
       -0.48066047 -0.8028163 -0.43840924 -0.17392398
0001d0 03 45 09 bf c3 e7 00 bf eb 97 98 bf 49 07 16 bf
       -0.5362093 -0.5035364 -1.1921362 -0.58604866
0001e0 60 61 3f bf 22 3b 55 bf 61 36 12 bf d0 9e ca be
       -0.7475796 -0.83293355 -0.57114226 -0.3957429
0001f0 94 f6 36 bf 89 54 fb be 0b 63 ee be b6 99 20 bf
       -0.7147 -0.49087933 -0.4655994 -0.62734544
000200 fd d4 d4 3d 16 ad a5 be e8 e2 db be cd 53 11 bf
       0.10392187 -0.32358617 -0.42946553 -0.56768495
000210 c3 21 ed be 3b 6c ed be aa 98 44 bf c2 de 89 be
       -0.4631482 -0.46371636 -0.76795447 -0.26927763
000220 47 28 1e bf 6c 7f a3 be cd 06 20 be 94 58 0e bf
       -0.6178021 -0.31933153 -0.15627594 -0.5560391
000230 94 bc 3c bf fe 3e 0d bf 37 48 db be 03 86 45 bf
       -0.7372525 -0.55174243 -0.42828533 -0.7715761
000240 43 af ae be 2f 92 82 bf f9 de fb be 0b 76 ac be
       -0.3411809 -1.0200862 -0.49193552 -0.3368381
000250 85 d9 b4 bc 07 d0 0d bf 5f 36 2f bf 96 86 f4 be
       -0.022076378 -0.5539555 -0.6844234 -0.4775893
000260 50 6d 40 bf 37 41 36 bf 99 08 d3 be 4b de 13 bf
       -0.751668 -0.7119326 -0.41217497 -0.5776107
000270 0d 12 1d bf 80 6e 00 bf 35 0c 0f bf c2 02 c1 bc
       -0.6135567 -0.5016861 -0.55878 -0.023560885
000280 45 4b ca bd 70 85 2b bf 22 c8 06 bf 61 2b 5d be
       -0.09877638 -0.67000484 -0.5264913 -0.21598579
000290 28 4b 08 bf 81 76 dc be 78 54 c1 be 5d a4 91 be
       -0.5323968 -0.4305916 -0.37759757 -0.28445712
0002a0 81 72 10 bf 42 8f 62 bf 30 4c b0 be 22 b7 ee be
       -0.5642472 -0.88499844 -0.34433126 -0.46624094
0002b0 85 2c 1a bf ee b7 10 bf ab 1e e6 be 5f be 36 bf
       -0.6022418 -0.56530654 -0.44945273 -0.71384233
0002c0 7f cd c1 be d6 02 26 bf 62 6d 39 bf a9 e0 1e bf
       -0.37852094 -0.6484808 -0.7243253 -0.62061554
0002d0 da 47 0e be 0c df 10 bf 2c 0f 50 bf 9d 56 2d bf
       -0.13894597 -0.5659034 -0.8127315 -0.67710286
0002e0 2e fd 63 bf 4e 02 21 bf 79 a3 2f bf 02 35 a4 be
       -0.89058197 -0.6289414 -0.68608814 -0.32071692
0002f0 67 c2 4e be 86 6d 6e be b4 44 2c be 3b c2 15 be
       -0.20191346 -0.23283967 -0.16823083 -0.14624874
000300 32 95 e8 be c2 3f 11 3e fb 64 bc bd 4b c5 f3 be
       -0.45426327 0.14184478 -0.09198948 -0.4761146
000310 e7 99 4a be 1f 44 6d bf 8b 84 0a bf 93 d7 41 bf
       -0.19785272 -0.9268207 -0.54108495 -0.75719565
000320 07 1b 86 be c3 26 1d bf a1 84 2d be 37 ec 36 bf
       -0.26192495 -0.6138727 -0.16945125 -0.71454185
000330 c7 47 d9 be 58 95 08 bf 2e 98 db be 53 6d 38 bf
       -0.42437574 -0.5335288 -0.4288954 -0.72041816
000340 b7 ae 09 3f cc 64 15 bf 3d 40 25 bf 8e 57 f1 be
       0.5378222 -0.5835693 -0.64551145 -0.4713711
000350 4f 72 1b bf 26 33 73 be a1 ae 73 bf a3 fe 26 bf
       -0.60721296 -0.2374998 -0.9518834 -0.65232295
000360 d9 49 24 bf ac 43 de be 72 1c 3f bf 5f 0c f5 be
       -0.6417518 -0.43411005 -0.7465278 -0.47861
000370 d0 d2 91 be 1c e9 c7 be 5d 97 b1 be 59 3b 0f bf
       -0.2848115 -0.39045036 -0.34685794 -0.5594993
000380 df 39 c2 be 43 6f 43 bf 86 3c 25 bf 1a 87 a1 be
       -0.37934777 -0.76341647 -0.64545476 -0.31548387
000390 36 aa 07 bf 02 40 37 bd 9b d0 05 3e 62 b0 07 bf
       -0.52994096 -0.044738777 0.13067858 -0.53003514
0003a0 85 0e 23 bd 42 4a 50 bf d5 38 0a be 61 00 ad be
       -0.03980877 -0.8136331 -0.13498242 -0.33789352
0003b0 55 cb 25 bf 6f 3b c1 bd 6b c0 38 bf f3 b9 66 bf
       -0.64763385 -0.09435164 -0.72168607 -0.90127486
0003c0 56 25 42 bf 75 27 6a bf 81 ab 0d bf 1c ef fc bd
       -0.7583822 -0.91466457 -0.5533982 -0.12350294
0003d0 2c 77 47 bf 49 71 1a bf 2e 7d 5f bf 2d d3 0e bf
       -0.77916217 -0.6032911 -0.87300384 -0.5579098
0003e0 dd 45 da bd b4 b2 7a be b9 f8 13 bf aa 80 c9 be
       -0.106578566 -0.24482232 -0.57801396 -0.39355975
0003f0 39 08 59 3e ad 7e 2d bf 05 9b 1b be 03 dc 70 bf
       0.21194543 -0.67771417 -0.15195854 -0.9408571

fc2.weight f4 [128, 256]
000000 d0 9b ad be 93 49 ce be c9 af d9 3e a0 a7 8e 3e
       -0.33907938 -0.40290508 0.42516926 0.27862263
000010 f1 49 4e be a6 51 12 bd 4e 73 d2 bd d3 bb 7f 3c
       -0.20145394 -0.035722397 -0.10275899 0.015608746
000020 8a 1b 13 bf 8f b0 e7 bc c9 92 ce be 55 57 04 be
       -0.57463896 -0.028282432 -0.40346363 -0.1292394
000030 06 0a 46 be 2e c8 08 be 5f ef 85 3e 68 0e a8 be
       -0.19339761 -0.13357612 0.26159188 -0.3282349
000040 da c6 03 3f a4 92 e0 3c 7a 15 22 be 60 88 0a 3e
       0.514753 0.027413674 -0.15828505 0.13528585
000050 c3 6d b6 3d 49 aa 78 3e 3a 82 bf be 53 aa ee 3e
       0.08907654 0.24283709 -0.37404042 0.46614322
000060 b9 03 11 3e ce c4 12 bf 24 b2 35 3d a4 a2 88 bd
       0.14161576 -0.5733155 0.04435934 -0.06671646
000070 56 b2 27 3e 7f 64 fc 3e ec fa 15 3e a3 71 27 be
       0.16376624 0.49295422 0.146465 -0.16351943
000080 0d 9d 08 be b8 3a 9f be 31 d6 c3 bb 6a 84 e9 3d
       -0.1334116 -0.31099486 -0.0059764613 0.11402209
000090 7b eb b1 be 0a 61 e1 3d 51 d6 d5 be b8 c5 3b be
       -0.3474997 0.11004837 -0.41765073 -0.18337142
0000a0 af 86 e2 be cc b5 35 bf 7d 77 9a be e6 f2 89 bd
       -0.4424338 -0.70980525 -0.30169287 -0.06735782
0000b0 89 9c 5f bf a9 87 7a bc b9 91 24 be ee 79 9b be
       -0.8734823 -0.015291133 -0.16071214 -0.30366462
0000c0 c1 77 8a bd 23 c6 42 bf 78 07 23 bf 98 d3 17 bf
       -0.067611225 -0.7608358 -0.6368327 -0.5930724
0000d0 39 f5 5f be 7a 90 a5 be b9 f3 fa 3d 61 f3 9a bd
       -0.21870889 -0.3233679 0.12253518 -0.07565952
0000e0 ce 3f 04 3d c8 9d 4e be eb 7e f8 bd e2 04 06 bf
       0.03228741 -0.20177376 -0.12133583 -0.523512
0000f0 c1 09 ca be 6d 0c d0 3d 7a 6b 5e be 5b 5f f1 be
       -0.39460567 0.1015862 -0.21720687 -0.47143063
000100 f1 a1 b8 3d 09 27 d2 be e9 8d 45 3e 15 d3 24 3e
       0.09015263 -0.41045406 0.19292416 0.16096146
000110 c2 3f 41 be 11 5f 82 3c 40 98 13 3e 73 18 1d 3e
       -0.18871978 0.015914472 0.14413548 0.15341358
000120 0b cc e5 bd 4c 75 7c be 56 8a 68 bd 4b 6e d7 3e
       -0.11220559 -0.2465412 -0.056772552 0.42076334
000130 4f ab a0 be ce 1e 0b 3c a5 93 18 be 9a 88 0b be
       -0.31380698 0.008491231 -0.14900072 -0.13626328
000140 a2 45 d4 bd 94 77 d0 bc 50 eb b7 be 82 6f fb 3d
       -0.10364844 -0.025447644 -0.35921717 0.12277128
000150 23 53 e4 be 49 2d 94 3e 14 e2 b2 bd 6d 22 7c 3f
       -0.44594678 0.289408 -0.08734527 0.9849003
000160 73 fb 91 be 49 45 9b b9 fd 3d 84 3e 5e 75 44 be
       -0.28512153 -0.00029615525 0.25828543 -0.19185397
000170 1a f5 59 3e bd 38 c2 be 82 26 14 bf 7a bf ce bb
       0.21284905 -0.37933913 -0.5787126 -0.006309447
000180 36 38 24 be 3a f4 4c bd 1e 1b 9b 3e 48 77 c4 3e
       -0.16037068 -0.0500376 0.30294126 0.38372254
000190 20 23 fe bd 5d 68 5e 3e 43 57 0e 3e a3 bf 9b be
       -0.12409043 0.21719499 0.13900475 -0.30419645
0001a0 e9 dc 2b be fe 44 26 bf cf b2 17 3e 52 b6 dc be
       -0.1678349 -0.64949024 0.14814304 -0.4310785
0001b0 6c 20 2d 3e 5b 62 1d be 4e 58 81 be fb db b7 be
       0.16906899 -0.15369551 -0.25262684 -0.3591002
0001c0 ed 57 3d bf 49 38 a1 be d5 53 0c bf 45 d2 94 be
       -0.7396229 -0.31488255 -0.5481542 -0.29066673
0001d0 b3 99 56 be cd ff 1d 3f 6e 5e f3 be d3 c4 ac 3e
       -0.20957069 0.61718446 -0.47532982 0.33743915
0001e0 16 2b 0c bf 76 52 12 be 0a ba 6d be a8 8e 2f 3d
       -0.54753244 -0.14289269 -0.232155 0.042860657
0001f0 6d 30 42 3e 35 c9 ee bd 78 fc b2 be e1 6e 28 be
       0.18963785 -0.11659471 -0.34958243 -0.16448547
000200 c7 75 df be 95 9f 55 bf a0 75 d8 bd e0 75 00 bf
       -0.43644544 -0.8344663 -0.1056931 -0.5017986
000210 40 53 e8 be 70 5b 19 3e 20 27 33 3f 32 9d f1 be
       -0.45376015 0.14976287 0.69981575 -0.47190243
000220 51 95 39 be ef 47 27 3d 3c a3 36 bc ca 9f 6b be
       -0.18123366 0.040840086 -0.011147317 -0.23010173
000230 8f c8 8b be f7 98 65 3d d7 83 39 be 56 d7 88 be
       -0.27301452 0.05605408 -0.18116699 -0.26726788
000240 79 86 c3 3e cf ea 67 bd 60 15 3a 3c 6a 3b b3 be
       0.38188532 -0.056620415 0.011357635 -0.35006267
000250 ec ec bb bd dd 1d 12 bf 1b 2c 0f be f9 fe 45 bd
       -0.09176049 -0.5707682 -0.13981669 -0.048338864
000260 5f 81 06 3f 2e da 36 be c4 61 f8 bd fb 14 00 be
       0.52541155 -0.17856666 -0.12128022 -0.12508003
000270 fb a2 22 bd 1a ca ae be 90 30 38 be 27 9c e8 bd
       -0.03970621 -0.34138566 -0.17987275 -0.11357909
000280 f5 c9 08 3b 7b 97 a9 be 15 d0 d0 bd 33 49 ac 3e
       0.002087233 -0.33123383 -0.101959385 0.33649597
000290 8e 29 33 3f 12 19 ac be 7c 49 b2 bd 67 b6 04 bf
       0.6998528 -0.33612877 -0.08705422 -0.51840824
0002a0 f2 59 b8 3d 59 b2 42 3c 47 23 ca 3c 90 f2 b6 bd
       0.09001531 0.011883342 0.024675025 -0.08932984
0002b0 ed e4 fe be a3 69 97 3e 7b 9e e6 3d be 62 fd 3e
       -0.49784032 0.29572782 0.112606965 0.49489397
0002c0 52 15 2f be 71 69 e9 bd 90 78 23 3e 2a 7f 9b 3e
       -0.17097977 -0.113970645 0.1596396 0.30370456
0002d0 06 ab 33 be 9b 9a df be 5a 94 42 3f b3 dd 98 3d
       -0.17545709 -0.43672642 0.76007617 0.07464161
0002e0 cc e9 8b 3e dd 80 00 3f 48 d5 d1 bd 6c 09 64 be
       0.2732681 0.5019663 -0.10245758 -0.22269219
0002f0 64 0a a9 bd 13 07 9d be fe 99 7d be 7d 0c cb bd
       -0.08253935 -0.3066946 -0.24765775 -0.09914491
000300 de c8 24 bf 6f 25 df bb 8a 52 b8 be 60 4d a5 3e
       -0.64369 -0.0068098824 -0.36000472 0.32285595
000310 02 aa 2c be 11 5e 7f 3e f8 2a 4e be a6 98 ba be
       -0.16861728 0.24938227 -0.20133579 -0.36444587
000320 9d b8 b2 be fd 1a d7 be 55 29 32 bf 5b b3 5a 3d
       -0.34906474 -0.42012778 -0.6959432 0.053393703
000330 cb be d6 3e 4f bf 92 be f9 18 04 be 12 7e 6f be
       0.41942438 -0.28661582 -0.12900151 -0.23387936
000340 2f a5 87 3d 52 9a 87 bd 34 92 bb 3e 6b 88 2d 3e
       0.06623303 -0.06621231 0.36634982 0.1694657
000350 ba 4e 8c bd 88 ae df be 2d ef bd 3e b9 82 83 bd
       -0.068509534 -0.43687844 0.3709654 -0.06421418
000360 c6 85 4b 3d 0c 84 cd 3d 1b 93 14 be 68 b0 fc be
       0.049688123 0.100349516 -0.14509241 -0.49353337
000370 d0 99 46 bf 29 90 b0 3e a7 d5 cd 3d d4 41 9f 3e
       -0.7757845 0.34484985 0.100505166 0.3110491
000380 c3 68 4b be 2e ec 8c 3e 30 06 7e be 52 1f d1 bc
       -0.19864182 0.2752394 -0.24807048 -0.02552763
000390 8a e9 35 3e 0e 45 12 bf ed 17 04 bf e6 bd a3 3e
       0.1776487 -0.5713662 -0.5159901 0.3198082
0003a0 4a 6b 46 be 63 67 0e be ca 80 39 3d 1b 3b d9 bd
       -0.19376865 -0.13906626 0.04528884 -0.106069766
0003b0 b8 f5 8d 3e 38 fd c4 bd 86 bb a8 bd 06 63 97 3e
       0.2772653 -0.0961861 -0.08238892 0.29567736
0003c0 fd 02 0b bf 47 98 e5 bd ec 41 17 3e e5 d6 4a 3d
       -0.54301435 -0.11210685 0.14771241 0.049521346
0003d0 1d aa bb bc 0e 4a 0b 3f 00 70 26 bf 33 59 74 3e
       -0.022908265 0.54409873 -0.6501465 0.23862152
0003e0 bd c4 35 bf ba 4c 2a 3e aa 98 56 3d 48 9b ef 3e
       -0.71003324 0.16630831 0.052391686 0.46798158
0003f0 49 8f 69 be 63 b6 20 be 4f b4 d0 bd 1f 5f 43 3e
       -0.22808565 -0.15694575 -0.10190641 0.19079255

fc2.bias f4 [128]
000000 9a be 04 bf 38 b1 63 be 63 f8 9e bf 6d 4a 2f bf
       -0.51853335 -0.22235572 -1.2419552 -0.6847294
000010 d1 f6 ed be 18 ea 30 bf a5 96 a1 bf 58 70 d6 be
       -0.46477368 -0.691072 -1.2624098 -0.41882586
000020 57 64 1c bf 92 8e 8e bd c3 ed 3d be 79 30 33 bf
       -0.61090606 -0.06960787 -0.1854773 -0.6999584
000030 ca 68 65 bf e2 6d ba bf 10 fe b9 be 70 74 01 be
       -0.8961302 -1.4564784 -0.36326647 -0.12642074
000040 c7 82 7b be f0 a6 8e 3e c5 46 f4 3e dc 7b 9a bc
       -0.24561606 0.27861738 0.47710243 -0.018857889
000050 dd fb 2f bf 9d f8 35 bf d9 17 01 bf 13 c6 a2 3d
       -0.6874369 -0.7108248 -0.50427014 0.07947936
000060 f8 62 1c bf be dd be bd 6d 7f d4 ba 42 a5 26 bf
       -0.61088514 -0.09319638 -0.0016212292 -0.65095913
000070 a1 8b 38 bf d9 aa 62 3e 9f f1 05 be 83 34 fd 3d
       -0.72088057 0.22135486 -0.13080452 0.123635314
000080 d1 de f2 be 03 5b 3a be e7 4f ad bf a5 29 bc be
       -0.4743562 -0.1819878 -1.3540009 -0.36750522
000090 fa f5 df bf 7e 3c 2a bf ac 4f fd be 69 b5 6a 3d
       -1.7496941 -0.66498554 -0.49474847 0.057301912
0000a0 63 ca e6 bd 3d 96 f6 be 59 5b 48 bf 02 0c fa be
       -0.11269071 -0.48161498 -0.78264385 -0.48837286
0000b0 48 7d d1 bd cf ef c9 be 06 db 8f bd e0 08 9c bf
       -0.102289736 -0.39440772 -0.07024197 -1.2190208
0000c0 b6 e0 c1 be 90 2e 93 bf 87 ae 5d bf 06 a3 ed bf
       -0.37866753 -1.1498585 -0.8659443 -1.8565376
0000d0 b4 7b 6a bf 3e 74 e1 be 1c 1c a1 bd aa fb b2 bf
       -0.91595006 -0.44033998 -0.078666896 -1.3983052
0000e0 cb 6e 52 bc 4a 74 41 bf 8c 16 c1 be e0 9c d7 3d
       -0.012843798 -0.7556807 -0.37712514 0.105279684
0000f0 de cc 0c bf 06 57 97 be d2 34 9e bf 2a e1 87 be
       -0.550001 -0.2955858 -1.235987 -0.26538974
000100 c6 61 50 be 89 0f 10 3e 92 0e ed be 2f 6c 1e bf
       -0.20349798 0.14068426 -0.4630018 -0.61883825
000110 c9 14 f5 be 48 b7 69 bd 03 5f b5 be 34 56 88 bf
       -0.4786742 -0.057059556 -0.3542405 -1.0651307
000120 5e 7e 35 3e eb 8a 19 bf 36 b1 0b bf 84 9f 57 be
       0.17723987 -0.59977597 -0.5456728 -0.21056944
000130 57 b2 11 bf 36 62 97 bf c0 c0 67 bf 21 eb 00 3d
       -0.5691275 -1.1826847 -0.9052849 0.031474236
000140 e8 79 29 3f e6 3a 94 3c 21 12 15 bf ed 91 03 3e
       0.6620164 0.018094491 -0.5823079 0.12848635
000150 6c 22 c6 bd 3e 5c 48 bd 3b a7 4b bf 90 79 b5 bd
       -0.09674534 -0.048916094 -0.7955205 -0.08861077
000160 00 40 fe be b1 68 89 be 8c 1e 9b be f0 be 2a be
       -0.49658203 -0.26837686 -0.30296743 -0.166744
000170 8c 32 4c bf 64 fe 37 bf ff f4 b7 be 52 00 c3 be
       -0.7976463 -0.71872544 -0.35929105 -0.38086182
000180 12 28 91 bd 35 9a 32 bf 46 3d 99 be 48 34 3d be
       -0.07087721 -0.6976655 -0.2992956 -0.18476975
000190 34 f4 34 bf 98 c9 bd be b7 fa 12 bf 34 b7 1c bf
       -0.70685124 -0.37067866 -0.5741381 -0.61217046
0001a0 a1 13 8a be 3b ba 7e 3e 70 7a b4 be 74 b9 85 3d
       -0.269681 0.24875729 -0.35249662 0.06529513
0001b0 3f 00 a7 be 6d 37 43 be 8c d6 fa bd c0 7d 17 be
       -0.32617375 -0.19064112 -0.12247953 -0.14794064
0001c0 8b e4 0f be 6c d8 b6 bd d9 ef 7d 3c 80 01 14 bf
       -0.14052026 -0.08927998 0.015499079 -0.5781479
0001d0 09 38 89 3c dc 72 98 be 05 e5 e4 3e 6c 09 de bc
       0.016750352 -0.2977513 0.44705978 -0.027104102
0001e0 2a f9 be bd da 02 0d bf 77 7b 60 be c3 96 35 be
       -0.09324868 -0.55082476 -0.21922098 -0.17733292
0001f0 f1 61 42 bf d2 05 25 bf 5d 04 01 c0 52 79 39 bf
       -0.75930697 -0.64462006 -2.0158913 -0.72450745

fc3.weight f4 [2, 128]
000000 f4 dc 91 be b8 5d de be bd 54 65 be 0d 33 af 3c
       -0.28488886 -0.43430877 -0.22395606 0.021386648
000010 ad 69 97 3d 74 dc a2 3e 19 14 5f bd e0 d8 9f 3e
       0.07393203 0.31808817 -0.054462526 0.3122015
000020 a4 6a da 3e 85 c2 2c 3b cc 7b 4d 3e 83 af 31 3d
       0.42659485 0.002636106 0.20066756 0.04338027
000030 37 46 5a bf 12 62 46 be bd 17 27 bf aa 9a 79 bf
       -0.8526339 -0.19373348 -0.65270597 -0.97501624
000040 f9 4e 92 3d fc 17 2d 3e 4a 34 58 bd 52 97 07 be
       0.07143969 0.1690368 -0.05278424 -0.13241318
000050 ae 65 a7 be 6f 50 a8 3e ab cf f1 bd de a2 aa bd
       -0.32694763 0.32873866 -0.11807188 -0.08331846
000060 a2 9b 9f bc fe d8 67 3d 4f ad da bc c8 e3 f8 3d
       -0.019483391 0.056603424 -0.026693968 0.12152821
000070 f6 99 75 3e 99 bb 41 3e 5d 06 0c be 29 a8 33 be
       0.23984513 0.18919219 -0.13674302 -0.17544617
000080 1b 4a 59 3d 33 c6 e5 3c 33 75 06 bf 55 af 05 3f
       0.053049188 0.02804861 -0.5252258 0.5222066
000090 85 62 d1 bd 6d 90 7f be 1e cf 9a be f8 8f a3 bd
       -0.10223869 -0.24957438 -0.30236143 -0.07986444
0000a0 63 62 a1 ba fe c2 8b 3e f1 82 bc be 5b 7f 13 3e
       -0.0012312647 0.27297205 -0.3681865 0.14404051
0000b0 55 31 4c 3e 9a c2 01 be 43 52 75 bd 11 45 01 bf
       0.19940694 -0.12671891 -0.059892904 -0.5049601
0000c0 7c 07 fe 3e c5 9c 26 be 98 de 54 bf ff a5 65 bf
       0.49615085 -0.1627074 -0.8315215 -0.89706415
0000d0 d6 b9 a3 be 13 55 97 3c 54 71 f7 bd cb 58 39 be
       -0.3197772 0.018473184 -0.120821625 -0.18100278
0000e0 9d 78 c0 3e d9 cc cd be fe 63 a8 3e 1d 1e c1 be
       0.3759202 -0.4019535 0.32888788 -0.37718287
0000f0 f8 e6 74 bd 5f 2c 8e 3d bf ae 4f be 6b 82 f2 bc
       -0.05979058 0.06942057 -0.20281504 -0.029603204
000100 9f 0d 35 3e 84 90 d2 3e f9 37 6d 3e b5 2f 33 3e
       0.17680977 0.41125882 0.23165883 0.17498668
000110 a9 31 21 3f 9a 13 1a 3c 54 89 f8 bd 5f cf e4 bd
       0.629664 0.009404087 -0.12135568 -0.111723654
000120 ee 4b 37 be 0e d4 d9 bd 9e 1d 18 3f ff 9a 72 bd
       -0.17900059 -0.10636149 0.5942019 -0.059229847
000130 1c 11 5b bd db 84 87 3e c2 d1 a7 be 6f a6 3b 3e
       -0.053483114 0.26468548 -0.3277722 0.18325208
000140 06 26 0e bc 6c 35 0c 3f a5 57 b0 bd d3 6a 82 bd
       -0.008676058 0.54769015 -0.08610467 -0.06368031
000150 5f b8 05 be 74 05 af 3d 5a 92 d9 3d 49 7a c4 3c
       -0.13058613 0.08545962 0.106236175 0.023984091
000160 c8 41 fe 3e a9 a7 b8 bb 50 45 af be dd 8b e1 ba
       0.49659562 -0.005635221 -0.3423257 -0.001720782
000170 5a a8 f5 be 01 f4 2f 3e 81 8e e8 bd 7b 63 ac bd
       -0.47980005 0.17182924 -0.113553055 -0.08417412
000180 d9 80 91 bb 26 11 49 be c3 df bc be 62 02 33 bc
       -0.0044404087 -0.19635448 -0.36889467 -0.010925861
000190 ef 40 f8 3e 46 0d 19 3e 5e 65 09 3e 61 0f 89 bd
       0.4848704 0.1494647 0.13417575 -0.066923864
0001a0 d6 97 8f 3d db 35 84 3d ce 8f fa be 03 36 71 3e
       0.07011382 0.064555846 -0.4893784 0.2355576
0001b0 6a ad d1 3c 1f 7a 67 3c 54 b0 03 3e 11 a9 e9 be
       0.025595386 0.014128237 0.12860233 -0.456368
0001c0 02 03 31 3e bd a9 8f bd 32 76 05 3e 62 23 86 3e
       0.17286304 -0.07014797 0.13033369 0.2619887
0001d0 ed e8 0c 3f 86 2a 5f 3e 62 37 dd bd fe 37 14 3d
       0.55042917 0.21793565 -0.10801579 0.03618621
0001e0 98 b4 cb bb cb 13 0c 3e 79 5c 35 3d e0 93 fa bd
       -0.006216597 0.13679425 0.044277642 -0.12235236
0001f0 54 43 b1 bd e3 61 44 be 56 a6 13 bf 44 a8 b4 be
       -0.0865542 -0.19177966 -0.57675683 -0.35284626
000200 b8 cc 5e 3e f1 87 da be 8c 86 4e be 34 e4 51 bf
       0.21757782 -0.4268184 -0.20168513 -0.81988835
000210 3e c6 e2 3e f8 71 b8 be 2c 27 25 be 1b 34 14 bf
       0.44291872 -0.3602445 -0.16128224 -0.57892007
000220 71 c9 a4 be dd 8d d3 3e 4e 17 cf be 66 fe 90 bf
       -0.32184938 0.4131917 -0.40447468 -1.1327636
000230 3c 8f 93 3e 78 6d 8e bf 3e 7c e9 3e 19 95 43 3e
       0.28820217 -1.1127157 0.45602602 0.19099845
000240 a9 f6 30 3f a7 b2 cd be 6c 60 25 bf a6 36 0e be
       0.69126374 -0.40175363 -0.64600253 -0.13888034
000250 54 8b 94 be a9 04 46 3f d9 3f 02 bf 75 2d 90 bc
       -0.2901255 0.7735086 -0.50878674 -0.0175998
000260 1d f9 c7 3e 5b 1d 55 bc 30 19 26 3f c5 07 db 3e
       0.39057246 -0.013007487 0.64882183 0.42779365
000270 e9 86 99 bf f2 e6 38 3f 46 8e 73 bc 56 a1 bb bd
       -1.1994296 0.72227395 -0.014865464 -0.09161632
000280 83 6a b6 3f 6c db 45 3f ed c1 51 3e 6b b8 d6 3d
       1.4251255 0.77287936 0.20484133 0.10484394
000290 35 c3 15 bf 4a 74 1c 3f 64 b2 5b 3d c8 30 c9 bd
       -0.5850099 0.61114943 0.053636923 -0.098237574
0002a0 cd be e0 3c 51 e4 17 bf 44 b4 67 3e 04 00 6a bf
       0.02743473 -0.5933276 0.2262736 -0.91406274
0002b0 35 7a 87 bf 19 e0 a9 3e 57 85 1a 3d f4 d0 89 bd
       -1.058417 0.33178785 0.03772482 -0.06729308
0002c0 23 4c cc be 39 06 fb be a4 54 55 3e 0e db 2c bf
       -0.39901838 -0.49028185 0.20833069 -0.6752175
0002d0 a1 09 0c bd cf df 31 bf b9 64 30 bd cf 48 3b bf
       -0.03418887 -0.6948213 -0.043064807 -0.7315797
0002e0 19 25 58 bf 9c 50 4f 3c fc b0 83 3e 1c 68 50 bd
       -0.84431607 0.012653496 0.25720966 -0.050880536
0002f0 7b 82 b3 3e ce c8 2c 3f 4f d1 30 bf 58 d4 f2 be
       0.35060486 0.67493904 -0.6906938 -0.4742763
000300 7a 20 15 be d9 bd 49 bf 8f ac 11 bd f4 6d 12 3f
       -0.1456317 -0.7880531 -0.035564955 0.57199025
000310 b4 d5 30 3d bb 6b ed 3d b9 71 ec 3e 55 a6 71 bf
       0.043172553 0.115928136 0.46180514 -0.9439443
000320 fa 16 91 3e a1 ee 01 bf 9c c0 2b bf 18 18 96 3d
       0.28337842 -0.50754744 -0.67090774 0.07328814
000330 1a 8d 50 bf 76 7a e9 bf 56 09 1d 3e 26 19 5f bf
       -0.81465304 -1.8240497 0.15335593 -0.8714775
000340 af 40 3a 3e 8f 2d 57 bf 41 d9 6e bf 24 a3 31 bd
       0.18188737 -0.8405389 -0.93300253 -0.043368474
000350 03 d7 91 bc f0 01 eb bd 15 1f 51 bf 8c 70 cc 3c
       -0.01780272 -0.11474979 -0.8168805 0.02495601
000360 ef e8 ec be 14 c4 b7 ba e2 09 7f 3e 0f fc d5 3d
       -0.46271464 -0.0014020228 0.24906114 0.10448467
000370 33 57 6a bf 8e 6e a3 be c9 ee 6d be c4 d6 04 3f
       -0.91539305 -0.31920284 -0.2323562 0.51890206
000380 3d 82 3a be 90 6b 26 bf 3c 96 b2 be 43 76 9a bf
       -0.18213744 -0.6500788 -0.34880245 -1.2067341
000390 19 39 3a 3e a5 f3 1a bf 65 34 de 3e 1a 13 2d be
       0.18185844 -0.6052802 0.4339935 -0.16901818
0003a0 f6 6f 02 3f 38 0e dd 3d 63 d9 a1 bf 54 1a 9d be
       0.5095209 0.10793728 -1.2644466 -0.3068415
0003b0 57 2b 92 bf 6c 2c b9 3e 10 a3 b1 bd 43 58 1a 3f
       -1.1419476 0.36166704 -0.0867368 0.60290927
0003c0 b1 f9 d5 3e 9d 43 c0 bd 6b 13 c0 bd d2 e6 0c 3f
       0.41792062 -0.09387896 -0.09378704 0.55039704
0003d0 de 04 84 bf 82 96 3b 3d 39 71 52 3f 51 c8 68 3f
       -1.0313985 0.045797832 0.82204014 0.9093066
0003e0 94 72 68 3c 35 d9 c5 3e eb 2b 1b 3f a7 80 4a be
       0.014187474 0.38642278 0.6061389 -0.1977564
0003f0 7f 9e 3d bf a3 c8 4b bf 52 61 9e bf 40 99 0a bf
       -0.7406997 -0.7960302 -1.237345 -0.5414009

fc3.bias f4 [2]
000000 3c 85 2b be cb d7 13 c0
       -0.16750044 -2.310046
