cp-aritic0.pth (torch_old, 185416 bytes, 5 tensors)

fcs1.weight f4 [256, 48]
0	0x3f2b0c9d	0.6681612
1	0xbf196461	-0.5991879
2	0xbe3bb481	-0.18330576
3	0x3e23c6b5	0.1599377
4	0xbd269250	-0.04066688
5	0x3e2ce5df	0.16884564
6	0xbe4c3e45	-0.19945629
7	0x3e42eb73	0.19035129
8	0x3f1507f4	0.5821526
9	0xbf757a60	-0.95889854
10	0xbdb80f69	-0.08987314
11	0x3f02a95b	0.51039666
12	0xbeb7cefc	-0.35900104
13	0x3f1e9f7f	0.6196212
14	0x3c87a888	0.016559854
15	0x3ef2750f	0.47354934
16	0x3f2eba17	0.682527
17	0xbf0bfbdd	-0.5468119
18	0xbb8d0984	-0.004304113
19	0x3eb0df48	0.3454535
20	0x3d5352f6	0.05159279
21	0x3f694081	0.9111405
22	0x3d118060	0.03552282
23	0x3e83002c	0.2558607
24	0x3ed0eb55	0.40804544
25	0x3e4ff24e	0.20307276
26	0xbc288de4	-0.010287736
27	0xbe38b2d1	-0.18036963
28	0xbcf2259b	-0.029558947
29	0x3dd7222b	0.10504564
30	0xbd3f2a43	-0.046671163
31	0xbe16021d	-0.14649244
32	0x3edc19dd	0.42988482
33	0x3d73924e	0.0594657
34	0xbbb923e6	-0.0056500314
35	0xbe926ee8	-0.2860024
36	0x3e9ebd3c	0.3100375
37	0x3f254655	0.64560443
38	0xbcda476f	-0.02664539
39	0xbe6bd3ed	-0.23030062
40	0x3f09ac1d	0.5377825
41	0x3ea93e19	0.3305519
42	0xbd5ad062	-0.053421386
43	0xbe8c3b77	-0.27389118
44	0xbdc14e9a	-0.0943882
45	0x3f68f736	0.91002214
46	0xbd3e89c7	-0.046518113
47	0xbe49c776	-0.19704995
48	0xbf11bf1c	-0.56932235
49	0x3f51625e	0.8179072
50	0x3d5b65cc	0.053563878
51	0x3eed065d	0.46293917
52	0xbf3155a8	-0.69271326
53	0xbdd43b92	-0.10362925
54	0x3caf8553	0.021425879
55	0x3f0913f7	0.5354609
56	0xbda07dc8	-0.07836491
57	0x3fb72333	1.4307617
58	0xbc89f58c	-0.016840719
59	0x3db72dd9	0.089442916
60	0x3e8b57af	0.27215335
61	0xbf46684f	-0.7750291
62	0xbcca9b1b	-0.024732163
63	0x3ddbe2bd	0.10736606
64	0x3ed1b37a	0.40957242
65	0x3ffed239	1.9907905
66	0x3d3afed4	0.04565318
67	0x3e57b1b5	0.21063884
68	0x3f67bed6	0.9052557
69	0xbfa82fcd	-1.3139588
70	0x3cdd39c1	0.027005078
71	0x3e02f09b	0.12787096
72	0x3ec93167	0.39295503
73	0xbebf7163	-0.37391195
74	0xbc80ac74	-0.015707232
75	0x3ed0f972	0.40815312
76	0x3f1c88e6	0.6114639
77	0xbda44321	-0.08020616
78	0xbd7ed47e	-0.062214367
79	0x3ecb9806	0.39764422
80	0x3ebd0827	0.36920282
81	0xbf9ab58f	-1.2086657
82	0xbd6db362	-0.0580324
83	0xbec6166f	-0.3868899
84	0xbeaa1580	-0.33219528
85	0xbf3bbb70	-0.7333288
86	0xbc9a0329	-0.018800335
87	0xbeda9730	-0.42693472
88	0x3dcb2dcc	0.099208444
89	0xbfa3fa9b	-1.2810854
90	0xbe225c95	-0.1585563
91	0x3ebcab34	0.36849368
92	0xbf662bf0	-0.89910793
93	0xbfa01ec2	-1.2509387
94	0xbe37940a	-0.17927566
95	0x3ec91597	0.39274284
96	0x3ec41d43	0.38303575
97	0x3eeec948	0.4663794
98	0x3d1c3f90	0.038146555
99	0x3ea50905	0.32233444
100	0xbe05206b	-0.13000648
101	0xbe2b9959	-0.16757716
102	0x3cc4fa99	0.024045276
103	0x3ed56a84	0.41682827
104	0x3f09d15f	0.538351
105	0x3ecc1e4b	0.39866862
106	0xbd39354b	-0.04521684
107	0x3e96ce08	0.29454064
108	0xbeeabe1e	-0.45848173
109	0xbf148a9f	-0.5802402
110	0x3d5cac5d	0.053875316
111	0x3e8be01a	0.27319413
112	0x3f1c23ac	0.6099193
113	0x3efb7e68	0.49119878
114	0xbcd5a096	-0.02607755
115	0x3edb05c9	0.4277785
116	0xbf5b5c16	-0.85687387
117	0xbfa799f5	-1.3093859
118	0x3d8385a2	0.06421973
119	0x3f0a8fe2	0.541258
120	0x3ce8f7b1	0.028438421
121	0xbf89c6d7	-1.0763806
122	0xbdb1adda	-0.08675738
123	0x3c8006b3	0.015628194
124	0x3e0a34b6	0.1349667
125	0xbe1cfd1a	-0.15330926
126	0xbbbde500	-0.005795121
127	0xbd7dcd7f	-0.061963554
128	0xbcdaf004	-0.026725776
129	0xbf88598b	-1.0652326
130	0xbd8d7f43	-0.06909039
131	0xbddef2a5	-0.108861245
132	0x3ef7808b	0.48340258
133	0xbf19a72e	-0.6002072
134	0xbda9ed12	-0.08297171
135	0xbdcdd6df	-0.10050749
136	0x3b3b8e08	0.0028618593
137	0xbf35f61d	-0.71078664
138	0xbde648a1	-0.112443216
139	0x3eadb2d1	0.3392549
140	0x3f609ede	0.8774241
141	0xbfa2e3e9	-1.2725803
142	0xbdbb909f	-0.09158444
143	0x3eced57a	0.40397245
144	0x3eda8dbc	0.4268626
145	0x3e3669fe	0.1781387
146	0xbca3e303	-0.020005709
147	0xbe24ba0f	-0.160866
148	0xbf20546d	-0.62628824
149	0xbef5f959	-0.480418
150	0xbd69e921	-0.057107095
151	0xbe0c76d9	-0.13717212
152	0x3f4addf1	0.79244906
153	0xbe60b1ff	-0.219429
154	0xbb1a1102	-0.0023508673
155	0xbf24c705	-0.6436618
156	0xbd555cf0	-0.052090585
157	0xbf3311bb	-0.6994893
158	0x3d68d71e	0.056845777
159	0xbf41ba9c	-0.7567537
160	0x3f66677d	0.9000166
161	0x3f3e809d	0.74415
162	0x3e22ab95	0.15885766
163	0x3f5558da	0.833387
164	0x3f5002f4	0.81254506
165	0xbe4b35fc	-0.19844812
166	0x3dc83f36	0.097776815
167	0x3f60fb97	0.87883896
168	0xbe4b6c68	-0.19865572
169	0xbf07df2f	-0.53074926
170	0xbcf2e98a	-0.029652376
171	0xbe0e4778	-0.1389445
172	0x3f17f134	0.5935242
173	0xbf124cff	-0.57148737
174	0x3bbd1b58	0.005771082
175	0xbdb7f9ed	-0.089832164
176	0xbccf2d22	-0.025290076
177	0xbb5865dc	-0.0033019697
178	0x3ea45a2d	0.3210005
179	0xbea392bd	-0.3194789
180	0x3d5bd85d	0.053673137
181	0xbf2a39f3	-0.66494673
182	0x3e5b76ff	0.21432112
183	0xbeb94b22	-0.36190134
184	0x3df26a8b	0.11836728
185	0x3ee78eb8	0.45226073
186	0x3ddaddfd	0.10686872
187	0x3f314360	0.6924343
188	0xbf4889e6	-0.78335416
189	0xbe607ac3	-0.2192183
190	0x3dc09181	0.09402753
191	0x3f2cc76f	0.6749181
192	0x3f23ddd7	0.64010376
193	0xbffd5785	-1.9792334
194	0x3d5ed606	0.054403327
195	0x3e8edfb9	0.27905062
196	0xbedfe700	-0.43730927
197	0xbe982bb2	-0.29720837
198	0xbc9ac813	-0.018894231
199	0x3e821d02	0.25412756
200	0x3f3a4f32	0.7277709
201	0xbff2f4d4	-1.8980966
202	0x3db5aa40	0.08870363
203	0x3d75d8fa	0.060021378
204	0xbf162c3e	-0.5866126
205	0xbd8c32da	-0.06845637
206	0x3dcfe54e	0.10151158
207	0x3e188549	0.14894594
208	0x3f70b77b	0.9402997
209	0xbfa65c0b	-1.2996839
210	0x3e218872	0.15774706
211	0x3d2f6559	0.042821262
212	0xbf1b0bdf	-0.6056499
213	0xbe1e0422	-0.15431264
214	0x3e4ec0e9	0.20190777
215	0x3d4ac8be	0.04950785
216	0x3e8c91b2	0.27454907
217	0xbeb4c69c	-0.35307777
218	0xbc9c6697	-0.019091887
219	0xbe4efab1	-0.20212819
220	0x3ed54773	0.41656074
221	0xbe6e48db	-0.2326998
222	0xbc790593	-0.015199083
223	0xbe402aaa	-0.18766275
224	0x3eb64ecc	0.35606992
225	0xbe34040e	-0.17579672
226	0x3db99ae0	0.09062743
227	0x3f0eb109	0.55738884
228	0x3f2beed8	0.6716132
229	0xbe1d2173	-0.15344791
230	0x3e3be5b8	0.1834935
231	0x3f27dc67	0.6557068
232	0x3f236793	0.63829917
233	0xbc74d843	-0.014944139
234	0x3e2dba73	0.16965656
235	0xbeb13d5d	-0.3461713
236	0x3f20b5df	0.62777513
237	0xbe622668	-0.22084963
238	0x3e6af7b8	0.2294606
239	0xbecf0000	-0.40429688
240	0x3eb76c72	0.35824925
241	0x3edba4b9	0.4289911
242	0xbe5b2190	-0.21399522
243	0xbe36e017	-0.17858921
244	0xbe5e486e	-0.21707317
245	0xbecff598	-0.4061706
246	0xbe4e032e	-0.201184
247	0xbe033b72	-0.12815645
248	0x3f161fdf	0.5864238
249	0x3d4b673c	0.049659
250	0x3da22df9	0.07918925
251	0x3e932170	0.28736448
252	0xbdf1e445	-0.11811117
253	0xbf3d4a96	-0.73941934
254	0x3dc1c7d1	0.0946194
255	0x3ea334a6	0.31876105

fcs1.bias f4 [256]
0	0xbf81ddb9	-1.0145789
1	0xbfa3079b	-1.2736696
2	0xbe59d24b	-0.21271627
3	0xbfbf8db5	-1.496512
4	0xbf13b4c6	-0.57697713
5	0xbf54ced6	-0.83128107
6	0xbf6b7d21	-0.91987807
7	0xbe9f4199	-0.31104735
8	0xbe5951a9	-0.21222557
9	0xbf6efa13	-0.9335033
10	0xbf68e3ad	-0.90972406
11	0xbf95b424	-1.16956
12	0xbf356fd8	-0.70873785
13	0xbe00ab5d	-0.1256537
14	0xbf80cad1	-1.0061895
15	0x3bcf2ea7	0.0063227
16	0xbe1c690b	-0.15274446
17	0xbf8f94eb	-1.1217321
18	0x3d995e11	0.07488645
19	0xbe25e06c	-0.16198891
20	0x3e3628f7	0.17789064
21	0xbf79efd0	-0.9763155
22	0x3e79508e	0.24347135
23	0xbf8fe955	-1.1243082
24	0xbf99d041	-1.2016679
25	0xbdeb8e3d	-0.11501739
26	0x3ecacb4a	0.39608222
27	0x3f051ce0	0.51997185
28	0xc002ccc1	-2.0437472
29	0xbfbb4a9b	-1.4632143
30	0xbf8f1339	-1.1177741
31	0xbeeff9cf	-0.46870276
32	0xbed2959f	-0.41129777
33	0xbe4a4b05	-0.1975518
34	0xbe0d0023	-0.13769583
35	0xbe06863a	-0.13137141
36	0xbf8ded69	-1.1088077
37	0xbd6cb9fe	-0.057794563
38	0xbf13b54c	-0.5769851
39	0xbf16c906	-0.5890049
40	0x3da83aeb	0.08214363
41	0xbee4d22e	-0.44691604
42	0xbf23eb2b	-0.6403071
43	0x3f645875	0.89197475
44	0xbf848106	-1.0351875
45	0xbf459e2c	-0.77194476
46	0xbf691e98	-0.9106231
47	0xbfdea0dc	-1.739284
48	0xbf4610df	-0.77369493
49	0xbf882ae3	-1.0638088
50	0xbf3404c6	-0.70319784
51	0x3e635c0f	0.22203086
52	0xbeee82fd	-0.4658431
53	0xbf2052ae	-0.6262616
54	0xbf828348	-1.0196314
55	0xbe06cd21	-0.13164188
56	0xbd9590e5	-0.07303027
57	0xbf052b7a	-0.52019465
58	0xbf7b5f78	-0.9819255
59	0xbf93ab7f	-1.1536711
60	0xbf6e72e3	-0.93144053
61	0xbf526aaf	-0.82194036
62	0xbec50369	-0.38479164
63	0x3e4e87d5	0.20169003
64	0x3f569f60	0.83836937
65	0xbec5d5b1	-0.38639596
66	0xbe0fae8b	-0.14031427
67	0xbdb7a318	-0.089666545
68	0xbf8ee27a	-1.1162865
69	0xbf3a09e6	-0.72671354
70	0x3e784125	0.242436
71	0xbf38b607	-0.7215275
72	0xbe9deac7	-0.30843183
73	0xbfc6a528	-1.5519152
74	0xbf0a12fb	-0.5393521
75	0xbdfcc2bf	-0.12341832
76	0xbf0fc550	-0.5616045
77	0xbf3e4a51	-0.7433215
78	0xbfb8d042	-1.4438555
79	0xbe5bf3b8	-0.2147969
80	0xbf96f39c	-1.1793094
81	0xbf9aa4dd	-1.2081562
82	0xbf655171	-0.89577395
83	0xbf8deedf	-1.1088523
84	0xbea55ab7	-0.32295772
85	0xbeae5c16	-0.3405463
86	0xbe2419c5	-0.16025455
87	0xbf81b5ab	-1.0133566
88	0x3f066626	0.52499616
89	0xbf58e169	-0.8471895
90	0xbfe661d5	-1.7998606
91	0xbfea2e34	-1.829535
92	0xbf90ae6b	-1.1303228
93	0x3f895323	1.0728496
94	0x3f3b803e	0.7324256
95	0xbda7b2df	-0.08188414
96	0xc00f83f9	-2.24243
97	0x3fe50830	1.7893124
98	0xbdffaef1	-0.12484539
99	0xbec4f017	-0.38464424
100	0xbec67b32	-0.38765866
101	0xbfcd3ed1	-1.6034795
102	0xbf331e93	-0.6996853
103	0x3de6c509	0.1126805
104	0x3dc28b54	0.09499231
105	0xbf207a91	-0.6268702
106	0xbf0fcce8	-0.5617204
107	0xbf4ab9ef	-0.7918996
108	0xbf9a3174	-1.2046342
109	0xbf7e33bf	-0.9929771
110	0xbfcd62c3	-1.6045765
111	0xbf45e040	-0.77295303
112	0xbe3b55d7	-0.18294464
113	0x3e4fdc7f	0.20298956
114	0xbf06e800	-0.52697754
115	0xbf7789d5	-0.9669469
116	0xbe835267	-0.25648805
117	0xbf8bc19d	-1.0918461
118	0xbde1b776	-0.110213205
119	0xbfa295f3	-1.2702011
120	0xbfd9e016	-1.7021511
121	0xbeeeebc9	-0.46664265
122	0xbf4f5c5d	-0.8100031
123	0xbfbcc929	-1.4748889
124	0xbe42500f	-0.18975852
125	0xbeda3db1	-0.42625192
126	0xbebb2f3a	-0.36559469
127	0xbe5b54e4	-0.21419102
128	0xbf4fe9dd	-0.8121622
129	0xbf1c9c84	-0.61176324
130	0xbe19808c	-0.14990443
131	0xbfa07c71	-1.2537977
132	0xbe931c0a	-0.2873233
133	0xbf42c82e	-0.760867
134	0xbebf5a7b	-0.3737372
135	0xbe457e5a	-0.1928648
136	0xbf9301bf	-1.1484908
137	0xbfc207f1	-1.5158674
138	0xbdc88f6f	-0.09792983
139	0xbf38d02e	-0.72192657
140	0x3f0f7ec5	0.5605281
141	0xbf0c02ec	-0.5469196
142	0xbe939217	-0.28822395
143	0xbee4240e	-0.44558758
144	0xbedb8917	-0.4287803
145	0xbed5ddf2	-0.41770893
146	0xbe725482	-0.2366505
147	0xbf08a1d0	-0.53371906
148	0xbe514522	-0.20436528
149	0x3e438456	0.19093451
150	0xbf1d0e3a	-0.61349833
151	0x3e0fc50a	0.14040008
152	0xbf6745c1	-0.9034081
153	0xbf754c19	-0.9581924
154	0xbf2fc6f4	-0.68662953
155	0xbf53f3b5	-0.8279374
156	0xbea37fe8	-0.31933522
157	0xbf1c3f3e	-0.61034
158	0xbfb9c419	-1.4512969
159	0xbfdd1bed	-1.7274147
160	0xbfa17560	-1.2613945
161	0xbe9c3d2c	-0.3051542
162	0x3e44b69e	0.19210288
163	0xbebab3b4	-0.36465228
164	0xbe38a81f	-0.18032883
165	0x3e95eaf1	0.2928081
166	0xbe7ea4f4	-0.24867612
167	0xbf948448	-1.1602869
168	0xbe0f0402	-0.13966373
169	0xbf2f78b3	-0.6854355
170	0xbfcc700b	-1.5971693
171	0xbd6cb661	-0.057791118
172	0xbf4fbfae	-0.81151855
173	0xbe0a63d2	-0.13514641
174	0x3f2edab2	0.6830245
175	0x3e9f01b7	0.31055996
176	0xbe9d8669	-0.3076661
177	0xbea48477	-0.32132313
178	0xbee3408d	-0.44385186
179	0x3daafc30	0.08348882
180	0x3cacd6af	0.021098463
181	0xbfaba5a9	-1.340993
182	0xbf79bc1a	-0.97552645
183	0xbe4b780d	-0.19870014
184	0xbf69560f	-0.9114694
185	0xbfb6b373	-1.4273514
186	0xbeaa419f	-0.3325319
187	0xbf11ab34	-0.5690186
188	0xbfb8c7aa	-1.4435933
189	0xbf2caef2	-0.67454445
190	0xbf52cb1b	-0.82341164
191	0x3d3fe94f	0.04685336
192	0xbd8f2f8f	-0.06991493
193	0xbea28efc	-0.31749713
194	0xbe0874a2	-0.13325742
195	0xbec43837	-0.3832414
196	0xbe62db62	-0.22154
197	0xbf036488	-0.51325274
198	0xbe7c60f9	-0.24646367
199	0xbf238eaa	-0.63889563
200	0xbe821a4b	-0.25410685
201	0x3da25c60	0.079277754
202	0xbf564e75	-0.83713466
203	0x3eebfb50	0.46090174
204	0xbf091fb2	-0.5356399
205	0xbfb82bb5	-1.4388338
206	0xbf372320	-0.7153797
207	0xbf9b4082	-1.2129061
208	0xbe1685f0	-0.1469953
209	0xbd41aceb	-0.047284048
210	0xbe860143	-0.26172838
211	0xbf799a2e	-0.97500885
212	0x3d0b6000	0.0340271
213	0x3dc04a77	0.09389203
214	0xbfcebdbb	-1.6151651
215	0xbf7a55bc	-0.9778707
216	0xc0036ff2	-2.0537076
217	0xbf885a94	-1.0652642
218	0xbeeb56f9	-0.45964792
219	0xbf0ed2b6	-0.5579027
220	0xbf3e1dd0	-0.7426424
221	0xbe50b8d5	-0.20383008
222	0xbfa245e7	-1.2677583
223	0x3f2b3f54	0.66893506
224	0x3e51771b	0.20455591
225	0xbcb728e1	-0.02235836
226	0xbfaca81d	-1.3488804
227	0xbe27158a	-0.1631681
228	0xbef6a37c	-0.48171604
229	0xbf7981d3	-0.9746372
230	0x3ea363b6	0.3191201
231	0xbf9be7c2	-1.2180102
232	0xbe96e1b8	-0.29469085
233	0xbefa038d	-0.48830834
234	0xbf8db2a2	-1.107014
235	0xbf756c92	-0.9586879
236	0xbf0cdb03	-0.55021685
237	0xbecf6a3d	-0.4051074
238	0x3f0fc742	0.5616342
239	0xbf6f17d5	-0.9339574
240	0xbfe55d0c	-1.7919021
241	0xbee5a798	-0.44854426
242	0x3ed8ccdb	0.42343792
243	0xbf5ec48b	-0.8701865
244	0xbfc9664e	-1.5734346
245	0xbf51b9a2	-0.8192388
246	0xbe7d7c0f	-0.24754356
247	0xbf55f59f	-0.83577913
248	0xbe9af7e2	-0.30267245
249	0xbd432f7b	-0.047652703
250	0xc01738aa	-2.3628335
251	0xbec40e9e	-0.38292402
252	0xbf39617b	-0.7241437
253	0xbeae658d	-0.34061852
254	0x3dc54e40	0.09634066
255	0xbf33441c	-0.700258

fc2.weight f4 [128, 260]
0	0xbd39fe20	-0.045408368
1	0xbc9834b1	-0.018579813
2	0xbd25abd3	-0.040447067
3	0xbdd0e778	-0.10200399
4	0xbe1cbc83	-0.15306287
5	0xbc09a58c	-0.008401286
6	0xbd2093d1	-0.03920347
7	0xbd832e61	-0.064053304
8	0xbd7dde85	-0.06197979
9	0xbdaf6c8b	-0.08565625
10	0xbd3a4316	-0.045474134
11	0xbcadd22d	-0.021218384
12	0xbc5327ec	-0.012887936
13	0xbbdae04f	-0.0066795717
14	0xbd2cc825	-0.04218306
15	0x3cf3751e	0.029718932
16	0x3d3bf711	0.045889918
17	0xbb936ae6	-0.0044988273
18	0xbda2beb1	-0.07946528
19	0xbbb59107	-0.0055409702
20	0xbc90fb0f	-0.017697839
21	0xbda20529	-0.079111405
22	0xbdc4daab	-0.0961202
23	0xbc942972	-0.018086169
24	0xbbb39e34	-0.0054815058
25	0xbdc4c824	-0.09608486
26	0xbdb97794	-0.09056011
27	0xbdb3e37b	-0.08783623
28	0xbdb8cef1	-0.09023846
29	0xbc9d53fb	-0.019205084
30	0x3cf79860	0.030224025
31	0xbd5c6b00	-0.05381298
32	0xbc558b9e	-0.013033776
33	0x3c20d6bf	0.009816824
34	0x3c4f1e8d	0.012641561
35	0xbd8c5d41	-0.06853724
36	0xbb55da4b	-0.0032631333
37	0x3d2d7c63	0.042354953
38	0x3cf91260	0.03040427
39	0x3ce47cce	0.027891543
40	0xbd9a62e4	-0.07538393
41	0xbc0951a7	-0.008381284
42	0xbda5f872	-0.08104028
43	0xbdc2e07f	-0.095154755
44	0xbd484a89	-0.048899207
45	0xbcaa6bcc	-0.020803355
46	0x3d5a249b	0.053257566
47	0x3d52e43e	0.0514872
48	0xbd66e93a	-0.056374766
49	0xbcd8330b	-0.026391527
50	0x3cc63c3f	0.02419865
51	0x3b59f41b	0.003325707
52	0xbb7a6f2d	-0.0038213239
53	0xbd1478be	-0.03624796
54	0x3c92a192	0.017899308
55	0xbdae0b52	-0.08498253
56	0xbd9cd113	-0.07657065
57	0xbd7e5bf9	-0.06209943
58	0x3d3d84a3	0.04626907
59	0x3d56f201	0.052476887
60	0xbcbfbd1b	-0.023405602
61	0xbc6b1e46	-0.0143504795
62	0xbd859656	-0.06522815
63	0x3d2c6ac7	0.04209402
64	0xbcae5940	-0.021282792
65	0xbd85d144	-0.06534055
66	0x3d3f5eca	0.046721257
67	0xbdbd3c42	-0.09240009
68	0xbd36b48e	-0.044605784
69	0xbd96ed5a	-0.0736949
70	0xbd7b4d64	-0.061353102
71	0xbd20554e	-0.039143853
72	0x3a4ea6dd	0.0007883141
73	0xba327084	-0.0006806927
74	0xbdb6f772	-0.08933915
75	0xbd9cbc6d	-0.07653127
76	0xbaf61455	-0.001877437
77	0x3c88bf28	0.016692713
78	0xbd0baa02	-0.03409768
79	0x3d3fea28	0.04685417
80	0x3ce04afa	0.027379502
81	0xbcbc24a7	-0.022966696
82	0xbc430da1	-0.011905105
83	0xbd2becfb	-0.04197405
84	0xbd86e8be	-0.06587361
85	0xbdc804d2	-0.097665444
86	0x3d3463e3	0.044040572
87	0xbd585038	-0.052810878
88	0x3d7334d1	0.05937654
89	0x3c8e850f	0.017397432
90	0x3d83aabe	0.06429051
91	0xbd7c0b2d	-0.061534096
92	0xbca63810	-0.020290405
93	0xbd0a1ec6	-0.033720754
94	0xbd5e4bb1	-0.054271404
95	0x3d2891dc	0.041154727
96	0xbc9dde71	-0.019271107
97	0xbdd437f0	-0.10362232
98	0x3ce257c3	0.027629739
99	0xbdb0fcf5	-0.08641998
100	0xbdad5123	-0.08462741
101	0xbb9f199a	-0.004855347
102	0xbc3f74ea	-0.011685589
103	0xbdacf196	-0.08444516
104	0xb9d0d94f	-0.0003983476
105	0xbda891b5	-0.082309164
106	0xbdc18f43	-0.09451153
107	0xbd539dab	-0.051664036
108	0xbd069c1f	-0.032863732
109	0xbd742703	-0.059607517
110	0xbd498e05	-0.049207706
111	0x3d13d9f2	0.03609652
112	0xbd412537	-0.04715463
113	0xbe0fd342	-0.14045432
114	0xbbdfd2c6	-0.006830546
115	0xbd4fb297	-0.050707426
116	0x3d4e7a77	0.05040976
117	0x3d08de9a	0.033415414
118	0xbd6eea50	-0.058328927
119	0xbdbec249	-0.09314401
120	0x3d676836	0.056495868
121	0xbbf26dee	-0.0073983585
122	0x3b673d3f	0.0035284308
123	0xbda45ada	-0.08025141
124	0xbd85c4b3	-0.06531658
125	0xbc835dd0	-0.016035944
126	0x3d682692	0.05667741
127	0xbd83fd9d	-0.06444857
128	0xbb61370a	-0.0034365081
129	0xbdac3c24	-0.084099084
130	0xbc9e6c0f	-0.019338636
131	0xbd96bcd2	-0.07360233
132	0x3d79852b	0.060918014
133	0x3c931720	0.017955363
134	0xbcf6e022	-0.030136172
135	0xbc1ab65b	-0.009442891
136	0xbd861b47	-0.065481715
137	0xbc029404	-0.00796986
138	0x3cae7b21	0.021298947
139	0x3d03f297	0.032213774
140	0xbd0d6868	-0.034523398
141	0xbdb8209a	-0.08990593
142	0x3bc4a222	0.006000773
143	0xbd407bfd	-0.046993244
144	0xbd2ea2a7	-0.042635586
145	0x3d896b6a	0.06709941
146	0xbd2ec1a4	-0.04266514
147	0xbd8b9add	-0.06816647
148	0x3d7701c1	0.060304407
149	0xbc72e804	-0.014825825
150	0xbbe46c69	-0.0069709313
151	0xbddbfd22	-0.107416406
152	0xbdaa14e7	-0.08304768
153	0xbb7908ac	-0.0037999554
154	0x3d15193e	0.036401026
155	0xbdbefd34	-0.093256384
156	0x3d84b743	0.06480267
157	0xbcb88cea	-0.02252813
158	0xbced2fd2	-0.028953467
159	0xbe100655	-0.14064915
160	0x3c2a92eb	0.010411005
161	0xbce9b073	-0.02852652
162	0xbd7aa635	-0.061193664
163	0x3a12868c	0.0005589507
164	0xb9b31dd4	-0.00034163764
165	0xbcd07239	-0.02544509
166	0xbd446443	-0.04794718
167	0x3d9509e7	0.07277279
168	0x3db44c66	0.08803634
169	0x3cfc8cf2	0.030828927
170	0xbd96e8fc	-0.07368657
171	0x3da5fd64	0.08104971
172	0xbceab27b	-0.02864956
173	0x3d6d6d41	0.05796552
174	0x3d64e08d	0.05587821
175	0xbd9b7d2c	-0.07592234
176	0xbdd3ecd0	-0.10347903
177	0xbd25a33f	-0.040438887
178	0xbd0227ca	-0.031776227
179	0xbd27ecc9	-0.0409973
180	0xbd06bad2	-0.03289301
181	0x3cfe48a2	0.031040493
182	0xbdd7c529	-0.10535652
183	0xbc3295fd	-0.010900018
184	0x3c0c9fb3	0.008582997
185	0xbd99740e	-0.07492839
186	0xbd036e20	-0.032087445
187	0xbd96d271	-0.07364357
188	0xbc390c63	-0.011294457
189	0x3d203f7e	0.03912305
190	0xbda55f0f	-0.080747716
191	0xbd55b9e3	-0.05217923
192	0x3c16e686	0.0092102345
193	0x3c482240	0.012215197
194	0xbe25cab6	-0.1619061
195	0xbd884e62	-0.06655575
196	0xbda98e8d	-0.082791425
197	0x3cf29c99	0.029615687
198	0xbd444719	-0.047919367
199	0xbdc0d2ab	-0.09415182
200	0xbde8642d	-0.11347232
201	0xbd06388f	-0.032768782
202	0xbd939652	-0.07206406
203	0xbd010f71	-0.031508867
204	0x3d45beda	0.048277713
205	0xbbb8d087	-0.005640093
206	0xbc37c74d	-0.011216951
207	0x3c489836	0.012243321
208	0xbcf5d17d	-0.030007118
209	0x3cffcf5f	0.031226812
210	0xbca1b002	-0.019737247
211	0xbd2c9614	-0.042135313
212	0x3d7f4d73	0.06232972
213	0xbcfd8e34	-0.030951597
214	0xbd2d56f1	-0.042319242
215	0xbd86c2fa	-0.065801576
216	0xbd22c515	-0.039738733
217	0xbd421cda	-0.047390796
218	0x3c251872	0.010076629
219	0xbde8c87d	-0.11366365
220	0xbd275ff8	-0.040863007
221	0x3cf1b82a	0.029506762
222	0xbd33e3d7	-0.043918457
223	0xbe030964	-0.12796551
224	0xbe037e25	-0.12841089
225	0xbcbfaeb7	-0.02339874
226	0xbc7704b2	-0.015076803
227	0xbd29c25f	-0.041445132
228	0xbd9082ec	-0.07056221
229	0x3b8d507f	0.0043125744
230	0xbd5e3bce	-0.054256253
231	0xbc99b4a6	-0.018762898
232	0x3c8bf5c7	0.01708497
233	0xbd81c5e3	-0.06336572
234	0x3c644ba7	0.013934053
235	0xbce8eddc	-0.028433733
236	0xbd5815c7	-0.052755143
237	0xbd52754b	-0.05138139
238	0x3c9a9509	0.018869894
239	0xbc49374b	-0.012281249
240	0x3d18229f	0.037142392
241	0xbd6e6686	-0.058203243
242	0xbd358ac6	-0.044321798
243	0xbd9565cf	-0.07294809
244	0x3d3081df	0.043092605
245	0xbd76501f	-0.060135003
246	0xbd3b296a	-0.045693792
247	0xbdec8c87	-0.11550241
248	0xbd975f39	-0.07391209
249	0xbdbb6abb	-0.091512166
250	0x3d8fe498	0.07026023
251	0xbd94d696	-0.072674915
252	0xbcaac674	-0.020846583
253	0x3d50e583	0.05100013
254	0xbc15a932	-0.009134578
255	0xbc841844	-0.016124852

fc2.bias f4 [128]
0	0xbe36a94b	-0.17838018
1	0xbeab5b5c	-0.3346814
2	0xbe64fced	-0.22362109
3	0xbdf4bcf9	-0.11950106
4	0xbe941597	-0.28922722
5	0xbe138483	-0.14406018
6	0xbe6f81a5	-0.23389299
7	0xbe37df6a	-0.1795632
8	0xbe2e999f	-0.1705079
9	0xbeb708f3	-0.35749015
10	0xbe503231	-0.20331647
11	0x3fbd6fea	1.4799778
12	0xbea9228d	-0.33034173
13	0xbe8f53a8	-0.27993512
14	0xbf457dab	-0.7714488
15	0xbeb544a1	-0.35403922
16	0xbf9a4e6b	-1.2055181
17	0xbe5b2e12	-0.21404293
18	0xbf641264	-0.8909056
19	0xbef463da	-0.4773243
20	0xbe8db702	-0.27678686
21	0xbea5ba3b	-0.32368645
22	0xbe8eb3f7	-0.27871677
23	0xbe06cc45	-0.1316386
24	0xbe9b95b1	-0.30387643
25	0xbe823e90	-0.25438356
26	0xbf0e537c	-0.5559614
27	0xbe89ccee	-0.2691416
28	0xbe59f53d	-0.21284957
29	0xbe877870	-0.26459074
30	0xbe9d0180	-0.30665207
31	0xbf8ea3b9	-1.1143714
32	0xbf9abe83	-1.208939
33	0xbe8d3d37	-0.27585766
34	0xbe95d2b5	-0.2926232
35	0xbf828408	-1.0196543
36	0x3f34dc0e	0.70648277
37	0xbe912362	-0.28347307
38	0xbed1643c	-0.40896785
39	0xbe79513b	-0.24347393
40	0xbe85b6c4	-0.26116002
41	0xbeb600c1	-0.3554745
42	0xbe8b8086	-0.27246493
43	0xbec974d9	-0.3934696
44	0xbebb7735	-0.36614385
45	0xc00874e9	-2.1321356
46	0xbf4b9a90	-0.7953272
47	0xbe71496a	-0.23563161
48	0xbe228e27	-0.1587454
49	0xbe8676cc	-0.2626251
50	0xbe2e0318	-0.16993368
51	0xbe4d297b	-0.20035355
52	0xbe5921a6	-0.21204242
53	0xbe60e01d	-0.21960492
54	0xbebb4bf9	-0.365814
55	0xbf11a5ce	-0.5689362
56	0xbf20bbb1	-0.62786394
57	0xbec3a4b0	-0.38211584
58	0x3e7d8ce4	0.24760777
59	0xbe62e763	-0.2215858
60	0xbe695fab	-0.227904
61	0xbebf95a9	-0.3741887
62	0xbf158aa8	-0.584147
63	0xbe252292	-0.16126469
64	0xbf05fdba	-0.5234028
65	0xbf5e3401	-0.867981
66	0xbe91296e	-0.2835192
67	0xbf40a160	-0.7524624
68	0xbe8657b2	-0.2623878
69	0xbeac17a2	-0.3361178
70	0xbfb85451	-1.4400731
71	0xbe5e72db	-0.21723501
72	0xbe846788	-0.25860238
73	0xbe949940	-0.2902317
74	0xbf15284c	-0.58264613
75	0xbe6d356e	-0.23164913
76	0xbe460fda	-0.19341984
77	0xbe6a945e	-0.2290816
78	0xbed88a7a	-0.4229315
79	0x3c0a843e	0.008454381
80	0xbf406a40	-0.75162125
81	0xbe94d221	-0.29066566
82	0xbe8f4798	-0.2798431
83	0xbe8c8944	-0.27448475
84	0xbeee6434	-0.46560824
85	0xbf137e57	-0.57614654
86	0xbe5ded6d	-0.21672602
87	0xbf533c58	-0.8251395
88	0xbe7ad507	-0.24495326
89	0xbf862d29	-1.0482532
90	0xbe1e2668	-0.15444338
91	0xbeb50b6b	-0.35360274
92	0xbf924296	-1.142657
93	0xbe8b6fe0	-0.2723379
94	0xbf45e581	-0.7730332
95	0xbf1ed8a1	-0.620493
96	0xbe4fff29	-0.2031218
97	0xbe868851	-0.26275876
98	0xbe517bbe	-0.2045736
99	0xbf9b7a03	-1.214661
100	0xbf19a35c	-0.6001489
101	0xbe5765bd	-0.21034904
102	0xbe79fc24	-0.2441259
103	0xbea19142	-0.31556135
104	0xbe72d01d	-0.23712201
105	0x3f48bed1	0.7841616
106	0xbed7f554	-0.42179358
107	0xbf472c77	-0.7780222
108	0x3f64a2d3	0.8931095
109	0xbf47d57d	-0.7806013
110	0xbf7e6f25	-0.99388343
111	0xbf996a80	-1.1985626
112	0xbfb4b244	-1.4116902
113	0xbe69ab7e	-0.22819325
114	0x3d9f8d73	0.07790651
115	0xbe19e9e6	-0.15030631
116	0xbe32cfd5	-0.17462094
117	0xbe886089	-0.2663615
118	0xbf18617e	-0.5952376
119	0xbeea4951	-0.4575906
120	0xbe49fa7c	-0.19724458
121	0xbe6d56cb	-0.2317764
122	0xbe8c31a1	-0.27381614
123	0xbf46ee90	-0.7770777
124	0xbebc4b3e	-0.36776155
125	0x3f90580a	1.1276867
126	0xbf0c0234	-0.5469086
127	0xbee7d093	-0.45276317

fc3.weight f4 [1, 128]
0	0xbb8e7102	-0.0043469677
1	0x39a7eba7	0.00032028297
2	0xbca759e5	-0.020428607
3	0xbbc9781d	-0.006148352
4	0x39ce6e9e	0.00039373798
5	0x3d76c51a	0.060246564
6	0xbc9e2ed2	-0.019309435
7	0x3ca1329a	0.019677449
8	0xbc807fb2	-0.01568589
9	0x3c79aa52	0.015238361
10	0x3c1ac2d7	0.0094458675
11	0xbbf4ae36	-0.0074670566
12	0x3c7cd3bc	0.015431341
13	0xbc65a728	-0.014016904
14	0x3b5576f3	0.003257212
15	0x3bb2b999	0.005454254
16	0xbc221516	-0.009892723
17	0xbc355b47	-0.0110691255
18	0x3e115452	0.14192322
19	0xbc72bae1	-0.014815063
20	0x3a8921c0	0.0010462329
21	0x3c58b82d	0.013227505
22	0x3c2f4240	0.010696948
23	0xbc186709	-0.009301909
24	0x3c626917	0.013819001
25	0xbcaaea27	-0.020863606
26	0xbcd99500	-0.026560307
27	0x3c96f3b0	0.018426746
28	0x3c981ed1	0.018569382
29	0x3b94a4e5	0.0045362585
30	0x395eb559	0.00021239127
31	0xbd336ccd	-0.043804932
32	0xbc8e5cbf	-0.01737821
33	0x3ab9b9ae	0.0014169717
34	0x3c93a928	0.018024996
35	0xbc69245c	-0.01422986
36	0xbbd49167	-0.00648706
37	0x3cc3f93d	0.023922557
38	0xbd648152	-0.055787392
39	0xbc077f8c	-0.008270156
40	0x3cdc28f4	0.026874997
41	0xbcbdc0dd	-0.023163253
42	0x3b905f1d	0.0044058696
43	0xbb946c00	-0.004529476
44	0x3bd1a819	0.0063982126
45	0xbc225a55	-0.009909232
46	0xbbe93aa3	-0.0071175857
47	0xbbb46344	-0.0055049974
48	0x3cae8fa7	0.021308733
49	0xbce1d21a	-0.027566005
50	0xbcce7157	-0.025200529
51	0xbcc07f97	-0.02349834
52	0xbc2db0e5	-0.010601257
53	0x3bc58ab5	0.006028498
54	0x3bbc4d61	0.005746529
55	0xbb958d73	-0.004563981
56	0x3b4a8e77	0.003090767
57	0x3c7f9f76	0.015601983
58	0x3c721037	0.014774374
59	0x3d25064f	0.04028922
60	0xbc82b4a1	-0.015955271
61	0xbc95fbf6	-0.01830862
62	0xbbd7818e	-0.0065767234
63	0xbce54fb2	-0.027992103
64	0xbc13b27c	-0.009014722
65	0xbbdac019	-0.006675732
66	0x3cc8bfe4	0.024505563
67	0x3c02eb76	0.007990709
68	0x3caaa81e	0.020832118
69	0x3d04e51f	0.03244507
70	0xbca54b81	-0.020177605
71	0xba9a00d7	-0.0011749518
72	0xbbed0626	-0.007233399
73	0x3ce38828	0.027774885
74	0xbc452d83	-0.012034777
75	0xbc0bf1a5	-0.008541499
76	0x3c5e0494	0.013550896
77	0xbc055b49	-0.00813944
78	0xbc363761	-0.011121602
79	0x3c22933b	0.009922798
80	0xbccffddd	-0.025389606
81	0xbb547372	-0.0032417444
82	0x3d1095a4	0.03529896
83	0xbb16db6f	-0.0023018976
84	0xbcf0c7f0	-0.029392213
85	0x3d29521b	0.041338068
86	0x3c1bd890	0.009512082
87	0xbd309abb	-0.043116312
88	0xbc1c2f22	-0.009532722
89	0xbd30c6ea	-0.04315845
90	0x3b2f7b5e	0.0026776413
91	0x3c45e15e	0.0120776575
92	0xbc8153ef	-0.015787093
93	0xbc9fd938	-0.019512758
94	0xbc039f00	-0.008033514
95	0xbb98cf5b	-0.0046633906
96	0x3bdb63d1	0.0066952487
97	0x3c539d1b	0.012915875
98	0xbbc26744	-0.0059327204
99	0xbc2e0e79	-0.010623568
100	0x39c7b6e9	0.00038092516
101	0x3cc05465	0.023477742
102	0x3bf692ee	0.0075248396
103	0x3b56a3ae	0.003275137
104	0xbc0daf78	-0.008647792
105	0xbbd3342b	-0.006445428
106	0x3c0883e0	0.008332223
107	0xbd252b75	-0.040324647
108	0x3c43e0ad	0.011955422
109	0xbc5d0bcd	-0.013491583
110	0xbc1b897a	-0.009493226
111	0xbc53767c	-0.012906667
112	0xbcf66f3f	-0.030082343
113	0xbcee1336	-0.029061895
114	0x3c41ce44	0.011828963
115	0x3cc0d62f	0.02353963
116	0xbdafbefc	-0.08581349
117	0xbc98e76d	-0.01866504
118	0xbbecb0c8	-0.0072232224
119	0x3c7149b8	0.014727049
120	0xbc8ae66f	-0.016955582
121	0xbc840cce	-0.016119387
122	0xbce440e8	-0.027862981
123	0xbc879d4a	-0.016554493
124	0xbc2fe43e	-0.0107355695
125	0x3c631da1	0.013862045
126	0x3c7d7b43	0.015471282
127	0x3c86de29	0.016463356
