cp-actor1.pth (torch_old, 183882 bytes, 6 tensors)

fc1.weight f4 [256, 48]
00000000: 84de b23e a0e9 d5bf 53a2 0dbe ba19 7fbe
00000010: 9f14 36bf 472d 47bf d974 08be 1a7a 48be
00000020: 3029 963e affb dfbf de31 b6be a797 863e
00000030: e940 61bf 78e3 0abf 658b 96be e20b b53e
00000040: d201 e93e d666 cabf 522a d63c 6fd6 cc3e
00000050: 0089 94bf bcd8 e4be 2b81 843d 5abb f03e
00000060: acd9 943e dd88 32bf 178b 95be 4389 79bf
00000070: b87c 353f e9b7 54bf 2903 4abe 0420 78bf
00000080: 6385 a13e 5560 95bf 3088 ff3d 7d30 53bf
00000090: ee25 5c3f e171 0abf d242 bc3d c525 47bf
000000a0: 398a fd3e c213 87bf 1b37 ff3d ec17 a03d
000000b0: 7eb5 953f 1549 e2be 8b5f 2f3e 892c e23d
000000c0: 2086 2f3e 16aa 9e3f b1c9 073f 297c 82be
000000d0: 2004 0cbe 3c06 37bf 3a3a 103f 6481 6cbe
000000e0: a316 603e 58e5 493f faac 973e abd4 75bf
000000f0: fba7 82bd fb52 46bf ba56 c53e 5ae0 6bbf
00000100: 18a0 093e 0f2b 8a3e 0347 ae3e 9e55 aebf
00000110: f747 17bd eb05 81bf c6e8 a63e 9312 b4bf
00000120: 00ac f73d a83f 213f bc36 dfbe 6d00 9c3e
00000130: bfda b63d 2566 38bf 9232 e1be 7ea8 823e
00000140: 3031 43bd 5480 e93e 32f5 5abf c383 34be
00000150: 3175 703d ed03 62bf 65d6 61bf 00a6 77be
00000160: 3c42 66be 8f22 a83e 19a2 d23d 546a 5dbe
00000170: 46d6 87bd 20b5 7bbf 5846 033d 2ab0 34be
00000180: 8732 3dbe a1f6 a2bd 92dd dc3e 8c4f 0e3f
00000190: 462d 003f 60f5 48bf e0a1 ce3e e912 263f
000001a0: 3343 e0bd 0142 903e f32d 393e 5f1b 113f
000001b0: 64bd bc3e 6ead d2bf 1eb9 193e a832 f83e
000001c0: 6b1b 82be 352a 163f c952 6bbd c72f 3b3e
000001d0: 8634 a23e fdad 30c0 2dd1 95bd e25b 4a3e
000001e0: bd94 84bd 45cf 733f 9e11 2c3e 77b5 d8bd
000001f0: 8748 09bf a420 49bf 45dc 713e 7257 04be
00000200: 4ff6 26be c667 9f3f 9201 bc3d c30b e33c
00000210: c710 d4be 9785 d0bf 6642 1d3e dec4 90bd
00000220: 4611 84be d6e2 a53f f538 9fbe c391 a13e
00000230: 8139 aabe 12db 32c0 674b 51be b750 913e
00000240: 836e 67be 74fe 13c0 744e 983e 9640 d3bf
00000250: 65e4 f43d 69f8 613e e0c0 b03e 2ba8 dbbf
00000260: f133 66bc 72c8 0bc0 f631 e23e 3b69 7a3e
00000270: fd25 b33d f09b b73e bbb5 d63e 58d3 883e
00000280: b0e6 e63d ec00 eabf 8f73 89be 27df b63f
00000290: a103 123d d9e7 023f 9ba0 b9be 808e b93f
000002a0: 25f9 dc3c ecae 98bf c79b c2be 4ede 06c0
000002b0: 5031 5fbe 703f 3b3e b789 b4be 9f0a 07c0
000002c0: 2bdf 0e3e f729 a4bf 5afb a3be 13a5 25bf
000002d0: d476 69bd 2acf a03e fd65 92be c65b 36bf
000002e0: b0ff 763e 3a27 8dbf 26fc 40be 8a26 8d3d
000002f0: 459f c13c 6e49 1f3f c184 8bbe e492 663d
00000300: 3ac9 443e ae34 ecbe 6892 af3e 5ae9 d13e
00000310: a454 03c0 fca8 da3e 59bd d13e 8892 c43e
00000320: 64fe c33d 941d d8be 47ca 8c3d b457 043f
00000330: cf33 03c0 e975 583f b808 cc3a f7b3 0e3f
00000340: 5d0e 073f 4aa2 163f 5ef1 313e fb25 5b3f
00000350: 5194 afbf 4369 d63e 6260 5d3e 9c33 4a3f
00000360: a4bf 553e 7db9 ac3f e480 8a3e 4660 15be
00000370: a09f fd3f cb99 ed3e 19f7 a83e 4e7a d1bc
00000380: 3117 203e 0848 983f a7cb 99bc 29c4 cfbe
00000390: bec6 0240 b475 453f 9daf 103d 3b87 efbe
000003a0: c989 d33e c9c9 e53f 3b28 723e c619 00bf
000003b0: cd01 b73f 6a59 c93e adf3 983e 61d6 0dbf
000003c0: 5abb fd3e d7c9 513e dee8 2e3e 8944 6dbf
000003d0: 5d52 03bf 9b05 9cbf 7e7d 403e b2a4 6dbf
000003e0: 5c09 0a3f a627 82bd f9b9 bebe 5024 98bf
000003f0: a39f 28bf ceaa aabf dc2e c9be 58aa 98bf
0.3493539 -1.6711922 -0.13831453 -0.24912158 -0.71125215 -0.7780346 -0.13325824 -0.19577828
0.293283 -1.7498683 -0.3558492 0.26287577 -0.8798967 -0.5425334 -0.29403225 0.35360628
0.455092 -1.5812633 0.026143227 0.4000735 -1.1604309 -0.44696605 0.06469949 0.47017938
0.2907232 -0.69740087 -0.2920768 -0.9747507 0.7089343 -0.83093125 -0.19727768 -0.9692385
0.31547078 -1.1670023 0.124771476 -0.8249586 0.85995376 -0.54080015 0.091924325 -0.77792007
0.49519518 -1.0552905 0.124616824 0.07817063 1.1696012 -0.44196382 0.1712629 0.11043651
0.17141008 1.2395656 0.5304213 -0.25485352 -0.13673449 -0.7149389 0.56338847 -0.23096234
0.21883635 0.78865576 0.29624158 -0.9602763 -0.06379696 -0.7747037 0.3854273 -0.9213921
0.13439977 0.26985976 0.34038553 -1.3619878 -0.036933865 -1.0079931 0.32599467 -1.4068168
0.12093353 0.62987757 -0.43596447 0.30469075 0.08928441 -0.7203086 -0.43983895 0.25519174
-0.04765433 0.4560572 -0.8553039 -0.17628388 0.058705512 -0.8828724 -0.88217765 -0.24184418
-0.22486204 0.32838866 0.10284824 -0.21622592 -0.06632666 -0.9832325 0.032049507 -0.17645326
-0.18476306 -0.07957197 0.43137795 0.5559013 0.5006908 -0.7849941 0.40357876 0.64872605
-0.10950317 0.28175357 0.18083934 0.5668239 0.36863244 -1.6459177 0.15012023 0.48476148
-0.25411543 0.5865815 -0.057451997 0.18279944 0.31680697 -2.7606194 -0.07315288 0.19761613
-0.06473682 0.95238143 0.16803595 -0.10581487 -0.5362629 -0.7856543 0.23619182 -0.12923983
-0.16304897 1.2453544 0.09179987 0.02771557 -0.4141905 -1.6290768 0.1535736 -0.070687994
-0.2579443 1.295985 -0.31098142 0.3155652 -0.33246997 -2.794621 -0.2043892 0.28381893
-0.2260075 -2.3124056 0.29747355 -1.6504085 0.11957625 0.22067417 0.34522152 -1.7160696
-0.01405047 -2.1841092 0.44178742 0.24454205 0.0874748 0.35861158 0.41935524 0.26723742
0.11274469 -1.8281531 -0.26845977 1.4286851 0.035647992 0.5113502 -0.36255345 1.4496613
0.02697427 -1.1928382 -0.38009474 -2.1073184 -0.21796155 0.18285918 -0.35261318 -2.1100233
0.1395232 -1.2825307 -0.32027704 -0.6470501 -0.05699809 0.31408054 -0.28593436 -0.71233785
0.24120975 -1.1027596 -0.18846187 0.06892116 0.023635516 0.6222142 -0.2724972 0.05629243
0.19217387 -0.4613394 0.34291387 0.40998346 -2.052041 0.4270705 0.40964773 0.38393044
0.095700055 -0.42210066 0.06874519 0.51696324 -2.0500371 0.84554917 0.0015566563 0.55743355
0.5275629 0.58841383 0.1737723 0.8560483 -1.3717138 0.41877183 0.21618798 0.78985
0.20873886 1.3494107 0.2705146 -0.14587507 1.9814339 0.46406397 0.3300102 -0.025571015
0.15633847 1.1896982 -0.018773867 -0.40579346 2.0433803 0.77132726 0.035323728 -0.4678286
0.4131606 1.7952205 0.23648159 -0.5003933 1.4297425 0.3932603 0.2987341 -0.5540524
0.49557 0.20487152 0.1708102 -0.926827 -0.5129755 -1.2189211 0.18797871 -0.9282943
0.5392053 -0.063552186 -0.3725126 -1.1886082 -0.65868586 -1.3333375 -0.39293563 -1.1926985

fc1.bias f4 [256]
00000000: c2f1 00bf a0e0 903e 635c 633e 6ef9 65be
00000010: 24c6 3abf 7e3b 14bf 56e7 0dbf 062f aabe
00000020: 2579 2fbf 2eed f83d 1a8f 34bf f5ba c63e
00000030: 6d79 bcbe eef4 11bd 9147 1cbf 3b5b 83bc
00000040: f8b0 8bbe b02b 643e 2ded 19bf 5ad2 7dbd
00000050: 738f 27be 25cf 46bf 80b8 2cbf 90ad 12bf
00000060: c034 293b 2ff0 773e 84a4 04bf 7ac4 e4bc
00000070: 060e 4ebf 2a26 e5be 802a 04bf ab08 84be
00000080: 6117 583c 5b94 1dbe 3f0b b8be ae83 21bf
00000090: 36ae 32bf 5af8 f1be 11ea e2be 625e 4abe
000000a0: 7f88 00bf 44cd ccbe 45fe 23bd 07eb 91be
000000b0: fa83 ab3d 1094 c03d 9dc0 6ebf 50fb 3dbf
000000c0: dfa4 5bbe 5ad8 b4be b06f 24bf ab16 58bc
000000d0: c7b7 9cbd 237e 0fbf 506c 5cbf 52c9 94be
000000e0: 0939 c1be a0a5 d0be b558 bdbe b781 b03e
000000f0: 8cee c6be 8cd1 24bf d469 40bf 18b1 debe
00000100: f29e 11be b8a5 54be 1271 b4be d7ce 16bf
00000110: b953 7d3e 8318 93be 87f6 cfbe da38 07bf
00000120: d7ec a9bd 0411 233f 4d72 7fbe 39e7 a23c
00000130: 8941 f4be 997c d8be 4d89 d8be 62cf 22bf
00000140: e08e 83be f6e8 59be 55b0 593c 1048 16bf
00000150: 133c 82be 80e8 cebe cacd 0abf 1a3b 2ebf
00000160: c102 84bd 9df8 28be 09af 2bbf 838b dcbe
00000170: f5b3 5abd 035e 423f 1468 3dbd 0d98 923e
00000180: bb45 c9be edd6 e2be 980a bcbe 43d7 36bf
00000190: c38f 40bf 49af b3be 1678 c0be ec30 48be
000001a0: 2b90 2abf f5f4 fbbe 68cd 343e ca23 73bd
000001b0: 33da 63be c71c bebd 4296 3fbf 41d9 18bf
000001c0: ad47 323f 4499 56bf e71d 2fbf 84e4 99be
000001d0: ac6c 8cbe e3d9 3b3f 98da aabe 91f8 4dbf
000001e0: a9fe 34bf e8d2 49bf e117 febe 8f02 40be
000001f0: 39d4 ecbe 8218 e2be 2083 4fbf 12ee 1ebf
00000200: 02bf 4bbd 6878 92be be2f b1be 42e2 83bf
00000210: a308 3f3f 2acd 27bf ad47 8abe 6822 11bf
00000220: 62ec eebe 5f5c a1be 7de0 0dbe 9d90 1bbe
00000230: 6fe6 9a3f e3bb 09bf f436 d2be a41b 02bf
00000240: 9f0d 8cbe 8ac1 69bf 8adf 18bf 43e0 55be
00000250: a43a 3abf bfeb 15bc 7f91 19bf a225 983e
00000260: ce8d bebe 621a afbd 5744 07be 199c c4be
00000270: ffc8 a5be 0995 89be 355a 18bf c6dd b6be
00000280: 56a3 f4be 4312 82bd b631 16bf 516e b3be
00000290: 9fdf 35bf 325f 0bbf 4840 aebe 3702 88be
000002a0: 1d65 77be 9433 11bf 6a11 58be 515b b6be
000002b0: 230f 44bf 44a1 9bbe 2957 80be 6440 1bbf
000002c0: 561b 49bf 97e8 37bf de9b 25bf 6730 d2bd
000002d0: 84fc 1abf f331 e43d 1104 cb3e 4620 b03e
000002e0: 6c9a cfbe 0503 35bd d68d 0e3e 8e5d c2be
000002f0: 91d9 bfbe 6b56 2dbf 1b91 a33c 449a f03e
00000300: a690 42bf 8e51 d2bc 0b6d 36bf 7656 ca3c
00000310: 76e3 8fbe ec81 26bf 2b56 98be 8c4e 9fbe
00000320: a0be 06bf f017 443f 8270 0bbf e0c3 1bbf
00000330: 26d4 90be 1e21 a33c d87e e9be 1ebb 04bf
00000340: 53c1 913e a7b8 dcbe 6c95 c63d 9325 37bf
00000350: 60ce 013d 115b acbe 5fc1 813e 237d 893e
00000360: e23c fcbe 6531 66bd 3fe9 e6be 6b0c 14bf
00000370: 1736 f7be a7d6 21bf d4c0 d5be a400 91be
00000380: d9b4 20be 9c0f 2cbf d2cf c4bd c71c eebe
00000390: c5b8 4fbf 0546 46bd b07a fabe 032d 003b
000003a0: 4966 6a3d 4b7d 06bf c390 42bf 2356 9b3d
000003b0: f1f9 19bf 7bd7 d63e 1bbc 81be 945e ecbe
000003c0: fcad ff3e 7ef0 62bf 228d 32bf 72f0 3cbf
000003d0: 0bf7 c4be 26ff 9ebe 336b 003f f976 61bf
000003e0: 1506 21bf c519 59be dd7c ffbe af19 993e
000003f0: b2a7 69be 6779 913d 19fe 42bf 2de1 0fbe
-0.50368893 0.28296375 0.22203211 -0.22458431 -0.7295859 -0.5790328 -0.55431116 -0.33239
-0.68544227 0.121546134 -0.70530856 0.38814512 -0.3681139 -0.035633974 -0.610467 -0.016034713
-0.27283454 0.2228229 -0.60127527 -0.061968185 -0.16363315 -0.7765983 -0.67469025 -0.57296085
0.0025818795 0.24212717 -0.5181353 -0.027925719 -0.8049015 -0.4475568 -0.5162735 -0.25787863
0.013189168 -0.15388624 -0.3594608 -0.6309155 -0.69797075 -0.4725979 -0.44319203 -0.19762567
-0.50208277 -0.40000355 -0.040037412 -0.28499624 0.08374782 0.09403241 -0.93262655 -0.742116
-0.21449612 -0.35321313 -0.6423292 -0.013188998 -0.0765224 -0.56051844 -0.8610277 -0.29059845
-0.37738827 -0.40751362 -0.3698174 0.34473965 -0.38853872 -0.64382243 -0.7516148 -0.43494487
-0.14220789 -0.20766342 -0.35242516 -0.5890936 0.24738969 -0.28729638 -0.40617773 -0.52821124
-0.08297127 0.6369784 -0.24945946 0.019885646 -0.4770625 -0.4228256 -0.42292252 -0.6359769
-0.25694942 -0.21280274 0.01328667 -0.5870371 -0.25436458 -0.40411758 -0.5422026 -0.6805893
-0.06445838 -0.16501088 -0.6706396 -0.4307519 -0.053394277 0.759247 -0.046241835 0.2863163
-0.39311013 -0.443046 -0.36726832 -0.71422213 -0.7521936 -0.3509467 -0.37591618 -0.19549912
-0.6662623 -0.49210325 0.17656481 -0.059360303 -0.22251205 -0.092828326 -0.7483865 -0.59706503
0.6964062 -0.83827615 -0.68405 -0.30057156 -0.2742666 0.73379344 -0.333699 -0.8045741
-0.7070108 -0.7883744 -0.49627593 -0.18750976 -0.46255663 -0.44159323 -0.81059456 -0.62082016
-0.049742706 -0.28607488 -0.34606737 -1.0303423 0.74622554 -0.6554743 -0.2700781 -0.56693125
-0.4666472 -0.31515786 -0.13855167 -0.15191884 1.2101573 -0.5380232 -0.4105755 -0.50823426
-0.27354142 -0.9131094 -0.59716094 -0.2088633 -0.7274573 -0.0091504445 -0.59987634 0.29716212
-0.37217563 -0.08549954 -0.13209663 -0.38400343 -0.3237991 -0.26871517 -0.59512645 -0.35716075
-0.47780865 -0.063511394 -0.586696 -0.35045102 -0.71044344 -0.5444213 -0.34033418 -0.2656419
-0.24159665 -0.56719327 -0.21100393 -0.35616544 -0.76585597 -0.30396473 -0.25066498 -0.6064513
-0.78557336 -0.7183928 -0.6469096 -0.10263138 -0.6054156 0.111423396 0.3965154 0.34399623
-0.40547502 -0.044192333 0.13921294 -0.37962002 -0.37470677 -0.6770999 0.019966653 0.46992695
-0.76001966 -0.025673654 -0.71260136 0.02469943 -0.28103226 -0.65041995 -0.2975324 -0.31114614
-0.5263462 0.76599026 -0.5446855 -0.60845757 -0.28286856 0.019913252 -0.45604587 -0.5184802
0.28467807 -0.4310963 0.09696469 -0.7154171 0.031690955 -0.33663228 0.25342843 0.26853284
-0.492652 -0.05619945 -0.45099828 -0.5783145 -0.48283455 -0.6321816 -0.4174868 -0.283208
-0.15693988 -0.6721132 -0.09609951 -0.4650633 -0.8114131 -0.04840662 -0.48921728 0.001955808
0.057226453 -0.5253493 -0.7600214 0.07584789 -0.60147005 0.41961274 -0.25338826 -0.46165907
0.49937427 -0.8864821 -0.697466 -0.7380439 -0.3846973 -0.31054038 0.50163573 -0.8807216
-0.62899905 -0.21201237 -0.4989995 0.29902408 -0.22817877 0.07103234 -0.7616897 -0.14050741

fc2.weight f4 [128, 256]
00000000: d433 b4be 0683 79bf c670 8abe ede6 55bd
00000010: 4c7f 803e f508 47be ec2c 103f beb4 33bf
00000020: 6fdf d7bd d0ad 7fbf a5d6 ba3b b60a 6ebe
00000030: 1dd0 bbbe aef8 6bbe dd44 f4be 150c 34bf
00000040: b677 c2be d3ef d7be ac01 11bf f817 b93d
00000050: 3efd 0bbf ebbe 8dbe 68f6 81bf 431d a0bd
00000060: 6383 f2be 75ea a0be 9824 0abf 2c28 87be
00000070: 6ce9 5abe 916d 353c dfda 94be 2edc 513d
00000080: c050 bfbe 710f a03e baab 8dbe 19a5 26be
00000090: 7c7f 883e cad7 88be d23f e2be 6b49 93bd
000000a0: b84a 023e 81be 903e 540f b1be 6459 7abf
000000b0: 961f f9be faf5 b7be 5e13 40be f37c c4be
000000c0: 9d66 88be ffbf 01be c1fa 293e d53a ea3e
000000d0: 1ca8 0fbf f617 89be 2b26 36bd ec87 0d3e
000000e0: e0c1 59be bf81 aabe 20d5 a33e db42 efbd
000000f0: 9f47 493e 7394 28be 6687 813e 1819 b1be
00000100: 169c 633d c358 843e 7722 123d 4092 8f3c
00000110: 408d 85bf b39a ad3d 7bc9 8ebe 2f6e aabc
00000120: 625b 3dbf 3c76 e2bd 66b6 143e 04a1 05be
00000130: c835 8fbe 76d2 24bf cb2a 1abe adb9 9fbe
00000140: 9115 eebd 255d bdbb fb55 febd a8b6 45be
00000150: de15 79be 66da 86bf dfaa 8b3c a761 46be
00000160: dc1a 03bf f8fd 25be 0710 34bf 53af d3be
00000170: a53a babe 90d2 51be fb6c 153d 8899 6fbe
00000180: e602 12bf 258a 5f3e 8d4f 82bd c69c 43be
00000190: 6ac1 4abe 0b5b a03d c5a1 cfbe 1328 afbe
000001a0: 986a 24bf ac0e c73a 2109 07bf 72f3 2cbf
000001b0: 25a7 b93d 41d7 16bf bd17 10bf a755 bfbe
000001c0: 64b6 44bb 908c febd 7343 193e 5e5e 693e
000001d0: f5a0 68bf ba83 37be a979 b9bd 1ce0 c5bd
000001e0: 5f64 cbbe 3df6 123e ecfc 83be 1de5 9cbe
000001f0: 165b 01bf 530e 553e f1e6 aebe c7b1 2ebe
00000200: 89bb 21bf 5c07 143f 2482 f3be 8914 a93d
00000210: 3235 9dbe 8008 0dbf b6a6 6cbe 28fd 63bf
00000220: c844 933d 8507 37bf 112d 51bf 4abc 003f
00000230: f7ca bbbe 2fea 173e 9de2 24be 4ff3 1cbf
00000240: 6178 e93e 60b7 c0bd 438b ad3d 5502 b93d
00000250: 5e59 e03b cdac 583f 94f8 06bf 4b0a 22bf
00000260: 5e6e 5c3e 0d47 243f aada 723e 8680 3cbf
00000270: 3728 45be a35a e73b 9b95 883e 3101 8ebe
00000280: b5a6 03bf d754 e6be 3c08 95be 0290 53be
00000290: 6543 dc3e e18f 20be f762 e93e 6712 df3d
000002a0: a2ad 2abf f98d 3abf 9b53 a7be 963c 4bbf
000002b0: 2d43 92bd 38e1 4cbe bc85 41bf 6393 79be
000002c0: f83a 15bf 88cf b2be 17f0 13be c385 8e3e
000002d0: f6c1 443f 83a7 aabe 5083 72bd 34af 76be
000002e0: 40ed 753e 6510 10bf 0d38 8bbe 9dad f5be
000002f0: 806c 9f3c 03e1 44bc 3f3e 743b 082f 00bf
00000300: a36f fabe 4f8a 49bf 4e0c 1f3e 2de5 9abe
00000310: 8f87 4bbe a7c5 cabe 8869 1f3c 3b02 323e
00000320: 00ec 3bbe 968b 5abf 1c1c a93e 4d1f b2be
00000330: 340d a5be 27c8 933d ab30 e8bd 6fda 0bbf
00000340: a5df c7be 8677 143f cee8 36bf 3df5 223c
00000350: 4e9d 99be 5291 c7be 5483 c6bf bdf1 543e
00000360: a5f7 34be a170 afbe 338f e83d df8c 24be
00000370: 4295 c03d 03e7 293e bc2a 3cbf f51c 5bbe
00000380: c507 eb3d ef40 98be cf5f e13d 4cf2 90bd
00000390: 2c29 8cbe e095 b6be d3cc 53be b355 80bf
000003a0: f341 b5be 2881 57be 63ef e7be bf02 a3be
000003b0: 7aed fabe 175f bbbe 4049 c9be 1d25 7bbe
000003c0: 83e6 ecbd 5581 7abe da45 05bd 6f92 11bf
000003d0: f1c8 1abd 929b 76be c7dc b2be 0ec3 17bf
000003e0: 5abf 273f a160 eebe e9bc dbbc e617 4fbf
000003f0: 26e7 97be 1baf 193e 90b3 1bbe c2df 96be
-0.35195792 -0.9746555 -0.27039164 -0.05222218 0.2509712 -0.1943701 0.56318545 -0.70197666
-0.105406635 -0.9987459 0.005701857 -0.23246273 -0.36682215 -0.23044083 -0.4770879 -0.70330936
-0.37981957 -0.4217516 -0.56643176 0.09037775 -0.5468329 -0.2768472 -1.0153322 -0.07818081
-0.47365865 -0.31428877 -0.5396209 -0.26397836 -0.21378106 0.011073486 -0.29073235 0.05123537
-0.37366295 0.3126178 -0.2767008 -0.16273917 0.26659763 -0.26727134 -0.44189316 -0.07191738
0.12723815 0.28270343 -0.34582007 -0.9779265 -0.4865691 -0.35929853 -0.18757388 -0.3837658
-0.26640788 -0.12670897 0.16599561 0.4574801 -0.5611589 -0.26776093 -0.044469994 0.13821381
-0.21265364 -0.33302113 0.3199854 -0.116826735 0.19656228 -0.16462879 0.25298613 -0.34589458
0.055568777 0.2584897 0.0356774 0.017525792 -1.0433731 0.08476772 -0.27888092 -0.020804493
-0.73967564 -0.11057708 0.14522704 -0.13049704 -0.2797072 -0.6438364 -0.15055387 -0.31196347
-0.11625207 -0.005778926 -0.12418743 -0.19307959 -0.24324748 -1.05354 0.017049251 -0.19373189
-0.5121286 -0.16210163 -0.70336956 -0.413447 -0.36372867 -0.2049048 0.036480885 -0.23398411
-0.5703567 0.21830042 -0.06362829 -0.19102773 -0.19800344 0.07829865 -0.40553108 -0.34210262
-0.6422515 0.0015186868 -0.52748305 -0.6755897 0.090650834 -0.589222 -0.5628622 -0.37370035
-0.003001594 -0.12429154 0.14967136 0.22789904 -0.908706 -0.17921343 -0.09056408 -0.09661886
-0.39725015 0.14351745 -0.25778902 -0.3064355 -0.5052961 0.20806246 -0.3416057 -0.17060004
-0.6317678 0.5782373 -0.47560227 0.0825587 -0.30704647 -0.55091095 -0.2311047 -0.8905816
0.07190853 -0.7149585 -0.8170939 0.50287306 -0.36678287 0.14835428 -0.16102071 -0.6130876
0.45599654 -0.09409976 0.08473828 0.09033648 0.006846591 0.84638673 -0.5272305 -0.63296956
0.21526477 0.64170915 0.23716226 -0.7363361 -0.19253622 0.0070603653 0.2667664 -0.27735284
-0.5142625 -0.44986603 -0.29107845 -0.20660403 0.43020168 -0.15679885 0.45583317 0.10892182
-0.6667119 -0.72872883 -0.32680973 -0.7938932 -0.07141719 -0.20007789 -0.7559469 -0.2437263
-0.58293104 -0.3492396 -0.14447056 0.27836427 0.7685846 -0.33330926 -0.05920726 -0.24090272
0.24016285 -0.56275016 -0.271912 -0.4798402 0.019460917 -0.012016538 0.0037268547 -0.50071764
-0.48913297 -0.7872667 0.15532038 -0.30252972 -0.1987593 -0.39603922 0.00972975 0.17383663
-0.18351746 -0.8536924 0.33029258 -0.34789506 -0.32236636 0.072159104 -0.11337408 -0.5463018
-0.39037815 0.5799488 -0.7144898 0.009946165 -0.30002826 -0.38978058 -1.5508828 0.20795341
-0.17672594 -0.34265617 0.11355438 -0.16069363 0.09403469 0.1659203 -0.7350271 -0.21397765
0.11476091 -0.2973704 0.11004602 -0.070774645 -0.27375162 -0.3566122 -0.20683603 -1.0026153
-0.35401878 -0.21045363 -0.45299825 -0.31838033 -0.49009305 -0.36595985 -0.39313698 -0.24525876
-0.11567404 -0.24463399 -0.03253732 -0.56864065 -0.03778929 -0.24082783 -0.34934065 -0.59282005
0.65526354 -0.46558097 -0.026823478 -0.8089584 -0.2966854 0.15008204 -0.15205216 -0.2946759

fc2.bias f4 [128]
00000000: 87f3 96be e662 e1bd 9e89 44bf f5a1 853c
00000010: 20b5 eebd 3969 68bd 1321 e3bc 9efe d7be
00000020: 3582 b8be 54dd 723c 1db2 dcbe 5262 5c3c
00000030: 7b19 acbe 74e1 84bc c3c1 4bbf 81da 1ebf
00000040: dac1 98be 32c2 17bf bd31 e2bc d5e7 35bf
00000050: 8649 8ebf be85 3abd 6979 923e aae6 25bf
00000060: dab4 a3be b20f 35bd 88e4 bebd 0603 cabd
00000070: 0c68 1bbe 5dc3 8dbd 1a34 b8bd 2ab3 38bf
00000080: 9851 01bf 021f b9be 12af 1a3d 4869 d0bd
00000090: d9c8 c9be 6328 77be 4918 e7be 15ae f0bc
000000a0: 3103 e0bd f1f4 17bf eda7 57be c318 53bf
000000b0: 5f33 a4bc 6dde 74be f0c4 1ebf 0010 00bf
000000c0: 1e49 66be a1df 2dbe f5af 1abf 6aca c2be
000000d0: 3b12 77bd a605 c9be ed7b 00bf a940 90be
000000e0: e787 a8bd 7d00 d3bb 7a54 42bf a3aa 42bd
000000f0: 5fa8 58bf 0b82 cb3d febd f4bc 9e4d 72be
00000100: 9509 4e3e da64 f9bc 4a82 8e3d 8c7a 10bf
00000110: 84b0 b0be 3902 48be 52df 873c c7e6 68be
00000120: fc42 c8bc 3488 9dbf b805 2dbf 413d 1ebf
00000130: 34bb 3cbe d4af d2be 2bbe 8abd fe69 bc3c
00000140: a910 4dbc 2076 20bf 4440 05be 183a 3abf
00000150: ff4d 92be 30d8 a4bf 41a3 84be d4b4 813e
00000160: 1f81 59bd bc43 9c3e e464 a5bd 2ed4 72be
00000170: da31 a5be b033 e8be 3a9f 4abf ad62 d13d
00000180: a6bc f5be c73d 0bbe c74d f0bd f4c5 cebc
00000190: fb83 9bbd bdb2 813d 0b7f b43e e80b cebd
000001a0: 39b9 ab3e c743 71bd b5e5 f23d 74aa 38bd
000001b0: 5a9e 96be 706c 2fbf 4f25 5fbf 8c32 ebbe
000001c0: 993f 5cbf d885 afbf 8513 eabc 8f61 89be
000001d0: 7b08 b6be 969d debb c246 88bd a07f bbbe
000001e0: 0179 13bf f19d f8bc dd16 44be 5938 3ebe
000001f0: 5e33 f33b edda 65bd cec0 5b3e 591c c7bc
-0.29482672 -0.110051915 -0.7677249 0.016312579 -0.116556406 -0.056740973 -0.027725732 -0.42186445
-0.3603684 0.014823277 -0.4310464 0.013451176 -0.3361319 -0.016220786 -0.7959253 -0.6205216
-0.29835397 -0.59280694 -0.027611608 -0.7105687 -1.1116188 -0.045537703 0.28608254 -0.6480509
-0.31973916 -0.04420442 -0.093209326 -0.09863858 -0.1517641 -0.06922028 -0.089943126 -0.7214838
-0.5051513 -0.3615647 0.037764616 -0.10176331 -0.39411047 -0.241365 -0.45135716 -0.029379884
-0.10938109 -0.59358126 -0.21060152 -0.8245966 -0.020044027 -0.23912974 -0.6201925 -0.50024414
-0.2248883 -0.16979839 -0.6042474 -0.38045055 -0.06032012 -0.39262122 -0.50189096 -0.28174332
-0.08229046 -0.006439267 -0.7591015 -0.047526013 -0.84631914 0.09936913 -0.029875752 -0.23662421
0.20120843 -0.030443598 0.069584444 -0.5643699 -0.3450967 -0.19532098 0.01658598 -0.22744285
-0.024446003 -1.2307191 -0.6758685 -0.61812216 -0.18430787 -0.4114977 -0.06774553 0.02299976
-0.012516179 -0.62680244 -0.13012797 -0.72744894 -0.2857513 -1.2878475 -0.25905803 0.25333273
-0.053101655 0.30520427 -0.08075884 -0.23713753 -0.32264596 -0.45351934 -0.7914921 0.10223899
-0.4799549 -0.13597785 -0.11733585 -0.025240876 -0.07593533 0.0633292 0.35253176 -0.10060865
0.3353975 -0.058902528 0.118602194 -0.04508443 -0.29417688 -0.6852484 -0.87166303 -0.45937002
-0.8603454 -1.3712721 -0.02857376 -0.26832244 -0.35553345 -0.006793688 -0.06654121 -0.36620808
-0.5760651 -0.03034875 -0.19149347 -0.18576182 0.007421895 -0.056116987 0.21460268 -0.02430551

fc3.weight f4 [2, 128]
00000000: 2a20 c73e 66be 343f 84cf b4be 9e4f 84bf
00000010: 961b 36be 7aec 663a f53c f13e 22c3 65bf
00000020: 438e 963e 19b6 803d e361 a03e e971 85bb
00000030: c87c 44bf 78f3 54bb 8dab 26bf b868 58bf
00000040: 5ffb 99be 3fd6 3a3e 3c9e 633c dc6b edbe
00000050: a00c bdbe 572c 93bb 4811 3bbf cecb e8bd
00000060: 1692 3c3e 4551 16be 8517 87be aab5 a4bc
00000070: 1452 a43d 2611 59bb 2a09 bebd 4bf5 123f
00000080: f1b8 413f 2ae7 323f c32c 4e3f f8fd 793c
00000090: bb8d 1ebf 7114 18bf 9ede 053f f25a 6bbd
000000a0: e3e7 37bf e0b3 d5be 4fd4 e5bd 4ee0 01bf
000000b0: 146d 873d 41a8 0c3f 1297 d6bf 31ca 93be
000000c0: f671 843f 429d 24bf 73d0 adbc 6d66 5bbe
000000d0: c7a1 e0bc 9173 0abe 41a1 983e 42da 8e3e
000000e0: d1f6 b0bc 7181 d03c 880a 00bf 8091 eebc
000000f0: e4fc 58bf da20 ef3e d5e8 883e bc41 053e
00000100: 4893 2b3f 1d4a fabe 6d3b f8be 402b 19be
00000110: 87b0 e43a 4007 1f3f f671 0cbb 74bb 813e
00000120: 564b 94bc e828 f33d ba36 d9be b767 62bf
00000130: 522c ba3e d9c6 883e 92e7 48bc efb3 86bb
00000140: 2763 30bf 2f0b debd aa35 903a 3f45 cabe
00000150: c147 acbd 420c 39bf 212c 3f3e e799 173f
00000160: 5dab 063e 5fd2 fa3d f003 d9bc 32a4 233f
00000170: b134 89be d2d6 773f c886 bb3e 12cc 3f3f
00000180: 9478 c4be 5d68 8a3c 4702 81be 43fd 71bb
00000190: d14c 4d3f 11cf 173f 5721 213f e5f6 56be
000001a0: a4ec 41bf f194 4a3d df93 963e c3bb 7bbd
000001b0: e587 c23d d7e2 46bd 762c 81be 535a cabe
000001c0: b4c1 02bf f764 d1bf 748c ddbe 7a5d 883e
000001d0: 34eb bf3e a724 393f df12 5e3f 029a b83e
000001e0: 04b4 103f 7fba 183d 0f09 a93d 5527 663e
000001f0: 10d5 153f 10ca 5c3c 5452 da3d d12f 98be
00000200: 4706 50bf 9e06 843f f530 be3d 7b0e b7be
00000210: 829a bbbe 24fd 57bc af62 593f 29ed 1ebf
00000220: f1ba 04bc 2a13 b73f 54b6 323e a16c 9d3c
00000230: 3118 df3e 4768 123d 2167 52bd 6b51 3abe
00000240: 45e7 993e 56b5 c13e 85b1 1fbc c57b d1be
00000250: 226c 27bf 4c43 fcbb eb23 793f b646 4dbf
00000260: f266 b2be 4dec 4b3f dd13 b33f 60cc ba3b
00000270: d34a 463f 2f48 1c3d ad11 68ba 925f 6ebf
00000280: 2f81 d13e 50f7 28bd d7f9 18bf 8265 abbb
00000290: 6757 bebe 2b61 bf3e e763 0fbf 1aff 0b3f
000002a0: 1afc 8b3e 90d0 10bf 97a0 583f 9660 343e
000002b0: 777b 6c3f 3771 5abf 4b07 84be 33b9 743f
000002c0: f362 003e ae29 fe3e 7090 66bf 5091 613d
000002d0: 17fe ca3c d009 16bf 75d2 363f d614 a2be
000002e0: 634c 46bc 1d6b 353a c045 ad3e d0b6 c93c
000002f0: d9d3 94bf e197 38bf ec38 5cbe 4edf b7be
00000300: f2a8 c53e 72d0 dc3e 7c67 763f ea76 89bf
00000310: a146 39bf 2597 ffbe 8c18 b13b 67eb 89bf
00000320: f791 d43c 2672 17bf dbd0 ec3e 44d3 1c3e
00000330: 60ac e8bd a943 433e 755d 363b 2c10 723c
00000340: d355 bd3e 6af0 50bf 363b a7b9 d26e bebe
00000350: 4424 9dbf 7cfa 88bf dc22 953e fd2b 01bf
00000360: 3f3e dd3e c171 4cbf 597e f1ba cb7d 14bf
00000370: bb9d 473f 740f 093f 90b5 69be cd09 ef3e
00000380: 7a92 5a3f c71d 1bbd 23b9 bb3e 77d3 c4bc
00000390: 4a0c 273f 389b 75be 3036 0c3f 5b84 e13e
000003a0: 6978 0fbf 7ae5 2ebd 8ed7 bb3e ed0a 18bd
000003b0: 84ab d63e b211 0dbf 6541 26bf d600 b03e
000003c0: 1647 6e3e ceb0 93bf 49d2 88bf 5d57 74be
000003d0: 7277 52bf 7049 98be 0734 0ebf 129a 143e
000003e0: ece7 18bf 0dcb 40bf 840d c93d 7057 063f
000003f0: d011 24be 3e32 3dbc 66f1 ae3f ecc6 38bf
0.38891727 0.70603025 -0.35314572 -1.0336797 -0.1778396 0.00088090415 0.4711682 -0.89750874
0.29405412 0.06284732 0.31324682 -0.004072417 -0.767529 -0.0032493751 -0.65105516 -0.8453479
-0.30074593 0.18245791 0.0138927065 -0.46371353 -0.36923695 -0.0044913697 -0.73073244 -0.11366998
0.18415102 -0.1467944 -0.2638513 -0.020106155 0.08023468 -0.0033121794 -0.09279092 0.5740554
0.75672823 0.6988398 0.8053705 0.015258305 -0.61935014 -0.5940619 0.5229281 -0.05745978
-0.71838206 -0.41738796 -0.11222135 -0.50732887 0.06612602 0.54944235 -1.6764853 -0.28865197
1.0347278 -0.64302456 -0.02121756 -0.21425791 -0.027420891 -0.13520648 0.29810527 0.27900892
-0.021602066 0.025452347 -0.5001607 -0.029122114 -0.8476088 0.4670475 0.26740137 0.13013357
0.6702161 -0.4888467 -0.48482838 -0.14957905 0.0017447629 0.6212044 -0.002143023 0.25338328
-0.01810233 0.118730366 -0.42424566 -0.88439506 0.3636194 0.2671421 -0.012262242 -0.004110805
-0.68901294 -0.10841977 0.0011002321 -0.39505956 -0.084121235 -0.7228433 0.18669178 0.5921921
0.13151307 0.12247156 -0.026491135 0.6392242 -0.26798013 0.96812165 0.36626267 0.7492076
-0.38373244 0.016895467 -0.2519705 -0.0036924637 0.8019534 0.59300333 0.629415 -0.2099262
-0.7575171 0.049458448 0.29409692 -0.06145836 0.09498576 -0.048556175 -0.25229234 -0.39522037
-0.5107682 -1.6358937 -0.4327122 0.26633817 0.37484133 0.7232155 0.86747545 0.36055
0.5652468 0.03728723 0.08253681 0.22475941 0.5852823 0.01347591 0.10660234 -0.2972398
-0.8125958 1.031452 0.092866816 -0.35753235 -0.36641318 -0.013182912 0.84916204 -0.6208063
-0.008101211 1.4302723 0.17452365 0.019216837 0.43573144 0.035743978 -0.051367883 -0.18195121
0.30059257 0.3783366 -0.009746914 -0.4091474 -0.6539937 -0.007698452 0.9732043 -0.8018602
-0.34844166 0.7965744 1.3990437 0.005700633 0.7745792 0.038154777 -0.00088527316 -0.9311458
0.40918872 -0.04125148 -0.59756225 -0.0052306065 -0.37176058 0.3737882 -0.56011814 0.5468613
0.27340776 -0.5656824 0.8462004 0.1761497 0.9237589 -0.85329 -0.25786814 0.9559509
0.12537746 0.49641174 -0.90064144 0.05507022 0.024779363 -0.5860872 0.7141488 -0.31656522
-0.012103173 0.0006920563 0.33842278 0.024623305 -1.1627151 -0.7210675 -0.21506089 -0.35912555
0.38605458 0.4312778 0.96251655 -1.0739415 -0.72373396 -0.49920002 0.0054045375 -1.0774964
0.025948508 -0.5915855 0.46253094 0.15314966 -0.11361003 0.19068779 0.00278267 0.0147743635
0.3697954 -0.8161684 -0.00031896838 -0.37193924 -1.2276692 -1.0701442 0.29128158 -0.50457746
0.43211553 -0.79861075 -0.0018424495 -0.58004445 0.7797505 0.53539205 -0.22823167 0.46687165
0.85379755 -0.037870195 0.36664686 -0.024026616 0.65253127 -0.23984993 0.54770184 0.44046292
-0.56043106 -0.042699315 0.36687893 -0.037119795 0.4192773 -0.55105126 -0.64943534 0.34375638
0.23269305 -1.1538332 -1.0689174 -0.23861451 -0.8221351 -0.29743528 -0.5554814 0.14511898
-0.59728885 -0.7530983 0.09817031 0.5247717 -0.1602242 -0.011547623 1.3667419 -0.7217853

fc3.bias f4 [2]
00000000: 06c0 fdbe f884 2e40
-0.49560565 2.7268658
