cp-critic0.pth (torch_old, 185416 bytes, 5 tensors)

fcs1.weight f4 [256, 48]
0.7383177 -0.6765889 -0.13070089 0.3907217 -0.10783543 0.09835116 -0.1468516 0.4211357
0.62142223 -1.1053228 -0.16746765 0.60812366 -0.40672123 0.5532025 -0.061034784 0.5712761
0.74367756 -0.5082061 -0.012259862 0.48234946 0.048534714 0.7789312 0.027567253 0.39275613
0.46132946 -0.04859543 0.04567292 -0.08281069 0.037608147 0.034551412 0.009289194 -0.048933636
0.5656876 -0.10545809 0.010467066 -0.2348687 0.3577577 0.5791857 -0.010528449 -0.17916837
0.703968 0.24222614 -0.002727621 -0.15253904 -0.09132977 0.77781284 0.004175628 -0.075698875
-0.53109294 0.7840095 0.022591518 0.34944606 -0.8306247 -0.109114565 -0.009546546 0.42196286
-0.08899624 1.3773813 -0.027975146 -0.06940976 0.25846654 -0.92002535 -0.03586645 -0.051486555
0.42114645 1.8872169 0.028043723 0.1502538 1.0263927 -1.8319885 0.009395754 0.067485236
0.28840473 0.12591155 -0.037941743 0.52214587 0.74937534 -0.0856915 -0.084447786 0.51163596
0.27322584 -0.7866462 -0.1588169 -0.26027107 -0.31850725 -0.87832505 -0.11958435 -0.30031753
0.0361039 -0.7803979 -0.06832649 0.55258614 -1.0202435 -1.7689683 -0.08904595 0.5768349
0.37244362 0.40283278 0.02548822 0.28442466 -0.10787819 -0.12350266 0.011386879 0.37891978
0.5564492 0.28502828 -0.05469137 0.30672842 -0.44469747 -0.5568011 0.044400834 0.2853812
0.64332646 0.4409449 -0.032519538 0.49960923 -0.85435164 -1.3870165 0.05777736 0.61309224
0.005190458 -1.1063603 -0.047333583 -0.10073507 0.11283865 -0.109234944 0.033628743 -0.17832804
-0.039312847 -1.0371847 -0.004785212 -0.16467083 0.46961832 -0.5767681 -0.01866696 -0.15631723
-0.010850667 -0.7068137 -0.060078066 0.235077 0.8749019 -1.3502109 -0.039219007 0.2997935
0.40975377 0.12568498 -0.018464943 0.04824971 -0.7252049 -0.614254 -0.05556685 0.07194331
0.8025894 -0.2513171 0.0223883 -0.8034529 -0.1180439 -0.7972408 0.081585035 -0.9165448
0.8384638 0.7782584 0.16987279 0.8817778 0.85459906 0.03136722 0.108792365 0.92722976
-0.21688321 -0.61409515 -0.012241482 -0.17792399 0.69244087 -0.70532405 0.023181912 -0.12881142
-0.003484954 -0.032684647 0.28709108 -0.17001459 0.11962647 -0.76269823 0.18041013 -0.21243732
0.17396459 0.2866588 0.16187371 0.58410054 -0.82540816 0.010597227 0.14903256 0.56658494
0.65483826 -1.6601831 -0.010916523 0.30795297 -0.46732765 -0.35809216 -0.084214136 0.28302795
0.75758153 -1.6991845 0.1272142 -0.026863255 -0.63848644 -0.07337459 0.14002204 0.062061474
0.9847666 -1.1457521 0.16298683 -0.010418219 -0.6350749 -0.16059393 0.20714726 -0.0037314217
0.34839377 -0.1459502 0.03577675 -0.0771859 0.44657913 -0.29358557 0.039669547 -0.06272059
0.42650786 -0.026959734 0.11250566 0.5769389 0.7234871 -0.15836486 0.20537113 0.6752566
0.7148455 0.11659287 0.15528962 -0.35509115 0.65720016 -0.22713116 0.21509363 -0.41321674
0.38785732 0.5272005 -0.0795431 -0.44459823 -0.17061622 -0.12800151 -0.066731736 -0.39416534
0.5546341 0.18069755 -0.0015513304 0.38009894 -0.08408076 -0.44979125 0.013878907 0.4114955
00000000: 6402 3d3f ee34 2dbf 74d6 05be ad0c c83e
00000010: d2d8 dcbd 556c c93d 4460 16be 199f d73e
00000020: 8715 1f3f 387b 8dbf a47c 2bbe fead 1b3f
00000030: c43d d0be ae9e 0d3f 9cff 79bd 273f 123f
00000040: a761 3e3f cc19 02bf 97dd 48bc 82f6 f63e
00000050: 56cc 463d 0968 473f b8d4 e13c 5517 c93e
00000060: 6033 ec3e 000c 47bd 8713 3b3d a798 a9bd
00000070: 000b 1a3d c885 0d3d b431 183c a36e 48bd
00000080: e7d0 103f 69fa d7bd 0f7e 2b3c 6c81 70be
00000090: 042c b73e 8445 143f 847f 2cbc ea77 37be
000000a0: 3f37 343f 210a 783e e3c1 32bb 3233 1cbe
000000b0: 1a0b bbbd be1e 473f b5d3 883b 0308 9bbd
000000c0: b5f5 07bf d9b4 483f d911 b93c 98ea b23e
000000d0: d2a3 54bf 7577 dfbd 1e69 1cbc 840b d83e
000000e0: a943 b6bd 084e b03f 222c e5bc b426 8ebd
000000f0: ba55 843e c886 6bbf b3e8 12bd 91e3 52bd
00000100: 82a0 d73e 5390 f13f f3bb e53c 22dc 193e
00000110: d660 833f 997e eabf a6f0 193c b335 8a3d
00000120: c9a9 933e f5ee 003e cd68 1bbd 5aab 053f
00000130: 10d7 3f3f 067f afbd f6f2 acbd 93fa 023f
00000140: 42e4 8b3e a561 49bf e6a0 22be 4042 85be
00000150: 6213 a3be e9d9 60bf a4e8 f4bd 38c3 99be
00000160: afe1 133d 28c8 47bf c2ee 8bbd 4976 0d3f
00000170: 5797 82bf 8e6d e2bf b95d b6bd 74ab 133f
00000180: eeb0 be3e 1940 ce3e accc d03c 1ca0 913e
00000190: 3eef dcbd f6ee fcbd 0890 3a3c c601 c23e
000001a0: 7473 0e3f 3aef 913e 0f04 60bd 820b 9d3e
000001b0: 63af e3be 848a 0ebf a6dd 353d 7c1d 923e
000001c0: 0bb1 243f 88c3 e13e 3533 05bd c8cc ff3e
000001d0: cab6 5abf c289 b1bf f4a7 6c3d 9df3 1c3f
000001e0: b814 aa3b 379d 8dbf dce0 41bd 304e cebd
000001f0: f317 e73d 92b6 dfbd 4bbe 093d a09b 36be
00000200: 8206 21bd 78c2 84bf 45cd 9cbb 789f 28be
00000210: d071 f03e 13a7 13bf 74eb 98bc a011 20be
00000220: ffc6 31bc bef1 34bf 6b14 76bd 06b8 703e
00000230: 92f9 5f3f b6d3 acbf 1ca4 20bd 897e 993e
00000240: 3fcb d13e 90b3 003e cb43 97bc 7da1 453d
00000250: 07a7 39bf c03f 1dbf 119a 63bd 0457 933d
00000260: 8076 4d3f a3ac 80be ab67 b73c 17af 4dbf
00000270: 00c1 f1bd f917 4cbf 0e16 a73d aea2 6abf
00000280: 90a5 563f f13b 473f 22f3 2d3e 31bc 613f
00000290: 01c7 5a3f ea7a 003d 88ce de3d ee5e 6d3f
000002a0: a216 5ebe 5735 1dbf 7f90 48bc b531 36be
000002b0: ce43 313f 1e90 34bf fee7 bd3c 24e7 03be
000002c0: d363 64bb 56e0 05bd 9afd 923e 4e18 2ebe
000002d0: b9fe f43d 3140 43bf 6fbd 383e 2b89 59be
000002e0: c623 323e f1c4 923e 39c2 253e 9d87 153f
000002f0: f34d 53bf fe9f 2d3c fe9b 183e b60b 113f
00000300: 7ba3 273f e180 d4bf 37db 32bc 03ac 9d3e
00000310: 9245 efbe db57 b7be 7678 acbd 0ae9 903e
00000320: ddf0 413f e17e d9bf 7044 023e 5410 dcbc
00000330: d973 23bf 6b45 96bd f061 0f3e 2c34 7e3d
00000340: aa19 7c3f 01a8 92bf 05e6 263e 2db1 2abc
00000350: 4594 22bf bc72 24be 691e 543e de8a 74bb
00000360: ab60 b23e f873 15be a48a 123d a413 9ebd
00000370: 05a6 e43e d950 96be 897c 223d a773 80bd
00000380: 3d5f da3e a9da dcbc 5e69 e63d 45b2 133f
00000390: 7336 393f 662a 22be cf4c 523e 9edd 2c3f
000003a0: 1d00 373f 3ec8 ee3d 3e04 1f3e 82ce b5be
000003b0: 453e 283f 1295 68be 8141 5c3e 2591 d3be
000003c0: 3c95 c63e 9df6 063f 7ee7 a2bd 61a2 e3be
000003d0: 05b6 2ebe d412 03be a6aa 88bd 0ad0 c9be
000003e0: 80fc 0d3f c708 393e 0356 cbba 549c c23e
000003f0: 8932 acbd 0a4b e6be 5b64 633c 8aaf d23e

fcs1.bias f4 [256]
-1.2133026 -1.357469 -0.2312751 -1.7082328 -0.6604181 -0.8254375 -0.93156457 -0.34350613
-0.31547078 -0.924039 -0.9899055 -1.2801063 -0.7440388 -0.20727926 -1.0985409 -0.054041713
-0.15274446 -1.1586655 0.0984814 -0.32352492 0.29214713 -1.0170772 0.23538238 -1.2137606
-1.3216681 -0.11210405 0.3774296 0.6475725 -2.1368968 -1.5908508 -1.332617 -0.45689175
-0.47999078 -0.17215768 -0.25240272 -0.21960212 -1.19837 -0.057794563 -0.49502712 -0.6060418
0.035240017 -0.37837562 -0.73737234 0.9867313 -1.1009482 -0.8313994 -1.0156096 -1.7973715
-0.74663275 -1.0949463 -0.7407312 0.2174576 -0.5181186 -0.60856867 -1.1299738 -0.23723789
-0.04849051 -0.52846473 -1.0954682 -1.3469495 -0.9148705 -0.92077965 -0.38479164 0.17070054
0.9019097 -0.409461 -0.18049936 -0.089666545 -1.2262774 -0.8757725 0.22117572 -0.8342694
-0.24667507 -1.5862669 -0.57128865 -0.14511958 -0.5958078 -0.7756232 -1.7553663 -0.2147969
-1.318101 -1.269003 -0.863058 -0.9554958 -0.32212055 -0.29378954 -0.054175597 -1.0959668
0.5133746 -0.9297127 -1.805413 -1.9147485 -1.293412 1.2276937 0.68653935 -0.030434834
-2.3561723 1.9329604 -0.12747987 -0.27390677 -0.40099064 -1.6382949 -0.7932072 0.06849408
0.22944203 -0.74707156 -0.6157916 -0.74163413 -1.1782727 -0.96802473 -1.769711 -0.8911887
-0.12382839 0.34793153 -0.6260382 -1.0416585 -0.25648805 -1.1571083 -0.104774535 -1.3458016
-1.9728105 -0.43272373 -0.8883338 -1.5311186 -0.18975852 -0.4654484 -0.28868434 -0.25638726
-0.86828 -0.56568164 -0.14990443 -1.3041291 -0.29608175 -0.8890447 -0.37924147 -0.19159278
-1.2627198 -1.607087 -0.10349584 -0.74415296 0.582303 -0.56507546 -0.28177866 -0.4406214
-0.599079 -0.49542728 -0.2553063 -0.7037542 -0.18758151 0.2009644 -0.62000537 0.091957875
-0.8558259 -1.0049338 -0.64646554 -0.77865255 -0.35336587 -0.7330827 -1.3923125 -1.9597566
-1.3908675 -0.35767674 0.14913976 -0.38177136 -0.18032883 0.3507219 -0.24867612 -1.1891522
-0.13966373 -0.74561524 -1.734207 -0.03598613 -0.79597235 -0.13514641 0.84652925 0.31746107
-0.3753592 -0.32132313 -0.4961862 0.093999416 0.08417173 -1.5592937 -1.0190622 -0.19870014
-0.97137415 -1.5641718 -0.42205787 -0.63091725 -1.7452114 -0.734058 -0.9098077 0.055838004
-0.06991493 -0.25684303 -0.15935747 -0.33283928 -0.12923437 -0.54841197 -0.30481273 -0.6892149
-0.31210566 0.100211784 -0.87747294 0.5727202 -0.5905677 -1.5468638 -0.7447104 -1.4011276
-0.13514225 -0.09875899 -0.30410844 -1.0104328 0.122086555 0.16712895 -1.7382914 -1.0440669
-2.1308446 -1.151684 -0.30625612 -0.49569887 -0.7231284 -0.17917229 -1.3504488 0.66552955
0.30401275 0.030157253 -1.4128776 -0.15663306 -0.59730464 -1.0173074 0.32098407 -1.3717484
-0.3498215 -0.4999172 -1.1724169 -0.98573864 -0.52944964 -0.46872452 0.5884724 -1.082525
-1.9548992 -0.49102622 0.48879912 -0.9530178 -1.6505334 -0.8537489 -0.27645016 -0.9346707
-0.4192598 -0.12505358 -2.519865 -0.5339801 -0.7978259 -0.32541347 0.14792195 -0.7852244
00000000: 804d 9bbf 8bc1 adbf 61d3 6cbe 5fa7 dabf
00000010: 2911 29bf df4f 53bf 047b 6ebf 09e0 afbe
00000020: 6385 a1be d28d 6cbf 726a 7dbf 86da a3bf
00000030: 5479 3ebf 0441 54be fd9c 8cbf d85a 5dbd
00000040: 0b69 1cbe 274f 94bf 9eb0 c93d 0fa5 a5be
00000050: 4f94 953e 962f 82bf 1408 713e 825c 9bbf
00000060: 6c2c a9bf cf96 e5bd 743e c13e 50c7 253f
00000070: ebc2 08c0 00a1 cbbf 3293 aabf b7ed e9be
00000080: 5ac1 f5be 1a4a 30be ee3a 81be 61df 60be
00000090: 3064 99bf feb9 6cbd 3274 fdbe 8e25 1bbf
000000a0: d657 103d 73ba c1be 6fc4 3cbf 6c9a 7c3f
000000b0: dfeb 8cbf 97d6 54bf 7fff 81bf 4510 e6bf
000000c0: 5323 3fbf 3327 8cbf 8fa0 3dbf 35ad 5e3e
000000d0: 6ca3 04bf 28cb 1bbf fba2 90bf 7dee 72be
000000e0: fc9d 46bd 7749 07bf 4d38 8cbf d768 acbf
000000f0: f434 6abf 37b8 6bbf 6903 c5be 1fcc 2e3e
00000100: 8ee3 663f dfa4 d1be d3d4 38be 18a3 b7bd
00000110: a8f6 9cbf a032 60bf e37b 623e ae92 55bf
00000120: 6498 7cbe cb0a cbbf f93f 12bf 3a9a 14be
00000130: dc86 18bf 3e8f 46bf d8af e0bf b8f3 5bbe
00000140: 89b7 a8bf b16e a2bf 5ef1 5cbf 5f9b 74bf
00000150: fcec a4be 956b 96be 3be7 5dbd a448 8cbf
00000160: 856c 033f a701 6ebf c617 e7bf 7b16 f5bf
00000170: 868e a5bf 1125 9d3f 0bc1 2f3f 7952 f9bc
00000180: 87cb 16c0 3f6b f73f 158a 02be 823d 8cbe
00000190: a54e cdbe a6b3 d1bf a10f 4bbf a046 8c3d
000001a0: daf2 6a3e 1540 3fbf 85a4 1dbf bcdb 3dbf
000001b0: a4d1 96bf 78d0 77bf e485 e2bf f124 64bf
000001c0: bd99 fdbd 1524 b23e 0a44 20bf 1155 85bf
000001d0: 6752 83be 201c 94bf 0894 d6bd 3a43 acbf
000001e0: 0e85 fcbf f78d ddbe d869 63bf b2fb c3bf
000001f0: 0f50 42be 414f eebe 6fce 93be 3145 83be
00000200: 9947 5ebf 83d0 10bf 8c80 19be b4ed a6bf
00000210: 0798 97be 6f98 63bf f02b c2be e630 44be
00000220: cda0 a1bf 07b5 cdbf a1f5 d3bd cf80 3ebf
00000230: cf11 153f c9a8 10bf 4b45 90be 2199 e1be
00000240: 3e5d 19bf a5a8 fdbe 82b7 82be 3c29 34bf
00000250: 5e15 40be 9dc9 4d3e acb8 1ebf 6954 bc3d
00000260: 6817 5bbf aca1 80bf c47e 25bf c655 47bf
00000270: 5fec b4be 4fab 3bbf 4c37 b2bf 4ed9 fabf
00000280: f207 b2bf 6821 b7be 18b8 183e 8977 c3be
00000290: 1fa8 38be d291 b33e f4a4 7ebe 2436 98bf
000002a0: 0204 0fbe a4e0 3ebf 7ffa ddbf 3166 13bd
000002b0: d8c4 4bbf d263 0abe 24b6 583f 428a a23e
000002c0: 152f c0be 7784 a4be 1e0c febe c482 c03d
000002d0: 3a62 ac3d f096 c7bf a170 82bf 0d78 4bbe
000002e0: faab 78bf c836 c8bf f817 d8be cb83 21bf
000002f0: 1663 dfbf 3aeb 3bbf 28e9 68bf 64b6 643d
00000300: 8f2f 8fbd ee80 83be 9b2e 23be e969 aabe
00000310: 0456 04be ba64 0cbf 6a10 9cbe 6370 30bf
00000320: 50cc 9fbe d63b cd3d 11a2 60bf cb9d 123f
00000330: 722f 17bf a2ff c5bf 57a5 3ebf 2658 b3bf
00000340: bb62 0abe 2742 cabd 1ab4 9bbe dd55 81bf
00000350: 8408 fa3d da23 2b3e 5580 debf fca3 85bf
00000360: c25f 08c0 626a 93bf 9acd 9cbe 3ecc fdbe
00000370: f11e 39bf f178 37be 82db acbf 2560 2a3f
00000380: 8fa7 9b3e 580c f73c 2cd9 b4bf 6b64 20be
00000390: f5e8 18bf 2137 82bf 0658 a43e 7495 afbf
000003a0: ce1b b3be 26f5 ffbe c211 96bf 5e59 7cbf
000003b0: 038a 07bf a9fc efbe 21a6 163f 2e90 8abf
000003c0: 233a fabf ca67 fbbe e143 fa3e f9f8 73bf
000003d0: ae44 d3bf 4a8f 5abf e08a 8dbe 9446 6fbf
000003e0: 38a9 d6be 0c0e 00be 7845 21c0 ebb2 08bf
000003f0: 513e 4cbf 989c a6be da78 173e 7704 49bf

fc2.weight f4 [128, 260]
-0.045408368 -0.018579813 -0.077701725 -0.10200399 -0.15306287 -0.008401286 -0.03920347 -0.064053304
-0.06197979 -0.08565625 -0.045474134 -0.021218384 -0.012887936 -0.035493206 -0.075285494 0.029718932
0.045889918 -0.0044988273 -0.11070338 -0.03637749 -0.017697839 -0.08439529 -0.0961202 -0.018086169
-0.0054815058 -0.12988867 -0.09056011 -0.12094079 -0.09023846 -0.019205084 0.030224025 -0.05381298
-0.046053823 -0.020697534 0.012641561 -0.06853724 -0.0032631333 0.042354953 0.03040427 0.027151894
-0.07538393 -0.008381284 -0.08104028 -0.095154755 -0.048899207 -0.044810034 0.053257566 0.0514872
-0.056374766 -0.026391527 0.02419865 0.003325707 -0.0038213239 -0.03624796 0.017899308 -0.1167462
-0.07657065 -0.06209943 0.04626907 0.052476887 -0.023405602 -0.0143504795 -0.06522815 0.016937029
-0.055756923 -0.06534055 0.046721257 -0.09240009 -0.044605784 -0.0736949 -0.061353102 -0.039143853
0.0007883141 -0.0006806927 -0.08933915 -0.07841157 -0.001877437 0.016692713 -0.03409768 0.04685417
-0.005554457 -0.022966696 -0.011905105 -0.04197405 -0.122227676 -0.097665444 0.044040572 -0.052810878
0.05937654 0.017397432 0.06429051 -0.061534096 -0.055279735 -0.070260115 -0.054271404 0.041154727
-0.019271107 -0.100426696 0.0011611528 -0.08641998 -0.08462741 -0.004855347 -0.011685589 -0.087879054
-0.0003983476 -0.082309164 -0.09451153 -0.051664036 -0.032863732 -0.059607517 -0.049207706 0.03609652
-0.04715463 -0.19896218 -0.006830546 -0.050707426 0.05040976 0.010352092 -0.058328927 -0.115977325
0.056495868 -0.0073983585 0.0035284308 -0.08025141 -0.06531658 -0.016035944 0.05667741 -0.06444857
-0.0059393537 -0.084099084 -0.019338636 -0.07360233 0.02754006 0.017955363 -0.030136172 -0.009442891
-0.065481715 -0.00796986 -0.0027275141 0.032213774 -0.0685552 -0.08990593 0.006000773 -0.046993244
-0.042635586 0.034606688 -0.04266514 -0.06816647 0.060304407 -0.014825825 -0.0069709313 -0.107416406
-0.08304768 0.00907916 0.036401026 -0.093256384 0.06480267 -0.02252813 -0.028953467 -0.17571725
0.010411005 -0.029436396 -0.061193664 0.0005589507 -0.00034163764 -0.02544509 -0.04794718 0.07277279
0.08803634 0.030828927 -0.07368657 0.048214607 -0.02864956 0.05796552 0.05587821 -0.109990075
-0.10347903 -0.040438887 -0.031776227 -0.0409973 -0.06402682 0.031040493 -0.10535652 -0.010900018
0.008582997 -0.1032253 -0.032087445 -0.07364357 -0.014559311 0.03912305 -0.080747716 -0.05217923
0.0092102345 -0.020301182 -0.1619061 -0.06655575 -0.082791425 0.0038810484 -0.047919367 -0.09415182
-0.11347232 -0.032768782 -0.07206406 -0.031508867 0.048277713 -0.005640093 -0.011216951 0.012243321
-0.030007118 0.031226812 -0.019737247 -0.042135313 0.02938247 -0.030951597 -0.042319242 -0.099124886
-0.039738733 -0.047390796 0.010076629 -0.11366365 -0.040863007 0.029506762 -0.043918457 -0.12796551
-0.16361818 -0.05656399 -0.040030405 -0.041445132 -0.07056221 -0.021960123 -0.054256253 -0.018762898
-0.015775368 -0.06336572 0.013934053 -0.028433733 -0.052755143 -0.082777575 0.018869894 -0.012281249
0.008889823 -0.058203243 -0.044321798 -0.085281335 0.043092605 -0.082994185 -0.045693792 -0.11550241
-0.07391209 -0.1225718 0.07026023 -0.1144907 -0.020846583 0.05100013 -0.042205874 -0.041850705
00000000: 20fe 39bd b134 98bc 1522 9fbd 78e7 d0bd
00000010: 83bc 1cbe 8ca5 09bc d193 20bd 612e 83bd
00000020: 85de 7dbd 8b6c afbd 1643 3abd 2dd2 adbc
00000030: ec27 53bc 5361 11bd 482f 9abd 1e75 f33c
00000040: 11f7 3b3d e66a 93bb 74b8 e2bd 9000 15bd
00000050: 0ffb 90bc 70d7 acbd abda c4bd 7229 94bc
00000060: 349e b3bb 8901 05be 9477 b9bd ceaf f7bd
00000070: f1ce b8bd fb53 9dbc 6098 f73c 006b 5cbd
00000080: efa2 3cbd e08d a9bc 8d1e 4f3c 415d 8cbd
00000090: 4bda 55bb 637c 2d3d 6012 f93c a66d de3c
000000a0: e462 9abd a751 09bc 72f8 a5bd 7fe0 c2bd
000000b0: 894a 48bd ba8a 37bd 9b24 5a3d 3ee4 523d
000000c0: 3ae9 66bd 0b33 d8bc 3f3c c63c 1bf4 593b
000000d0: 2d6f 7abb be78 14bd 92a1 923c a218 efbd
000000e0: 13d1 9cbd f95b 7ebd a384 3d3d 01f2 563d
000000f0: 1bbd bfbc 461e 6bbc 5696 85bd 86bf 8a3c
00000100: 5f61 64bd 44d1 85bd ca5e 3f3d 423c bdbd
00000110: 8eb4 36bd 5aed 96bd 644d 7bbd 4e55 20bd
00000120: dda6 4e3a 8470 32ba 72f7 b6bd 3f96 a0bd
00000130: 5514 f6ba 28bf 883c 02aa 0bbd 28ea 3f3d
00000140: 2a02 b6bb a724 bcbc a10d 43bc fbec 2bbd
00000150: 8152 fabd d204 c8bd e363 343d 3850 58bd
00000160: d134 733d 0f85 8e3c beaa 833d 2d0b 7cbd
00000170: 016d 62bd 89e4 8fbd b14b 5ebd dc91 283d
00000180: 71de 9dbc 83ac cdbd d331 983a f5fc b0bd
00000190: 2351 adbd 9a19 9fbb ea74 3fbc eff9 b3bd
000001a0: 4fd9 d0b9 b591 a8bd 438f c1bd ab9d 53bd
000001b0: 1f9c 06bd 0327 74bd 058e 49bd f2d9 133d
000001c0: 3725 41bd bebc 4bbe c6d2 dfbb 97b2 4fbd
000001d0: 777a 4e3d d29b 293c 50ea 6ebd 8585 edbd
000001e0: 3668 673d ee6d f2bb 3f3d 673b da5a a4bd
000001f0: b3c4 85bd d05d 83bc 9226 683d 9dfd 83bd
00000200: e99e c2bb 243c acbd 0f6c 9ebc d2bc 96bd
00000210: b19b e13c 2017 933c 22e0 f6bc 5bb6 1abc
00000220: 471b 86bd 0494 02bc 18c0 32bb 97f2 033d
00000230: ab66 8cbd 9a20 b8bd 22a2 c43b fd7b 40bd
00000240: a7a2 2ebd bebf 0d3d a4c1 2ebd dd9a 8bbd
00000250: c101 773d 04e8 72bc 696c e4bb 22fd dbbd
00000260: e714 aabd c2c0 143c 3e19 153d 34fd bebd
00000270: 43b7 843d ea8c b8bc d22f edbc 39ef 33be
00000280: eb92 2a3c 9924 f1bc 35a6 7abd 8c86 123a
00000290: d41d b3b9 3972 d0bc 4364 44bd e709 953d
000002a0: 664c b43d f28c fc3c fce8 96bd ae7c 453d
000002b0: 7bb2 eabc 416d 6d3d 8de0 643d 7a42 e1bd
000002c0: d0ec d3bd 3fa3 25bd ca27 02bd c9ec 27bd
000002d0: 7e20 83bd a248 fe3c 29c5 d7bd fd95 32bc
000002e0: b39f 0c3c c967 d3bd 206e 03bd 71d2 96bd
000002f0: 2d8a 6ebc 7e3f 203d 0f5f a5bd e3b9 55bd
00000300: 86e6 163c aa4e a6bc b6ca 25be 624e 88bd
00000310: 8d8e a9bd 3059 7e3b 1947 44bd abd2 c0bd
00000320: 2d64 e8bd 8f38 06bd 5296 93bd 710f 01bd
00000330: dabe 453d 87d0 b8bb 4dc7 37bc 3698 483c
00000340: 7dd1 f5bc 5fcf ff3c 02b0 a1bc 1496 2cbd
00000350: 81b3 f03c 348e fdbc f156 2dbd fd01 cbbd
00000360: 15c5 22bd da1c 42bd 7218 253c 7dc8 e8bd
00000370: f85f 27bd 2ab8 f13c d7e3 33bd 6409 03be
00000380: 868b 27be a4af 67bd ecf6 23bd 5fc2 29bd
00000390: ec82 90bd b7e5 b3bc ce3b 5ebd a6b4 99bc
000003a0: 583b 81bc e3c5 81bd a74b 643c dced e8bc
000003b0: c715 58bd 4a87 a9bd 0995 9a3c 4b37 49bc
000003c0: 9fa6 113c 8666 6ebd c68a 35bd fba7 aebd
000003d0: df81 303d dbf8 a9bd 6a29 3bbd 878c ecbd
000003e0: 395f 97bd ed06 fbbd 98e4 8f3d 1a7a eabd
000003f0: 74c6 aabc 83e5 503d 11e0 2cbd a56b 2bbd

fc2.bias f4 [128]
-0.21931684 -0.3346814 -0.22362109 -0.13172425 -0.28922722 -0.15924872 -0.23389299 -0.1795632
-0.1705079 -0.35749015 -0.5101174 1.9780563 -0.34517524 -0.27993512 -0.8033554 -0.35403922
-1.2852883 -0.21404293 -1.0340754 -0.4773243 -0.27678686 -0.32368645 -0.3058947 -0.1316386
-0.48892394 -0.246415 -0.7108696 -0.2691416 -0.21284957 -0.26459074 -0.3743206 -1.2780341
-1.365793 -0.27585766 -0.4536208 -1.2198412 0.7703122 -0.28347307 -0.63277376 -0.28090888
-0.26116002 -0.3622732 -0.27246493 -0.3934696 -0.36614385 -2.205292 -0.85875964 -0.23563161
-0.1587454 -0.2626251 -0.16993368 -0.20035355 -0.21204242 -0.21960492 -0.60081017 -0.58407956
-0.64036477 -0.40646127 0.15332384 -0.2215858 -0.227904 -0.5198846 -0.70541465 -0.16126469
-0.5271697 -0.9047657 -0.2835192 -0.7524624 -0.2623878 -0.3361178 -1.5867962 -0.21723501
-0.2878242 -0.30378824 -0.5762079 -0.2568974 -0.19341984 -0.2290816 -0.5904485 0.042127766
-0.9452414 -0.3513413 -0.359562 -0.27448475 -0.46560824 -0.7468298 -0.23716877 -0.90455383
-0.24495326 -1.1075511 -0.15444338 -0.4864147 -1.3615639 -0.2723379 -0.92331266 -0.70168114
-0.2031218 -0.26275876 -0.2045736 -1.2681912 -0.61044866 -0.21034904 -0.26105243 -0.31556135
-0.23712201 0.92557234 -0.42179358 -0.8109273 0.699799 -0.92895055 -1.2215275 -1.0661771
-1.5712156 -0.22819325 -0.1889973 -0.2693859 -0.07595011 -0.2663615 -0.6189955 -0.54917836
-0.19724458 -0.2317764 -0.31933978 -0.8793213 -0.4027507 1.0107721 -0.5469086 -0.6511744
00000000: 9894 60be 5c5b abbe edfc 64be b9e2 06be
00000010: 9715 94be 1912 23be a581 6fbe 6adf 37be
00000020: 9f99 2ebe f308 b7be 0e97 02bf f330 fd3f
00000030: cfba b0be a853 8fbe b3a8 4dbf a144 b5be
00000040: 5484 a4bf 122e 5bbe 955c 84bf da63 f4be
00000050: 02b7 8dbe 3bba a5be 3b9e 9cbe 45cc 06be
00000060: 3d54 fabe 3754 7cbe 8dfb 35bf eecc 89be
00000070: 3df5 59be 7078 87be f3a6 bfbe 9f96 a3bf
00000080: 4ed2 aebf 373d 8dbe fc40 e8be c223 9cbf
00000090: 2e33 453f 6223 91be 76fd 21bf 4ad3 8fbe
000000a0: c4b6 85be df7b b9be 8680 8bbe d974 c9be
000000b0: 3577 bbbe 8123 0dc0 acd7 5bbf 6a49 71be
000000c0: 278e 22be cc76 86be 1803 2ebe 7b29 4dbe
000000d0: a621 59be 1de0 60be b2ce 19bf 3d86 15bf
000000e0: f2ee 23bf b11b d0be ed00 1d3e 63e7 62be
000000f0: ab5f 69be 2817 05bf 0e96 34bf 9222 25be
00000100: 98f4 06bf ba9e 67bf 6e29 91be 60a1 40bf
00000110: b257 86be a217 acbe 231c cbbf db72 5ebe
00000120: b25d 93be 228a 9bbe 5c82 13bf 0e88 83be
00000130: da0f 46be 5e94 6abe a227 17bf 2a8e 2c3d
00000140: 57fb 71bf 02e3 b3be 8318 b8be 4489 8cbe
00000150: 3464 eebe 3d30 3fbf 5fdc 72be d790 67bf
00000160: 07d5 7abe 3cc4 8dbf 6826 1ebe 590b f9be
00000170: ba47 aebf e06f 8bbe 385e 6cbf 60a1 33bf
00000180: 29ff 4fbe 5188 86be be7b 51be 1754 a2bf
00000190: 5d46 1cbf bd65 57be aaa8 85be 4291 a1be
000001a0: 1dd0 72be 4ff2 6c3f 54f5 d7be ee98 4fbf
000001b0: 0726 333f b4cf 6dbf 035b 9cbf 7e78 88bf
000001c0: 981d c9bf 7eab 69be 8288 41be f3ec 89be
000001d0: bb8b 9bbd 8960 88be 7d76 1ebf f496 0cbf
000001e0: 7cfa 49be cb56 6dbe 8180 a3be 331b 61bf
000001f0: 5735 cebe fb60 813f 3402 0cbf 5eb3 26bf

fc3.weight f4 [1, 128]
0.019108623 0.00032028297 -0.020428607 -0.0028960782 0.00039373798 0.056757357 -0.019309435 0.019677449
-0.01568589 0.015238361 0.005912208 -0.006278356 -0.011346913 -0.014016904 0.02508726 0.005454254
-0.011001497 -0.0110691255 -0.02240275 -0.014815063 0.0010462329 0.013227505 -0.019428175 -0.009301909
0.026742551 -0.01787366 -0.016206885 0.018426746 0.018569382 0.0045362585 0.012097135 -0.010132309
-0.0224229 0.0014169717 0.016460735 -0.03966941 -0.00532676 0.023922557 -0.018793052 0.01047634
0.026874997 -0.0071876994 0.0044058696 -0.004529476 0.0063982126 -0.013972959 -0.006185043 -0.0055049974
0.021308733 -0.027566005 -0.025200529 -0.02349834 -0.010601257 0.006028498 0.027276516 -0.0039833174
0.010550981 -0.015687829 0.022546062 0.04028922 -0.015955271 -0.02043652 0.019857215 -0.027992103
0.0022325073 -0.0070093726 0.024505563 0.007990709 0.020832118 0.03244507 -0.01485919 -0.0011749518
0.0077542206 0.0115789715 -0.009266345 0.022356214 0.013550896 -0.00813944 -0.009167753 0.0059636584
-0.036495995 0.0012816836 0.0046033803 -0.0023018976 -0.029392213 0.00656935 0.0005327791 -0.04782939
-0.009532722 0.04572317 0.0026776413 0.015014089 -0.014365718 -0.019512758 -0.0057838475 0.010175339
0.0066952487 0.012915875 -0.0059327204 -0.012062517 -0.016255064 0.023477742 0.005927409 0.003275137
-0.008647792 -0.006263514 0.008332223 -0.044428404 0.012972966 -0.0062503987 -0.015222442 -0.01738316
-0.017317241 -0.029061895 0.011817672 0.009207899 -0.026179943 -0.01866504 -0.0063976725 0.005011094
-0.016955582 -0.016119387 0.017501952 -0.021710522 -0.011019574 0.012927424 0.015471282 0.008288144
00000000: b089 9c3c a7eb a739 e559 a7bc 21cc 3dbb
00000010: 9e6e ce39 677a 683d d22e 9ebc 9a32 a13c
00000020: b27f 80bc 52aa 793c 32bb c13b abba cdbb
00000030: 67e8 39bc 28a7 65bc cc83 cd3c 99b9 b23b
00000040: 9f3f 34bc 475b 35bc f985 b7bc e1ba 72bc
00000050: c021 893a 2db8 583c d627 9fbc 0967 18bc
00000060: 3213 db3c c86b 92bc 4dc4 84bc b0f3 963c
00000070: d11e 983c e5a4 943b 1033 463c fc01 26bc
00000080: 3bb0 b7bc aeb9 b93a aad8 863c 647c 22bd
00000090: 1a8c aebb 3df9 c33c e3f3 99bc f4a4 2b3c
000000a0: f428 dc3c cb86 ebbb 1d5f 903b 006c 94bb
000000b0: 19a8 d13b d6ee 64bc e7ab cabb 4463 b4bb
000000c0: a78f ae3c 1ad2 e1bc 5771 cebc 977f c0bc
000000d0: e5b0 2dbc b58a c53b 0073 df3c 7d86 82bb
000000e0: 06de 2c3c c383 80bc 85b2 b83c 4f06 253d
000000f0: a1b4 82bc 7d6a a7bc 99ab a23c b24f e5bc
00000100: 424f 123b e1ae e5bb e4bf c83c 76eb 023c
00000110: 1ea8 aa3c 1fe5 043d f673 73bc d700 9aba
00000120: 1e17 fe3b bab5 3d3c ded1 17bc 6124 b73c
00000130: 9404 5e3c 495b 05bc 5834 16bc cb6a c33b
00000140: d37c 15bd 2afe a73a f4d7 963b 6fdb 16bb
00000150: f0c7 f0bc b443 d73b 33aa 0b3a c0e8 43bd
00000160: 222f 1cbc 3848 3b3d 5e7b 2f3b a7fd 753c
00000170: 305e 6bbc 38d9 9fbc 6e86 bdbb 77b6 263c
00000180: d163 db3b 1b9d 533c 4467 c2bb dda1 45bc
00000190: 5729 85bc 6554 c03c b63a c23b aea3 563b
000001a0: 78af 0dbc 2a3e cdbb e083 083c 8ffa 35bd
000001b0: 908c 543c 25d0 ccbb 8d67 79bc 2167 8ebc
000001c0: e3dc 8dbc 3613 eebc e99e 413c badc 163c
000001d0: 5277 d6bc 6de7 98bc 91a3 d1bb 1a34 a43b
000001e0: 6fe6 8abc ce0c 84bc 4160 8f3c 44da b1bc
000001f0: 718b 34bc 8ccd 533c 437b 7d3c ffca 073c
