cp-critic1.pth (torch_old, 185416 bytes, 5 tensors)

fcs1.weight f4 [256, 48]
000000 93 62 08 3f f4 b0 5a 3d 89 13 63 be e8 6b ca 3e
       0.5327541 0.053391412 -0.22175421 0.3953545
000010 cc 14 f7 3e be c3 94 bf 65 9c 73 be 74 fe d9 3e
       0.48258054 -1.1622236 -0.23790129 0.42576945
000020 df 0f f1 3e d3 87 f9 be a9 17 63 bb 22 29 41 3e
       0.4708242 -0.48736438 -0.0034651554 0.18863347
000030 bf a7 44 3f 11 31 c7 bf e7 e2 d2 3d c7 6d 1b 3e
       0.7681846 -1.5561849 0.102971844 0.15178595
000040 a1 1b 2e 3f ae f1 55 bf 7d 94 00 3d 3b 9f c4 3e
       0.6801091 -0.835719 0.03139161 0.38402733
000050 4f bb 3d 3f 36 57 a9 bf 8c db 91 3d bf bf 96 3e
       0.74113935 -1.322974 0.07121953 0.29443166
000060 a3 b4 37 3f bd a9 8d 3f a1 b3 de bd 79 2a 76 be
       0.71760005 1.1067425 -0.10874105 -0.2403964
000070 d1 84 0d bf a6 ee 9c bf 81 9c 14 be 66 79 53 be
       -0.55280787 -1.226033 -0.14512827 -0.20651779
000080 0b c3 59 3f 08 1b 3c 3f 14 b8 a6 bd d3 2c 2d bd
       0.85063237 0.73478746 -0.08140579 -0.042279076
000090 a8 30 51 bf 86 dd c3 bf 75 b8 d1 bd 68 09 5c 3c
       -0.8171487 -1.5301979 -0.102402605 0.013429977
0000a0 49 d3 35 3f a8 08 aa 3f e7 0e d3 bd d5 d8 8d 3e
       0.7102552 1.3283892 -0.10305577 0.27704492
0000b0 0d b0 48 bf ce 7b a9 bf 04 eb c4 bd 0e 31 b5 3e
       -0.7839363 -1.3240907 -0.09615138 0.35388988
0000c0 ae 49 5e 3e 3a 1c 05 bf 5e 88 54 be 6d fc a6 3d
       0.21707794 -0.51996195 -0.20755145 0.08153615
0000d0 be 75 12 be 93 4b 8e bf 7e 71 75 be 27 c2 1d 3e
       -0.14302728 -1.1116813 -0.23969075 0.15406094
0000e0 e0 c5 1c 3f c3 8b 91 be c3 ff 18 bc c8 c4 4a 3f
       0.61239433 -0.28426942 -0.009338322 0.79206514
0000f0 2d 6a 78 be 61 e7 80 bf 04 25 8d bc 6c 5b 4f 3f
       -0.24259253 -1.0070611 -0.017229564 0.80998874
000100 09 41 23 3f ce 36 eb bd 79 8a 4a bd 77 47 b6 3b
       0.6377111 -0.114850625 -0.049448464 0.0055627185
000110 62 30 09 bf 64 31 d9 be e0 75 8b bd 16 1e 9e bd
       -0.5358945 -0.42420495 -0.06809592 -0.07720582
000120 0b ad 4c 3f 2b 2e 6c bf fd c0 dd 3b 36 f8 03 bd
       0.7995154 -0.92257947 0.0067673908 -0.032219134
000130 d6 09 7d 3d 03 4c 8b bf 24 c4 22 bd 91 06 2f bd
       0.06177696 -1.0882572 -0.039737836 -0.04273087
000140 ca df 81 3f 73 8d 02 bf 5c 58 98 bd f9 8d e5 bd
       1.014642 -0.50997084 -0.07438728 -0.1120872
000150 b5 ed 3a 3e 65 21 77 bf ef fe 0f bd f4 c7 1b be
       0.1825474 -0.9653533 -0.035155233 -0.15212995
000160 b7 fb a6 3f 22 3b 9b be 10 6d 69 3e 98 0b f5 be
       1.3045567 -0.30318552 0.2279551 -0.47860408
000170 4c c3 0a 3f ba ec b8 be 6e 34 54 3e 51 a1 e8 be
       0.5420425 -0.36118108 0.20723125 -0.45435575
000180 5a 21 5d 3f f9 e2 df 3f 24 bb 0c bd 37 45 d0 3e
       0.86379015 1.7491142 -0.03435816 0.40677807
000190 08 2e 86 be bf 30 6b bf 8f 7d 46 bd cf 52 00 3f
       -0.26206994 -0.91871256 -0.048459586 0.50126356
0001a0 54 6f 53 3f 43 c0 c5 3f 5d 96 8e 3c c3 91 09 3b
       0.8259175 1.5449299 0.017405683 0.0020991422
0001b0 fb ac cc be 73 cd 01 bf bf 95 ee 3d a5 a5 9d bc
       -0.39975724 -0.50704116 0.116496556 -0.019244025
0001c0 c1 9f 82 3f 1b 6e f6 3e 98 28 13 be f7 5c ef be
       1.0205003 0.4813088 -0.14370954 -0.46750614
0001d0 d0 a0 b7 be 58 98 32 be 66 c7 5a bd 4a 42 b5 be
       -0.35864878 -0.17440927 -0.053412817 -0.35402137
0001e0 b6 b5 05 bf 9a d1 7e bf f7 f2 61 bd 4d cc 1b 3e
       -0.52230394 -0.99538577 -0.05516335 0.15214653
0001f0 15 b8 88 3e b6 89 67 bf 18 5d d3 3c 54 ae 98 3d
       0.26702943 -0.90444505 0.025801226 0.074551255
000200 7b 70 00 bf a4 30 4e bf ab 94 bf 3e 8e 2f 4d be
       -0.5017163 -0.8054297 0.37418112 -0.20037672
000210 8b 6f d9 3e 19 ea 06 bf 75 79 b8 3e d7 a1 44 be
       0.42467913 -0.52700955 0.36030164 -0.19202362
000220 6f 7b 1b bf 95 30 32 bf b5 ea 20 be d2 a7 4f 3f
       -0.6073522 -0.6960538 -0.15714534 0.8111545
000230 38 26 c2 3e da e8 0c be e1 8e 0b be 8a 39 60 3f
       0.37919784 -0.13760701 -0.13628723 0.875878
000240 0c f5 bd 3c 0e 49 f0 3f 54 2b 3b bd 3a 8e 8a bd
       0.023188137 1.8772295 -0.045695618 -0.06765409
000250 10 37 8a bf a1 49 98 bf 4d 91 a9 bd 59 10 34 bd
       -1.0798054 -1.189747 -0.08279667 -0.043960903
000260 e6 ad dd 3e f3 c7 a6 3f 19 68 66 3e f4 91 90 3e
       0.43296736 1.302977 0.22500648 0.28236353
000270 98 13 78 be 5b ae 85 bf e6 82 91 3e 80 54 2d 3e
       -0.24226224 -1.0443834 0.2842018 0.16926765
000280 5d 40 ed 3e 65 50 58 3f 68 d8 34 3d bf a2 d8 bd
       0.46338168 0.8449767 0.044151694 -0.10577916
000290 7f 19 9b 3e ca 1b c1 bf 32 b0 8a bc c6 17 77 bd
       0.3029289 -1.5086606 -0.01692972 -0.060325406
0002a0 65 4b 56 3e 99 04 3d bf 48 4d 58 3d d1 e3 69 bd
       0.20927198 -0.7383514 0.052808076 -0.05710203
0002b0 58 05 86 3f 93 f1 a3 bf 6a b3 b4 3d 84 ca 02 bc
       1.0470381 -1.2808098 0.08823283 -0.007982854
0002c0 f6 53 18 3e 93 75 20 bf 7d 94 c9 3d 52 81 00 3f
       0.14875779 -0.62679404 0.09842775 0.5019733
0002d0 54 b2 79 3e ac 42 81 bf fc 4d 07 bc e9 48 eb 3e
       0.24384433 -1.0098472 -0.008258339 0.45954064
0002e0 59 25 00 3e 1e 15 4e bf 00 2b 7c bd 7a 5f fe be
       0.12514247 -0.8050097 -0.061564445 -0.49682218
0002f0 f0 27 8c be 6f c4 c3 bf d0 61 98 bd 99 ab 03 bf
       -0.2737422 -1.5294322 -0.07440531 -0.5143371
000300 3e 1d 96 3d aa fc cd bf c4 76 af bc 43 e4 27 bd
       0.07329796 -1.6092732 -0.021418937 -0.04098917
000310 3c ef c2 be 68 94 11 be a2 fa c1 bd 29 fc 86 bd
       -0.38073146 -0.14216769 -0.094716325 -0.065910645
000320 12 97 92 3c db 4c 20 bf c1 d5 60 bd e7 aa d0 3d
       0.017894302 -0.6261727 -0.05489135 0.10188847
000330 29 a7 77 be e2 db 3b bd c8 5f 2c bd ba 64 43 3e
       -0.2418486 -0.045863993 -0.04208353 0.19081393
000340 7e dd ac 3e 16 43 18 bf 15 67 67 bd 2e cd 60 be
       0.33762735 -0.59477365 -0.05649479 -0.2195327
000350 1a 0d 40 bf 35 a8 31 bf 64 0f 4a bc 0f f4 59 be
       -0.7501999 -0.6939729 -0.012332771 -0.21284507
000360 8b a0 01 3f 20 e7 66 bf 5a 8c 68 3e 9e 9f c1 3e
       0.50635594 -0.9019642 0.2270979 0.3781709
000370 0d 50 b8 3e a0 0e 9f bd 2b 89 6c 3e 07 08 c9 3e
       0.35998574 -0.07766461 0.230992 0.39263937
000380 49 9e 50 3f 2f 1c 9a bf 2d fd 19 3e e0 47 32 be
       0.81491524 -1.2039851 0.15037985 -0.1741023
000390 ac 58 a7 3e 1c ff 05 be 2e 13 79 3e 57 33 9b bd
       0.3268484 -0.13085598 0.24323723 -0.07578152
0003a0 1e a8 6a 3f ac 46 1b bf a2 d9 c1 3d 36 ef 65 3e
       0.91662776 -0.6065471 0.09465338 0.22454533
0003b0 ff b6 45 3f 03 b1 42 bf d3 28 1e 3e f7 6a 2a 3e
       0.77232355 -0.7605135 0.1544526 0.16642366
0003c0 03 1c 28 3f 63 04 bf 3f ba bf a2 3d ff db 28 3e
       0.6566774 1.4923214 0.07946725 0.16490172
0003d0 5d d9 96 3f d2 77 2b bd 2f fd bc 3d 09 81 5c 3e
       1.1785084 -0.041862316 0.092279784 0.21533598
0003e0 e7 fd 9b 3f c2 a4 11 3f be c9 60 bc 63 02 9b be
       1.218686 0.56892025 -0.013719974 -0.30275258
0003f0 31 02 d8 3e 2c 66 5f be 8e 6f e0 3a 58 ef 8a be
       0.42189172 -0.21816319 0.001712309 -0.2713573

fcs1.bias f4 [256]
000000 0d 6b 09 c0 99 f6 88 bf c1 11 4c be ca 3d 62 be
       -2.1471589 -1.0700256 -0.19928648 -0.22093883
000010 b1 b1 17 3f 66 7c ec bf db fd 98 bf cd 97 d4 be
       0.5925551 -1.8475463 -1.195247 -0.41522065
000020 52 45 41 bf 90 4c 83 bf 9a 1b b4 bf 3d 9e b7 be
       -0.754964 -1.025774 -1.4070923 -0.35862914
000030 04 0a 1d bd 9e ca 29 3f 46 52 89 bf a0 44 37 bf
       -0.03833963 0.66324794 -1.0728233 -0.7158909
000040 f5 8a 1e be 2c 47 bf bf f3 95 dc bc 90 09 2b be
       -0.15482695 -1.4943595 -0.02692697 -0.16702867
000050 9f d8 b0 be 77 fd 07 bf aa 46 90 be d3 8a cf be
       -0.3454027 -0.5312113 -0.28178912 -0.40535602
000060 d3 10 05 bf 32 5e a0 3e 36 9e 6f 3e 10 90 f6 3c
       -0.51978797 0.31321865 0.23400196 0.030097991
000070 1f 98 f7 3a db 15 43 3e 71 a4 98 bf 77 d8 fb be
       0.001888994 0.19051306 -1.1925184 -0.49188587
000080 86 db 9a 3f ed be 82 bf 83 9a 15 bf e0 0b ed be
       1.2098243 -1.0214516 -0.5843889 -0.46298122
000090 43 c6 a4 bf d3 0e e0 be 79 61 8e bf c4 8f 2c bf
       -1.2873005 -0.4376131 -1.1123496 -0.6740687
0000a0 a9 6b 12 bf 73 47 2b 3f b1 94 8f be a3 e3 de be
       -0.57195526 0.669059 -0.2804313 -0.43533048
0000b0 ad 75 a3 bf df 15 94 bf 0c c6 e2 bd 45 af c4 bf
       -1.2770287 -1.1569175 -0.11072931 -1.5365988
0000c0 b3 52 19 3e e6 82 1e 3d 67 a8 e9 bc f9 68 78 3f
       0.14972953 0.038699053 -0.028522683 0.97035176
0000d0 16 1f 6b bf f9 2c 98 bf 0d ad 24 bf 9a 15 51 3f
       -0.9184431 -1.1888725 -0.64326555 0.81673586
0000e0 06 82 a5 be 9b 5d 70 3e 74 e0 20 bf f3 65 03 c0
       -0.32325763 0.23473208 -0.6284249 -2.0530975
0000f0 11 16 7b bf 66 99 13 bf 1c 8a a8 be b5 62 66 bf
       -0.98080546 -0.5765594 -0.3291787 -0.89994365
000100 3a 7f dd be 89 cd 7e 3d 64 a9 90 be fa 4b 8a bf
       -0.4326113 0.062207732 -0.28254235 -1.0804436
000110 c9 ca a5 bf 2c 37 e6 be 47 5f c8 bf d1 ef 77 bf
       -1.295251 -0.44963968 -1.5654076 -0.96850306
000120 08 21 a4 3d cc fa 09 bf 07 df 0c bf 10 78 9e bf
       0.08014113 -0.5389831 -0.5502781 -1.238039
000130 62 0f 3a be ba b2 78 bf c3 ce 6f bf 5b b9 25 3e
       -0.1816993 -0.97147715 -0.9367487 0.16183989
000140 21 14 be bf ea 38 c7 be dc b2 5d bf 7b 36 f2 bf
       -1.4849893 -0.3891061 -0.8660104 -1.8922876
000150 ff 72 2e be 33 ca 93 bf 65 8f 36 bf 51 65 db be
       -0.17036055 -1.1546081 -0.7131255 -0.42850736
000160 88 20 42 3e d4 1d 2c bf e6 c8 1f bf c5 69 a1 bf
       0.18957722 -0.67233014 -0.6241592 -1.2610403
000170 75 39 91 be b2 23 35 3f c7 e6 ad bf 97 5f 10 bf
       -0.2836415 0.7075759 -1.3586053 -0.5639586
000180 73 16 47 bf fd 71 ad 3e d4 c8 90 be 85 1e 5f be
       -0.7776863 0.3387603 -0.2827822 -0.21788986
000190 47 a8 f3 be ca 1a a1 bf 73 fe c7 bf e5 b3 63 bd
       -0.47589323 -1.25863 -1.5624527 -0.055591483
0001a0 bd eb ab bf 76 ca 8c bf 95 4c 76 bf 26 0d 86 bf
       -1.3431317 -1.0999286 -0.96210605 -1.0472763
0001b0 e2 92 6a bf 0f 1f 47 bf 71 7c ea be 80 49 3b bf
       -0.91630375 -0.77781767 -0.45798066 -0.7315903
0001c0 05 62 f9 be ab 0e 83 bf 75 9f 03 bf 23 95 4f be
       -0.48707595 -1.0238851 -0.5141519 -0.20271735
0001d0 0f bd 37 bf 38 7a 90 bf 26 76 4b be c3 f3 48 bf
       -0.71772856 -1.1287298 -0.19869289 -0.7849695
0001e0 68 47 44 be 31 b6 a4 bf f7 d7 57 3c 03 f2 cd bf
       -0.19167864 -1.28681 0.013174049 -1.6089481
0001f0 5e 95 16 bf 00 aa f7 bd b7 c9 94 bf 52 4a 0b bf
       -0.58821666 -0.12092972 -1.1624058 -0.5441028
000200 f4 53 fe be f9 8e 07 c0 81 3e 2d bf 03 d2 00 bf
       -0.49673426 -2.1181014 -0.676735 -0.5032045
000210 2d 8f c8 bf a9 16 5d bf e4 a2 3a bf 40 ae 32 be
       -1.5668694 -0.863627 -0.729048 -0.17449284
000220 24 71 cb be f3 70 35 be 1e d0 13 bc 82 20 8a bf
       -0.39734757 -0.17718868 -0.009021787 -1.0791171
000230 0a c1 70 bf e3 02 e8 be 1b 66 a2 bf b9 36 f0 3d
       -0.94044554 -0.45314702 -1.268741 0.117291875
000240 91 20 16 bf d5 6b f6 be 3a 88 d0 3d a1 6a be bf
       -0.5864344 -0.48129144 0.10182233 -1.487629
000250 89 77 0d bf 85 ab f5 bd df 98 ed be ca e0 58 bf
       -0.5526052 -0.119956054 -0.46405694 -0.84718
000260 b0 dc 67 bf 24 72 8e 3e 90 60 2d bf 62 be 3e bf
       -0.9057112 0.27821457 -0.6772547 -0.7450925
000270 86 83 63 be 88 59 34 3d 0f 0a d1 bc 73 2f 44 be
       -0.22218141 0.044030696 -0.025517492 -0.19158725
000280 84 63 a1 bf d8 cf 07 c0 89 0f 63 be a4 86 0f bf
       -1.2608495 -2.1220608 -0.22173895 -0.5606482
000290 57 c8 0b bf 9c cb 0d bf 51 fd 4b bf e1 63 3e bf
       -0.5460257 -0.5538881 -0.79683405 -0.74371153
0002a0 df 53 70 bf 59 38 90 bf 7a 2f da be eb b4 0a bf
       -0.9387798 -1.1267196 -0.42614347 -0.5418231
0002b0 13 9e 0a be 19 e0 a0 bf b7 39 53 3f 48 d6 36 bf
       -0.13536863 -1.2568389 0.8250994 -0.7142072
0002c0 3e a2 7a bf a9 44 10 bf dd f7 5f bf af 2c 95 3e
       -0.9790381 -0.5635477 -0.87487584 0.29135653
0002d0 37 c8 8c ba 2d bf ac be c5 ff 73 bf 27 cd 9b be
       -0.0010740821 -0.33739606 -0.9531215 -0.30429956
0002e0 cd cc 2a c0 40 1c a7 bf 12 3a 5d bf 7b d9 3e bf
       -2.66875 -1.3055496 -0.86416733 -0.745506
0002f0 bc 5d d5 be 61 b6 b7 bf b9 bf 35 bf 2f 63 84 bd
       -0.41673076 -1.4352533 -0.7099567 -0.0646423
000300 62 b6 64 bf 07 e7 7f be 1e 7e ee 3e ee f0 84 bc
       -0.89340794 -0.24990474 0.46580595 -0.016228165
000310 d3 9f 55 be d0 5f 93 bf 77 5d fe be 3d ac 8b bf
       -0.2086175 -1.1513615 -0.49680683 -1.0911938
000320 ce f0 4c bf 77 4f 76 3f fe 7f 6b bf c3 08 21 bf
       -0.8005494 0.96215004 -0.91992176 -0.62903994
000330 d8 cb 33 bf 83 b1 ca bf ad 0d 7f bf 4e 18 60 bf
       -0.70232916 -1.5835422 -0.9963024 -0.87537086
000340 9a 37 1a be d9 4d e6 be 27 f1 be be bc 2e b0 bf
       -0.15060273 -0.44981268 -0.3729336 -1.3764262
000350 fe ec 1b 3f 5a 1f 9d be 88 89 95 bf 0e e6 7c 3f
       0.60908496 -0.30687982 -1.1682596 0.98788536
000360 d1 f0 43 bf 20 b1 20 3e 43 4e e0 bf c9 e6 ab bf
       -0.7653933 0.15692568 -1.7523884 -1.3429805
000370 39 84 87 bf a1 66 03 c0 df 8c db be 45 d4 9c bf
       -1.0587226 -2.053139 -0.42880914 -1.225228
000380 d5 4d 60 bf 92 25 46 bf f2 ee a1 bf 3e 6d 68 bf
       -0.8761876 -0.7740108 -1.2651045 -0.9079169
000390 27 40 1d bf 17 56 fa bf 0e da 3e 3f 51 9f 8d bf
       -0.61426014 -1.9557523 0.74551475 -1.1064245
0003a0 bd 69 a1 bf 5b cd 11 bf 5a bc a1 bf 40 57 11 bf
       -1.2610394 -0.5695397 -1.2635605 -0.5677376
0003b0 ce cf 24 bd ec 66 3d 3f 7f d3 25 3d d0 71 b6 be
       -0.04023724 0.7398517 0.0404849 -0.35633707
0003c0 f5 09 1e bf 54 7e 98 bd d9 e9 d2 bf f1 36 86 bf
       -0.61733943 -0.0744597 -1.6477615 -1.0485517
0003d0 f8 9d 0b bf 42 f4 41 3e cc 1f b1 be c1 13 8f bf
       -0.54537916 0.18940833 -0.34594572 -1.1177903
0003e0 c2 5b 8d bd a8 85 b5 bf d5 43 71 bf f9 89 49 be
       -0.06902267 -1.4181414 -0.9424413 -0.19681539
0003f0 ef e2 cb bf ea 07 61 bf 18 15 e0 3e e0 dc fd be
       -1.592863 -0.879027 0.43766093 -0.49582577

fc2.weight f4 [128, 260]
000000 f2 d4 72 bd 73 f4 13 3d c4 61 33 be 9f 41 a6 bd
       -0.05928511 0.036121797 -0.17517763 -0.08117985
000010 4a 30 c3 bd 82 37 e3 bb 45 14 ad bc 7e a8 66 bd
       -0.09530695 -0.0069341073 -0.02112783 -0.05631303
000020 5f fc 8c bd 5a 76 8c bd 75 b8 7b bd 49 a0 c7 39
       -0.068840735 -0.06858511 -0.06145521 0.0003807566
000030 c4 61 57 bc 6d d3 78 bc 22 af 8d bd 70 2d 40 3c
       -0.013145868 -0.015187127 -0.069181696 0.011729583
000040 e1 47 b2 3c ba e8 97 bb 57 6d 4d be 17 c5 c5 3b
       0.02176279 -0.0046358975 -0.20061241 0.006035458
000050 d0 06 63 bd 0e e2 5b bd a5 51 2f bd 06 35 9e bb
       -0.05542642 -0.05368238 -0.04280247 -0.004828098
000060 75 51 47 3b b9 75 c8 bd ac 05 f8 bd 16 40 cc bd
       0.0030413542 -0.09788079 -0.12110457 -0.09973161
000070 5f 8b 3d be d5 e1 6d 3b e9 07 0b 3d e2 c1 80 bd
       -0.18510197 0.0036297936 0.03394309 -0.0628698
000080 6f 3c a3 bd 6a 49 37 bd c5 20 d8 3c a3 ec c7 bd
       -0.07970511 -0.044747747 0.026382813 -0.09761932
000090 5b 00 98 bd 8b df 17 3d 6a bb 81 3d 74 17 1a 3a
       -0.07421943 0.03707842 0.063345745 0.00058781286
0000a0 4e 9f f1 bd 2b 68 a7 bd 0e 29 a0 bd bd 27 d5 bd
       -0.11797963 -0.08174165 -0.078203306 -0.1040797
0000b0 f6 df b7 bc 8d d8 aa bc 77 48 05 3d dc ae 85 3b
       -0.02244566 -0.020855213 0.03253981 0.0040796828
0000c0 7c 45 c6 bd aa 95 71 bd 9d a0 10 3d 22 98 d4 3a
       -0.09681222 -0.05898062 0.035309423 0.0016219656
0000d0 37 89 d3 3c c8 74 c6 3b a0 42 8c 3b bd 34 ca bc
       0.025822265 0.006056402 0.0042804033 -0.02468335
0000e0 fe 64 02 be 4a 4d f6 bc f8 32 c6 bd fc d5 75 3d
       -0.12733838 -0.030066151 -0.0967769 0.060018525
0000f0 c4 ad 4f bc 03 26 84 bd 07 10 fa bd 02 b6 92 3d
       -0.012675706 -0.06452563 -0.12210088 0.071636215
000100 01 d4 85 bd ed 14 89 bd 9a f7 aa 3c 7d a6 d9 bd
       -0.06534577 -0.066934444 0.020870019 -0.10627458
000110 9b 4d 68 bd fd 41 99 bd d3 19 80 bd 73 32 2b bd
       -0.056714635 -0.074832894 -0.062549256 -0.04179616
000120 a6 06 4f 3c f2 7a 09 be a4 87 f4 bd 18 51 2b 3c
       0.012635862 -0.13425806 -0.11939934 0.010456346
000130 23 b4 80 bc d8 fe c3 bc 14 2c ac bc e7 7c de 3c
       -0.015710896 -0.02392523 -0.021017112 0.027159167
000140 64 e3 55 3d 70 d5 b5 bd 26 be 97 bd c3 71 d5 bd
       0.05221881 -0.088786006 -0.07409315 -0.10422089
000150 d4 74 93 bd 80 bd d9 bd 6b dd 80 37 11 c1 16 be
       -0.072000176 -0.106318474 1.5361895e-05 -0.14722086
000160 9a 2e 65 bd 18 4c 0c 3d e6 33 72 3d d6 1c 92 bc
       -0.055952646 0.034252256 0.059131525 -0.017836016
000170 50 06 23 bd 0e ef 38 bc 74 1e 54 bd 42 4a 1f 3d
       -0.039800942 -0.011287464 -0.051786855 0.038889177
000180 66 27 60 bd 92 bd 93 bd 01 4f 05 3d 00 3d a6 bd
       -0.054725073 -0.07213892 0.032546047 -0.081171036
000190 3c 1e b8 bd 51 07 54 3b 36 d8 25 bd 2a 7f 4c 3c
       -0.08990142 0.0032352994 -0.040489398 0.01248149
0001a0 8d 54 bd bc 25 c5 a6 bd 7d bb 0e be 03 84 08 be
       -0.023111606 -0.08143071 -0.13938709 -0.13331608
0001b0 af e3 22 be ba 88 f5 bd 53 a2 b5 bd 66 a8 19 3c
       -0.15907167 -0.11988969 -0.088688515 0.009378528
0001c0 c1 6d 92 bc e3 69 1f bd 55 6d 86 be a5 68 82 bd
       -0.0178746 -0.03891934 -0.2625529 -0.063676156
0001d0 af 3b cb bc e9 f4 ab 3b 6f a1 44 bc 0d f6 c6 bd
       -0.024808733 0.0052477014 -0.012001379 -0.09714899
0001e0 2b bf 40 3d be 8b 86 bc 27 55 29 bc 9e 77 78 3d
       0.047057312 -0.016424056 -0.010335243 0.06066095
0001f0 c2 9f a3 bd 4b c1 57 3c d2 d7 86 3c 81 54 f0 bd
       -0.07989456 0.013168643 0.016460333 -0.11734868
000200 27 bd 9d 3c 69 5e eb bd 1a 66 91 bd fb 0b 01 be
       0.019255234 -0.11492617 -0.070995525 -0.12602226
000210 d6 3a 2c 3d 09 0b b7 bc 8b 44 0e 3c b6 a3 c1 3c
       0.042048298 -0.02234413 0.008683334 0.023637634
000220 09 45 92 bd 44 e4 d7 bc 81 54 88 3d 01 58 04 3d
       -0.07142074 -0.026353963 0.06656743 0.03231049
000230 50 21 80 bc f0 8b 36 bd 7d d0 10 bc 78 8c 9b bd
       -0.015640885 -0.04456705 -0.00883877 -0.07595152
000240 d7 0f a9 bd 0c ce 25 3c d4 10 fd bd f5 e9 83 bd
       -0.08254974 0.010119926 -0.12356725 -0.06441108
000250 49 bf d3 3c 7d 59 18 bd d6 ca d0 bc 7a 58 52 bc
       0.025848048 -0.037194718 -0.025487345 -0.012838477
000260 8a bb 94 bd 9d 34 cb bc 05 4d b6 3c 90 33 a6 bd
       -0.07262333 -0.024805361 0.022253523 -0.081153035
000270 19 d9 9c 3d a3 1a 8b bc bc 43 02 bb 58 0a 64 be
       0.076585956 -0.016980475 -0.0019876799 -0.22269571
000280 91 e9 50 3c 32 97 b1 bd 2c ca c6 bd b2 ff 9a bb
       0.012750999 -0.08671416 -0.0970653 -0.0047301883
000290 5e 8b d6 bc 2c 41 bb bc c3 20 e7 bd 5a 5a cb 3c
       -0.026189502 -0.022858225 -0.11285546 0.024823356
0002a0 43 30 c0 3d 73 0e 5a 3c fb 8c b9 bd 36 48 8f 3d
       0.09384205 0.013309109 -0.09060093 0.06996195
0002b0 88 99 34 bd 2b 10 9c bc 08 95 0f 3d 1c 2f 69 3c
       -0.04409173 -0.019050678 0.035054237 0.014232423
0002c0 21 31 ea bd ab 8e 9a bd a6 46 31 bc 96 49 83 bd
       -0.11435152 -0.07546743 -0.010820067 -0.0641052
0002d0 7a 86 47 be 1e 43 5b 3c fc 5a b5 bd 20 77 21 bd
       -0.19484892 0.013382701 -0.088552445 -0.039420247
0002e0 9b 26 08 3c 50 21 38 be f5 24 8f bd 15 67 3b bd
       0.0083099855 -0.17981458 -0.06989471 -0.045752604
0002f0 94 53 85 bd 62 3f a8 bd 94 58 ac bd 72 ee 85 bd
       -0.06510082 -0.08215214 -0.084153324 -0.065396205
000300 78 f2 ca 3b 80 86 b0 bc 15 26 f5 bd 60 35 48 bd
       0.0061934553 -0.02154851 -0.11970154 -0.048879027
000310 a2 c2 ba bd 74 70 05 3d 57 c8 29 bd 60 33 ae bd
       -0.091191545 0.032577947 -0.041450825 -0.08505893
000320 5b 39 0a be 5a 66 d4 bd a1 8f 9a bd a7 72 05 bd
       -0.13498442 -0.103710845 -0.07546926 -0.032580044
000330 6d 3f 37 3b 33 5c 1b bc 8a 9b 09 bd f7 c3 95 3c
       0.0027961389 -0.009482431 -0.0335956 0.01828192
000340 20 e7 8e 3c 7a 0c 1e 3d 9c a9 57 bc 08 9a 51 bd
       0.017444193 0.038586117 -0.013162997 -0.051172286
000350 8d 9a 0b 3d 6c ab 03 3c 03 64 5c bd af b0 b0 bd
       0.034082938 0.008036476 -0.053806316 -0.0862745
000360 6e e4 c8 3b f2 35 18 be e5 f9 18 3c 8f 0c 8b bd
       0.0061307466 -0.14864329 0.009336923 -0.06789505
000370 a0 5d 69 bd 2b 71 a3 3c 3b 59 0a bd 0b 5a 98 bd
       -0.056974053 0.019951424 -0.033776503 -0.07439049
000380 82 cf 04 3d 12 0f 95 bc 45 a9 b1 bd 5c 55 c9 bd
       0.032424457 -0.018195663 -0.08674864 -0.09830734
000390 9c c1 73 bd d5 50 16 bd 3e ba 52 be b6 c2 63 bd
       -0.059510812 -0.03669818 -0.20578858 -0.055605613
0003a0 0e 28 50 3d 89 e6 fa bd 99 eb b9 3c 44 65 2e 3a
       0.05081945 -0.12251002 0.02269535 0.0006652663
0003b0 b7 ce 30 be 88 53 21 bd e1 7e 30 bd 65 32 80 3c
       -0.17266355 -0.039386302 -0.04308975 0.01564903
0003c0 fe 46 65 bc 06 2e e6 bd dd 2a 5e bd dd 98 a1 bd
       -0.013993977 -0.11239247 -0.054240096 -0.078904845
0003d0 55 46 a4 3d 69 1e 47 bd 7a 62 28 bd b8 ae 29 be
       0.08021227 -0.048612986 -0.04110954 -0.16570556
0003e0 5b d0 98 bd 2f b1 b5 bd a7 7d 0f bb 6b a2 07 be
       -0.07461616 -0.08871686 -0.0021894963 -0.13245551
0003f0 4e 6f 1d 3d af da 61 3c a5 d3 69 bc e1 4a 83 bc
       0.038436227 0.013785048 -0.014271651 -0.016026916

fc2.bias f4 [128]
000000 59 34 88 be 07 3d 7c bf 5d d3 5e bf 66 e5 5b be
       -0.26602438 -0.9853062 -0.87041265 -0.21474227
000010 96 1a 83 be 5f b6 a5 be 0f 1f 8b be 6e a4 9f be
       -0.2560622 -0.323657 -0.27172133 -0.31180137
000020 91 c2 3c bf 50 44 93 be c2 e3 50 be bf 68 f9 3f
       -0.73734385 -0.28763056 -0.20399383 1.9485091
000030 cc fb af be b9 13 89 be 0a 6a 65 be 47 0a b2 be
       -0.34371793 -0.2677286 -0.22403732 -0.34773466
000040 5f 9d 16 be cc 52 5b be 49 ea af be 52 36 b7 be
       -0.1470847 -0.21418303 -0.34358433 -0.3578363
000050 9d 69 6d be 2d 6d bd be 45 73 86 be c0 87 b8 be
       -0.2318482 -0.36997357 -0.2625982 -0.3604107
000060 32 cd 3e be df d8 a7 be 87 6c 0b bf 95 4e ab be
       -0.18632963 -0.32782647 -0.54462475 -0.3345839
000070 89 b4 ce be 82 1a 8c be 25 84 aa be d0 00 92 be
       -0.40372112 -0.27363974 -0.33303943 -0.28516245
000080 d3 87 91 bf f2 a5 45 bf e7 a8 fa be 16 28 0c bf
       -1.1369575 -0.7720634 -0.48956987 -0.54748666
000090 7d fa c2 3d 93 79 92 be 68 57 4f bf 57 bb 0e bf
       0.09520433 -0.2860838 -0.80992746 -0.5575461
0000a0 32 d4 61 be 27 44 0b bf 16 e5 6d be 05 11 9e be
       -0.22053602 -0.5440087 -0.2323192 -0.3087236
0000b0 6d 14 96 be 72 d7 35 bf ec 6a 89 bf d5 71 1d 3d
       -0.2931246 -0.7103187 -1.0735755 0.038438637
0000c0 83 de 73 be f0 c2 c5 be f1 c1 6a bf e3 e6 c8 be
       -0.2381535 -0.38625288 -0.9170218 -0.39238653
0000d0 f8 be 61 bf 2a f6 fa be 97 ef 8e be bd 10 cc be
       -0.8818202 -0.49015933 -0.27917168 -0.3985652
0000e0 c7 27 3f be 8c 43 4c bf 33 dd 23 3e 60 cc 11 bf
       -0.18667518 -0.7979057 0.1600235 -0.56952477
0000f0 58 b7 c1 bf 3a f9 e9 be 3a cf 8c bf 09 11 35 be
       -1.5134077 -0.45697957 -1.100074 -0.1768228
000100 04 07 46 be 43 13 9d be 16 6e 9e be b1 10 8d be
       -0.19338614 -0.30678758 -0.30943364 -0.27551797
000110 89 02 6f be 3b bb 8c be ae 2c a6 bf 7f 00 e3 be
       -0.23340811 -0.27486596 -1.2982385 -0.44336316
000120 63 98 3a bf 0b 19 eb be 5a 69 57 bf 17 95 46 be
       -0.72888774 -0.45917544 -0.8414513 -0.19392811
000130 23 88 b3 be 6a 4e 60 be 2a 5e 74 bf 7f a8 6c be
       -0.35064802 -0.21904913 -0.9545618 -0.23111151
000140 9d 19 ad be 92 48 5e be 7c 62 98 be f7 8c 46 be
       -0.33808604 -0.21707371 -0.29762638 -0.19389711
000150 d7 12 cb be 83 99 ba be 09 c4 93 bf da 59 05 bf
       -0.3966281 -0.36445245 -1.15442 -0.5209023
000160 11 c1 6b be 44 14 aa bf dc 90 3b be 3c fb 36 bf
       -0.23022868 -1.3287435 -0.18316978 -0.71477103
000170 fe ed 01 bf 98 9c 8d be 11 e9 a0 be 48 cf 70 be
       -0.5075377 -0.27658534 -0.31427816 -0.23516572
000180 a6 ba 93 be 79 fe 05 be 90 91 f9 be 96 c5 85 bf
       -0.2885334 -0.13085355 -0.48743868 -1.0450923
000190 07 41 28 bf d5 b9 5d be 3e e9 b9 be 04 f5 a2 be
       -0.65724224 -0.2165292 -0.36310762 -0.31827557
0001a0 a2 30 a8 be f5 99 5e bf 37 4e a0 be 60 95 0a bf
       -0.32849604 -0.8695367 -0.31309673 -0.5413418
0001b0 88 14 97 3f 62 46 74 bf bc d0 b5 bf 91 1c ef bf
       1.1803141 -0.95419896 -1.4204326 -1.8680593
0001c0 22 6d 83 be d5 c0 e3 be d1 03 5c bf 8e b5 fc be
       -0.256692 -0.44483057 -0.85943323 -0.49357265
0001d0 d0 5f 99 bf 76 ae 84 be 23 40 e1 be b8 f0 95 be
       -1.1982365 -0.25914353 -0.43994245 -0.29285216
0001e0 21 84 c3 be 04 71 87 be 9c 29 8a be 8d ab 0a bf
       -0.38186744 -0.26453412 -0.2698487 -0.54168016
0001f0 c2 ab a9 be d3 3e 42 be cd c3 93 be 9a 28 ac be
       -0.33138853 -0.18969278 -0.28860322 -0.33624727

fc3.weight f4 [1, 128]
000000 47 71 ee bc cd de 9f 3b 39 17 31 3d 99 3a 9a 3b
       -0.02910675 0.004878855 0.043235037 0.0047066924
000010 ca 79 e9 3b 43 3c f3 bb ee 4a f3 bc d7 6a ce bc
       0.007125114 -0.0074229552 -0.029698815 -0.02519743
000020 8c 1e b1 bc 2a c6 67 bc 08 3a b5 39 62 80 b4 bb
       -0.021621011 -0.014146367 0.00034566247 -0.0055084685
000030 95 22 f8 3b 00 c6 be 3b a8 6e 1b bc d7 95 d6 3c
       0.007572482 0.0058219433 -0.009486832 0.026194496
000040 9c 84 fb bc a4 c5 d1 3b 98 f6 2a bc 9e 98 fc 3b
       -0.030702882 0.0064017344 -0.010434769 0.007708623
000050 ac 16 05 ba 37 b5 bb 3b b9 78 4a bc e8 6f 93 3b
       -0.0005076926 0.0057283896 -0.012357884 0.0044994242
000060 5f d9 84 3c cd f9 c8 bc ae 15 ee bc e6 56 e7 3c
       0.016216932 -0.024533177 -0.029063072 0.028239679
000070 d5 e8 9b 3a 0b 55 8e bc 86 8d b6 3b a4 70 89 bc
       0.0011894951 -0.017374536 0.00557107 -0.016777344
000080 d1 ec df 3b a3 21 d6 3c 44 df a8 3c 0a d4 bc bc
       0.0068336506 0.026139086 0.020614274 -0.023050327
000090 3a c2 3a 3c af a3 18 bc 91 d6 95 3c b8 15 00 3c
       0.011398846 -0.009316369 0.01829079 0.007817678
0000a0 8e 93 eb ba fa 94 e7 3c 2a 00 a6 bc 8f a8 aa ba
       -0.0017973052 0.02826928 -0.02026375 -0.0013020205
0000b0 24 a5 e5 bc ba a3 5f bd 69 28 b3 bc 39 93 30 3c
       -0.028032847 -0.0545995 -0.021869855 0.010777288
0000c0 a1 9d ec ba 77 d5 82 3c 65 f4 6c bc 0a f0 6b bc
       -0.0018052348 0.015970929 -0.014462565 -0.0144004915
0000d0 cb da 85 bb e9 8c 24 bd 73 05 bb 3c fa b9 71 bc
       -0.00408492 -0.040173445 0.022829747 -0.014753813
0000e0 27 f7 61 bc 72 72 28 bc 82 02 cc bb 6a 50 3d bc
       -0.013791836 -0.010281192 -0.006225885 -0.011554817
0000f0 c4 f5 9e bc 45 e6 8e bc b2 ab 03 3c 4f 89 80 bc
       -0.0194043 -0.017443785 0.008036541 -0.015690474
000100 bd b8 87 3b 0e b2 9f bb e5 9c 05 3b c2 fc b3 3b
       0.0041418956 -0.0048735207 0.0020387706 0.0054927776
000110 23 0f 18 3c 20 65 fe 3b 8f bb 9f bc cc 1c 33 3c
       0.009280953 0.00776352 -0.019498615 0.010932159
000120 10 f0 f3 3c 04 bb e5 ba 7e 68 7c bc e5 4b 54 bc
       0.029777557 -0.0017527048 -0.015405772 -0.012957548
000130 3e 3f 18 bc 9b 80 83 ba 03 34 5e 3c b8 64 9d bc
       -0.009292422 -0.0010032834 0.013562205 -0.019213066
000140 5f 21 9d bb f8 48 e3 bc 0c 31 73 bd 47 e4 09 bb
       -0.004795238 -0.027744755 -0.059372947 -0.0021040605
000150 ef 0e 06 bc 97 22 47 3c 0d 36 be 3c 31 fc ec bb
       -0.008182271 0.012154243 0.023219133 -0.007232212
000160 fa ae e7 bb 39 00 56 bc b7 43 72 bc fb 5d 3d bc
       -0.0070704194 -0.0130615765 -0.014786652 -0.011558051
000170 eb a3 7b 3c 51 bf cc 3c 33 ca 36 3c 50 60 66 3c
       0.015358905 0.02499357 0.0111566065 0.014061049
000180 c1 17 e0 bb ea 87 94 bc 62 8e d4 bc 09 fe 8a 3b
       -0.006838769 -0.018131215 -0.0259468 0.004241709
000190 c3 7d 87 bc 25 65 18 bc f8 fa 93 3c f9 7d 3a 3b
       -0.01653946 -0.0093014585 0.018064007 0.0028456433
0001a0 a6 5f 91 3c 18 3f 18 bc 76 f7 1f bc 50 c7 f3 3b
       0.017745804 -0.0092923865 -0.009763589 0.0074395314
0001b0 f7 41 32 3c 5e 3e 38 bc 10 60 67 bc ed be 13 bc
       0.010879985 -0.011245338 -0.014122024 -0.009017688
0001c0 c7 a4 bb bc e8 97 3e 3c 4b 6d f8 3c 29 78 53 bc
       -0.02290572 0.011632897 0.030325552 -0.012907066
0001d0 46 3c 2f 3c 0e 24 50 bc e1 53 53 b9 26 f6 9d bc
       0.010695523 -0.012703909 -0.00020153775 -0.019282412
0001e0 d3 da d8 3c d3 a9 15 3b f1 bc 65 3b 0c 63 db bb
       0.026471531 0.0022836819 0.0035055245 -0.006695157
0001f0 42 da c8 3b 7e 3a 97 3c a3 50 b7 bc 22 a1 87 3b
       0.006129534 0.018460508 -0.022377318 0.0041390816
