cp_actor0.pth (torch_old, 183824 bytes, 6 tensors)

fc1.weight f4 [256, 48]
000000 93 63 6a bf 7b 8c 6f 40 75 00 4d be 94 1a a8 3f
       -0.9155819 3.7429492 -0.20019706 1.3133111
000010 86 ad ef bd 1a ae b4 bf 77 d3 47 be 40 ef ae 3f
       -0.11703019 -1.4115632 -0.19514261 1.3666763
000020 7d 1f 47 bf e1 67 20 40 57 b4 7b be f0 4b 06 be
       -0.7778242 2.5063403 -0.24580513 -0.13114905
000030 99 ae 8c 3c 82 12 36 c0 68 71 3c be e5 5b 25 bd
       0.017173098 -2.8448796 -0.18402636 -0.04037084
000040 98 19 55 bf 51 68 05 40 1b 7c 88 3e 97 47 88 bf
       -0.8324218 2.084492 0.26657185 -1.0646847
000050 81 a5 b7 3d bc 36 a9 c0 c1 3a 9c 3e 54 9a 7e bf
       0.08967114 -5.2879314 0.30513576 -0.99454236
000060 2a 27 ab bf cb eb 63 bf e1 a8 34 bf b2 55 19 be
       -1.3371327 -0.89031667 -0.7057019 -0.14974096
000070 90 ee ea 3d 78 73 bb bf f3 63 1c bf a6 b1 13 be
       0.114712834 -1.4644613 -0.6109001 -0.14423236
000080 a0 86 85 bf b6 e2 a7 be 1d 18 a3 be 34 63 55 3e
       -1.0431709 -0.32790154 -0.31854334 0.20838624
000090 e0 0a 18 bd 24 f6 35 c0 27 e8 b3 be 69 ca 82 3e
       -0.037119746 -2.8431482 -0.35138056 0.25545052
0000a0 f7 95 81 bf df 23 dd 3e d6 11 2e 3d 76 5d 95 bf
       -1.0123891 0.4319143 0.04249748 -1.1669147
0000b0 69 dd a4 bd b8 0d a9 c0 da 99 b6 3d 50 3c 91 bf
       -0.08050043 -5.2829247 0.089160636 -1.1346531
0000c0 92 32 9f 3f 7e a6 93 bd 81 1a 99 3e 95 fb 3e c0
       1.2437308 -0.0720949 0.29903033 -2.9841053
0000d0 39 5f 08 bf cc b3 85 be 69 fb a9 3e 1b 74 3d c0
       -0.532703 -0.26113737 0.33199623 -2.9602115
0000e0 fd 61 8d 3f b7 f9 38 bf bc 50 98 be c9 ad 7e bf
       1.1045529 -0.72256035 -0.29749095 -0.99483925
0000f0 ef 96 05 bf 98 bd 28 3f a5 4f 55 be af b9 74 bf
       -0.5218343 0.659143 -0.20831163 -0.9559583
000100 fe 0b 88 3f f4 2f 34 bf 80 06 02 3e 57 ae 92 3f
       1.062866 -0.7038567 0.12697792 1.1459454
000110 4f b5 5b be 5b 15 7c 3f 1f 94 e6 3d 97 f0 8c 3f
       -0.21455882 0.98470086 0.112587206 1.1010922
000120 73 ae 78 3f 5b 13 34 3f 2d 19 41 be c8 0c fb be
       0.9714119 0.70342034 -0.1885726 -0.4903319
000130 45 72 f8 3e 28 73 88 be cf 10 45 be b4 31 0a bf
       0.4852468 -0.26650357 -0.19244693 -0.5398209
000140 38 ea 9e 3e 3f 14 cb 3e 29 27 48 bf 68 8a 83 3e
       0.3103807 0.39663884 -0.78184754 0.25691533
000150 3d 49 04 3f 7e 0c 0d 3f 3d 08 4f bf fb f0 43 3e
       0.5167425 0.55097187 -0.80871946 0.19134896
000160 e2 99 49 3f 43 6b 38 3f 46 5c 03 3f d8 14 6b bf
       0.7875043 0.7203867 0.51312673 -0.9182868
000170 95 f1 e3 3d 16 36 81 3f 7e 79 e2 3e be e5 60 bf
       0.111300625 1.0094631 0.44233316 -0.8785056
000180 92 a7 1b be 4c c7 6f 40 b7 9f 23 be e4 cb 5b 3f
       -0.15200642 3.746539 -0.15978895 0.8585799
000190 91 b3 34 3f 8f f0 ea bf b8 14 40 be fe 8e 73 3f
       0.70586497 -1.8354663 -0.18757904 0.95140064
0001a0 0f d5 2d 3e 11 1f 2c 40 62 79 95 3d 49 4d 3f 3f
       0.16975807 2.6893961 0.072985426 0.747273
0001b0 01 00 07 3f 0c 53 28 c0 6b 22 2d 3d fd 4a 2a 3f
       0.5273438 -2.6300688 0.04226915 0.66520673
0001c0 a1 a0 52 3e 65 76 17 40 c3 fc 14 bf c1 60 5c bf
       0.20569088 2.3666012 -0.58198184 -0.86085135
0001d0 67 99 2e 3e 25 9a 4f c0 f7 01 19 bf 99 95 58 bf
       0.17050706 -3.2437832 -0.59768623 -0.8460327
0001e0 62 a3 38 bf 70 33 0b bf 33 c5 db bd f0 ed e1 bf
       -0.721243 -0.5437536 -0.10730972 -1.7650738
0001f0 c7 d0 3d bf 2f 06 eb bf d1 73 20 bd 54 ed e4 bf
       -0.74146694 -1.8361262 -0.03917295 -1.7884927
000200 32 5e 25 bf 66 d1 37 bf 67 38 95 bd 71 be 08 c0
       -0.64596856 -0.7180389 -0.072861485 -2.1366236
000210 fb aa 12 bf 6e 3f 27 c0 b8 f3 35 bc 07 0b 0f c0
       -0.57292145 -2.6132464 -0.01110547 -2.235048
000220 37 9f 27 bf d8 c4 02 bf c8 60 cf bd d9 48 65 bf
       -0.6547732 -0.5108161 -0.101258814 -0.8956428
000230 41 a4 3e be 39 c7 51 c0 fb 62 ae 3b 8c 6a 6d bf
       -0.18617345 -3.2777846 0.005321858 -0.927407
000240 8f 08 5d 3e 3e 6e 24 bf be 11 e4 3d 1f c5 49 bd
       0.21585296 -0.64230716 0.111361966 -0.049260255
000250 c8 69 e5 3e e7 50 5b be 5d ee 22 3e 1c 5d eb bd
       0.44807267 -0.2141758 0.15911241 -0.114923686
000260 ab b5 d6 3e 8b 04 31 bf f1 4c 92 3e dd 8b 02 be
       0.41935477 -0.6914756 0.28574327 -0.12748666
000270 20 fb 7f 3f 87 27 19 bf 39 d0 86 3e 5c 9c d6 bd
       0.9999256 -0.5982594 0.26330736 -0.10479042
000280 e5 82 ad 3e 08 4b 32 bf 52 b3 ad be 3e 55 30 bf
       0.33888927 -0.6964574 -0.33925873 -0.6888007
000290 0b 37 cd 3f 57 ed 8d bf d6 df dd be 58 f6 2a bf
       1.6032423 -1.1088055 -0.43334836 -0.6678214
0002a0 3e 05 76 3f 4a a7 ef bf e3 06 10 bf 71 e3 9b bd
       0.9610175 -1.8722928 -0.5626051 -0.076117404
0002b0 86 e4 0b bf e2 05 81 be ec fd 08 bf 97 6c a1 bd
       -0.54645574 -0.251998 -0.53512454 -0.0788204
0002c0 5f 34 43 3f 01 99 91 bf cf 69 71 bf e2 3d 9a 3f
       0.76251787 -1.1374818 -0.94302076 1.2050135
0002d0 34 2e 78 bf f7 8d 24 bf 3d 9f 68 bf ba e2 91 3f
       -0.969455 -0.6427912 -0.9086798 1.1397316
0002e0 41 0d 55 3f 08 25 f4 be 26 a5 ae 3e ce 12 b5 3f
       0.8322335 -0.47684503 0.34110373 1.4146364
0002f0 5f a0 c5 bf 9b 77 7f bf c1 9e 83 3e e8 74 b3 3f
       -1.5439566 -0.9979188 0.25707057 1.4020052
000300 3d 6e 0b 3f 91 7e cc bf 06 46 c1 be 13 c7 00 be
       0.54465085 -1.5976125 -0.37748736 -0.12575941
000310 df 10 16 3f d6 52 c3 bf f4 1b 9f be 27 76 1b be
       0.58619493 -1.5259655 -0.31076014 -0.1518179
000320 e0 fb 51 3f 97 76 8c bf e5 b7 23 be 19 85 6c 3f
       0.82024956 -1.0973691 -0.15988119 0.9239059
000330 61 55 4e 3f fa 0b cf bf 89 85 68 be 5f e1 76 3f
       0.8059903 -1.617553 -0.2270719 0.9643764
000340 51 bc 5e 3f 2b e8 60 bf cc f2 f5 be 56 7f 2f 3f
       0.870061 -0.8785426 -0.48036802 0.68553674
000350 c3 cf 62 3f f0 a9 dc bf 9b 3b e0 be c8 8c 1e 3f
       0.8859827 -1.7239361 -0.43795475 0.61933565
000360 72 4a 9a 3e 34 9c 9a bf 67 39 ba 3d 6e 86 25 bf
       0.30134922 -1.207892 0.0909298 -0.6465825
000370 28 25 28 bf c4 96 be bf 1e 0c 1a 3e 2e bb 06 bf
       -0.65681696 -1.488976 0.15043685 -0.52629364
000380 79 b2 f5 3e e6 c4 98 bf 92 9f 1e 3e b7 1b 78 3d
       0.47987726 -1.1935089 0.15490559 0.060573306
000390 06 0a 50 bf b4 8b d8 bf ce 04 56 3e b7 02 c0 ba
       -0.81265295 -1.6917634 0.2090027 -0.0014649247
0003a0 d7 8b 0f 3f 91 f9 7a bf 67 85 84 be 15 a3 9f 3f
       0.56072754 -0.9803706 -0.25883028 1.2471644
0003b0 21 f5 53 bf c2 ed df bf cc 4a 49 be db c4 98 3f
       -0.8279591 -1.7494433 -0.19657439 1.1935076
0003c0 61 87 50 bf 98 7e 56 3e 4e ab 9f be 07 ef 5f 3e
       -0.8145657 0.20946729 -0.31185383 0.21868525
0003d0 f6 2c fe 3f 9e 0a 9c 3f ca e0 96 be 16 6e 5e 3e
       1.9857471 1.219074 -0.29468375 0.21721682
0003e0 1d 02 55 bf 01 f6 12 3f ed b3 b6 be 12 09 5f bf
       -0.8320635 0.5740662 -0.35684147 -0.87123215
0003f0 ce da 4a 40 84 26 17 3f a9 27 c1 be 47 15 60 bf
       3.1696048 0.59043145 -0.3772557 -0.87532467

fc1.bias f4 [256]
000000 e2 53 7a 3e 08 0d 85 bf d3 fa a0 be 63 7e 90 bf
       0.24446061 -1.0394602 -0.31441364 -1.128857
000010 60 ca 81 bf ca c0 85 3d e7 c2 93 bf ce c6 95 be
       -1.0139885 0.06530912 -1.1543854 -0.29253238
000020 b2 a4 26 bf 7a ee 9f bf 1e 44 19 bf 67 08 47 bf
       -0.65095055 -1.2494652 -0.59869564 -0.77747196
000030 76 e0 8d 3d 4c b6 63 bf 7e 4e 38 be e2 62 19 bf
       0.06927578 -0.8895004 -0.17998692 -0.5991651
000040 83 3b 71 bf dc 13 72 bf d1 04 81 bf 01 d5 b4 be
       -0.9423143 -0.94561553 -1.0079595 -0.3531876
000050 e1 e0 35 bf 2a 72 a5 3e 43 4a 11 bf e6 f3 b1 bf
       -0.7104626 0.32313663 -0.5675394 -1.3902557
000060 a7 ae 2e bf 7a 9b 2e bf 4d 07 12 bf 23 87 2f bf
       -0.6823525 -0.6820599 -0.5704239 -0.6856558
000070 92 f7 9b bf 57 08 36 be 96 83 9b bf 39 87 70 bf
       -1.2184927 -0.17776619 -1.2149532 -0.93956333
000080 9c 57 34 be 5c 03 20 bf ea de 3a bf 3e bb a8 bf
       -0.17611545 -0.62505126 -0.7299639 -1.3182142
000090 64 67 1e bf 4d e6 7f bf 0f 69 a4 bf ac 4b 9a bf
       -0.6187651 -0.99960786 -1.2844561 -1.2054343
0000a0 9a 4c 09 bf 95 dd 1a bf 33 ed 4b bf 5a d5 8e bf
       -0.5363251 -0.6049436 -0.7965881 -1.115886
0000b0 fe ca 9e bf 12 7e 10 bf d3 42 11 bf 5b c5 a2 bf
       -1.2405698 -0.5644237 -0.5674259 -1.2716478
0000c0 6a 52 7f bf d7 f7 c1 3d 6b 46 a4 bf 6b 2c 53 bf
       -0.9973513 0.094711 -1.283399 -0.8248965
0000d0 c1 21 87 bc 6c 1c 1b bf 96 9a 91 bf ca 5f 47 bf
       -0.016495587 -0.60590243 -1.1375301 -0.7788054
0000e0 03 bd 86 bf a9 ff 1a bf 45 f0 bf be 54 4c 18 bf
       -1.0526432 -0.60546356 -0.37488 -0.5949147
0000f0 0e 96 91 3e 22 b0 17 3e 3f cb 4b 3f 87 16 97 be
       0.28434795 0.14813283 0.79607004 -0.29509374
000100 df 50 f3 be d9 b4 3d bf 66 2f 94 bf 83 6c 06 bf
       -0.47522637 -0.74104077 -1.1576965 -0.52509326
000110 ce aa a6 bf 4d bb 85 bf 4f f3 5c 3e 50 20 32 bf
       -1.3020875 -1.0447785 0.2157719 -0.69580555
000120 7c 8f 94 bf 85 aa b2 be b7 63 dd be 7a ad 0e 3e
       -1.1606288 -0.3489572 -0.4324014 0.13933364
000130 4c 89 e2 bf 75 48 8d bf 9e f8 8c bf 43 a7 76 bf
       -1.769815 -1.1037737 -1.1013372 -0.9634897
000140 6b b1 3b bf 83 86 8f bf bc 67 3e 3f 1a b2 64 bf
       -0.73317593 -1.1212925 0.74377036 -0.8933426
000150 90 f6 1b bf 0d 96 85 bf 1d 22 56 bf b1 d1 75 bf
       -0.609231 -1.0436417 -0.836458 -0.9602309
000160 22 bd 6a bf b9 e7 1f bf 55 21 93 bf 9c a7 27 bf
       -0.91694844 -0.62462956 -1.1494547 -0.65490127
000170 19 ef 28 bf 6b 00 5d bf 4f 5e 25 bf cc 08 02 3c
       -0.65989834 -0.8632876 -0.6459703 0.007936668
000180 38 15 51 bf 21 11 80 bf e3 cd bd bf be 43 b9 bf
       -0.81673 -1.0005227 -1.4828457 -1.4473798
000190 b8 aa 32 bf df bf ae bf f8 65 22 3f cc d1 d8 be
       -0.69791746 -1.3652304 0.6343684 -0.42347562
0001a0 78 8e 89 bf 74 32 7b bf 49 a7 98 bf d8 54 89 3f
       -1.0746603 -0.9812386 -1.1926051 1.0729017
0001b0 6b aa 78 bf 05 de 30 bf a8 8c a6 bf 1c d8 3c bf
       -0.9713504 -0.69088775 -1.3011675 -0.73767257
0001c0 5c 37 b5 bf 83 ed 0a bf 7d b9 a2 bf bf fb 89 bf
       -1.4157519 -0.54268664 -1.2712857 -1.0779952
0001d0 ae b2 a5 bf 8b e7 7a 40 cd 0f 6a 3f 3a b7 31 bf
       -1.2945154 3.9203823 0.9143036 -0.69420207
0001e0 b8 43 20 bf 66 25 1c bf 97 06 ee be a3 20 c4 bf
       -0.6260333 -0.60994565 -0.46489403 -1.532246
0001f0 f4 ca 77 be 46 02 62 bf 65 de 97 bf c2 ae 18 bf
       -0.24198514 -0.8828472 -1.1864744 -0.5964166
000200 51 8a 16 bf 4f 48 ac bf 70 3d 6c bf 7b 3c 4c be
       -0.58804804 -1.3459567 -0.92281246 -0.19944946
000210 26 f9 f9 be 16 d9 e7 40 7b 02 ca be 11 a2 f4 be
       -0.48822898 7.2452497 -0.39455017 -0.47779897
000220 9f a0 38 bf ee 79 65 bf fd b2 0d 3f 38 e4 b4 3e
       -0.7212009 -0.89639175 0.5535124 0.35330367
000230 5c 9c 0c 3f 5c 21 92 bf 47 fa 56 bf cc d6 63 bf
       0.54926085 -1.141643 -0.8397564 -0.8899963
000240 16 ee 1b bf f7 8f 9d bf 7b 8e 4a bf 18 74 06 bf
       -0.60910165 -1.230956 -0.7912366 -0.52520895
000250 1f 3f 89 bf bc 36 82 bf 1f a9 38 bf 77 58 85 bf
       -1.0722388 -1.0172954 -0.7213306 -1.0417622
000260 32 62 38 bf 2a 3a 8f bf b4 ef ac be 67 db 63 bf
       -0.72024834 -1.1189625 -0.3377663 -0.89006656
000270 f0 e5 21 bf 7a d2 36 bf 6b 3a 97 bf de 58 85 be
       -0.6324148 -0.7141491 -1.1814703 -0.26044363
000280 6e db 3f bf b1 37 9b bf 51 3d f3 3e e9 e6 98 bf
       -0.749442 -1.2126371 0.47507718 -1.1945468
000290 56 0a f8 bd 61 be bc bf 43 1e 77 bf 36 9e 9a bf
       -0.121113464 -1.4745599 -0.9653055 -1.2079532
0002a0 3b 21 af bf 67 f1 72 bf f6 3e 49 bf f0 5f 7f bf
       -1.3682016 -0.948996 -0.78611696 -0.99755764
0002b0 fa 1d 2f bf b4 81 32 bf c4 09 90 bf 8a 82 a0 3d
       -0.68405116 -0.6972916 -1.125298 0.07837398
0002c0 6c d3 6f bf 88 28 d4 be 09 d8 06 3e b5 30 05 be
       -0.9368198 -0.41437173 0.13168348 -0.13006862
0002d0 c3 00 79 bf 5e 9a 90 bf f9 bf a1 be 48 d6 49 bf
       -0.9726679 -1.1297109 -0.31591776 -0.7884259
0002e0 74 c2 bc be 23 ea 54 bf 6c 20 5c bf aa 7d 54 bf
       -0.36867106 -0.83169764 -0.8598697 -0.8300425
0002f0 6e 31 90 bf d2 e8 6a bf a3 4c 7c bf ba fd 20 40
       -1.1265085 -0.91761506 -0.9855444 2.5154862
000300 0f c0 67 bf 78 2b ed be a7 87 5b bf ae ef 1f bf
       -0.90527433 -0.46322227 -0.85753864 -0.624751
000310 c1 c0 a5 bf 96 59 34 bf d6 01 1a 3f 47 c2 75 bf
       -1.2949449 -0.704492 0.6015905 -0.9599957
000320 0b 3f 81 bf 00 4c af be dd c7 11 bf 18 8d 8f bf
       -1.0097364 -0.3423767 -0.5694559 -1.1214933
000330 28 ff 32 bf cf 1a 4c bf 4e 78 8c bf 38 24 04 bf
       -0.6992059 -0.79728407 -1.0974214 -0.51617765
000340 97 2a 9c be 3f 84 40 bf c8 15 5f bf 19 f5 92 bf
       -0.30501243 -0.7520179 -0.8714261 -1.1481048
000350 46 2f ac bf de ec 08 bf e3 63 a9 be 44 ce a1 bf
       -1.3451927 -0.5348643 -0.3308402 -1.2641072
000360 07 b5 64 bf 2b b2 17 bf ed e8 17 3f c4 83 99 bf
       -0.89338726 -0.5925624 0.5933979 -1.1993337
000370 dd 5a 68 bf e7 c0 db be 7a 34 83 bf 61 1b 5c bf
       -0.90763646 -0.4292061 -1.025039 -0.85979277
000380 05 15 43 bf e3 2a 95 3d c1 74 b1 bf 84 c6 25 bf
       -0.7620395 0.072835706 -1.3863755 -0.64756036
000390 4b c9 22 bf 34 dd 32 bf 28 8a 4f bf d0 05 5c bf
       -0.635884 -0.6986878 -0.81070185 -0.8594637
0003a0 85 83 33 bf 65 94 83 bf e4 f2 6c bf 2b d3 46 bf
       -0.7012256 -1.0279661 -0.9255812 -0.77665967
0003b0 d0 66 85 bf 33 29 eb bd 6e fa 47 bf 08 7d 12 bf
       -1.0422001 -0.114824675 -0.781165 -0.5722203
0003c0 b5 60 43 bf 54 23 6e bf 8b f0 85 bf ca f1 84 be
       -0.7631944 -0.93022656 -1.0464033 -0.2596572
0003d0 56 11 9a bf 2c 87 b7 bf 7f b8 0b bf af 3c 7d be
       -1.203654 -1.4338126 -0.54578394 -0.2473018
0003e0 15 80 83 bf e5 3c 8a bf af 23 a7 bf c0 9b 8c bf
       -1.0273463 -1.0799834 -1.3057765 -1.0985031
0003f0 4f e9 ab bf 81 ce cb be bf 3d 3d bf 33 19 c3 bf
       -1.3430575 -0.39805987 -0.7392234 -1.5242065

fc2.weight f4 [128, 256]
000000 40 d3 37 bf be ab e7 be a9 41 06 3f 49 d8 d2 3d
       -0.71806717 -0.45248216 0.5244394 0.10295159
000010 f4 2a 21 bf fb 8a 2a bf 5d e7 13 be 43 93 21 bf
       -0.62956166 -0.6661832 -0.14443727 -0.6311533
000020 e5 5c c2 bd ab ad 6a 3f 98 b2 0b 3f 76 87 23 3f
       -0.094903745 0.91671246 0.5456939 0.6387857
000030 53 c9 3d bf 31 8d 62 be da 22 e9 3e ec a7 6e bf
       -0.7413532 -0.22124173 0.45534402 -0.9322498
000040 1c 40 6a 3f 85 2e 0f 3d dc 30 1e 3f b6 20 1d bf
       0.91504073 0.034956474 0.61793303 -0.6137804
000050 44 28 b4 be 54 8b 51 3e 47 ac 01 bf 6e 02 53 3f
       -0.3518697 0.20463306 -0.506535 0.8242558
000060 42 a7 d7 3e b6 6d 8c bf 29 05 25 3f ac 83 89 3f
       0.42119795 -1.0970981 0.64461 1.0743308
000070 f6 2a fc bd 1c 95 79 3f b0 0c cd be 3f bd 9b bd
       -0.12312882 0.9749315 -0.40048742 -0.07604455
000080 61 37 43 3f 9e 3f 93 3f 6a 23 35 be e3 3f 24 bf
       0.76256377 1.150379 -0.1768929 -0.64159983
000090 2e 8b ad 3f e7 3a 40 3f 10 f3 1c 3f fe 1d 4a 3f
       1.3558099 0.7508988 0.61308384 0.78952014
0000a0 f6 3f 04 3f 00 bb b7 3f ec 44 a6 be de 98 09 3f
       0.51660097 1.4353943 -0.32474458 0.5374888
0000b0 c1 d0 1a bd 48 01 f2 3e f9 2a 0a bf 8c 67 6e 3f
       -0.03779674 0.47266603 -0.5397182 0.9312675
0000c0 21 7e a3 bf 28 3d a2 3f c7 98 5d 3c 07 c7 08 bf
       -1.2772866 1.2674913 0.0135251945 -0.5342869
0000d0 31 32 4e bf 42 dc f7 be 52 69 7a be ef 9b 13 3f
       -0.80545336 -0.4841023 -0.24454239 0.5765981
0000e0 96 db ec 3e da 7f 66 3e 40 b0 9f be 9b be ad be
       0.4626128 0.22509709 -0.31189156 -0.33934483
0000f0 2f de 31 bd 7f 4b bc 3d eb 2a b2 be 36 78 8b be
       -0.04342478 0.09194087 -0.3479837 -0.2724015
000100 c4 53 66 bf 6e a5 0f bf ea 5f 4b 3d d9 2e 79 3f
       -0.89971566 -0.561118 0.049652018 0.9733711
000110 c8 ba 4d 3f 7e fe 3a 3e 99 cd 86 3d 79 ea 5a bf
       0.8036313 0.18261144 0.065821834 -0.85514027
000120 29 fc 8f bf ae d1 3b be 4b d5 1a 3f 8b 7f 57 bf
       -1.1248828 -0.18341705 0.6048171 -0.8417899
000130 17 ff a3 3f 13 9e bd 3e 82 53 1c bd 79 8f 1b be
       1.2812222 0.37034664 -0.038165577 -0.15191449
000140 a6 fb a9 3e 7e 70 c6 3d be c7 73 3f 52 d7 9b bf
       0.33199805 0.09689425 0.9522666 -1.2175086
000150 61 ce 36 3f 55 3d a1 3f b9 64 08 3f 3e d2 17 3d
       0.7140866 1.2596842 0.5327869 0.037065737
000160 60 cb 50 3e 57 2d 1c 3f fe e9 33 bf 4c 36 43 bf
       0.20390081 0.61006683 -0.7027892 -0.76254725
000170 1d 18 35 3f b9 87 4b bd 93 9a 7f be 9e 50 f1 3e
       0.7073992 -0.049689982 -0.24961309 0.4713182
000180 a4 20 e4 3e d7 4a d8 3e 6c 3a eb be da 21 0b bf
       0.44556153 0.42244598 -0.4594301 -0.5434853
000190 42 8d 88 3e fc f2 c8 3e 0f 7a 72 3e 97 7d bc 3e
       0.2667027 0.39247882 0.23679374 0.36814567
0001a0 33 d8 8f 3e bb b2 bb 3e 13 05 61 3d f9 56 48 bf
       0.28094634 0.36659798 0.05493648 -0.7825771
0001b0 8c c4 b8 bf 8e 82 b7 3e 03 66 57 3f a9 a7 96 be
       -1.4434981 0.35841793 0.8414003 -0.2942479
0001c0 a7 40 70 3e 7a 2e ef 3e 58 4e b6 3e c6 a9 81 bf
       0.23462163 0.46715146 0.35606647 -1.0129936
0001d0 d8 d6 28 3f 21 70 b0 be 80 19 8e bf 43 a4 2a 3f
       0.65952826 -0.34460548 -1.1101532 0.66656893
0001e0 e0 96 65 3e fd 73 ab 3e e5 c3 19 be de 57 5a 3e
       0.22420835 0.3348693 -0.15016134 0.21322581
0001f0 7d ca d9 3d 66 37 5e bf a1 72 ba be d8 a3 a2 3d
       0.10634325 -0.8680328 -0.3641558 0.07941407
000200 e8 67 dc be d5 88 33 3e d5 d2 21 3f 94 df ae 3e
       -0.43048024 0.17532666 0.6321233 0.34154952
000210 4e b3 16 be 5f 9b 5a bf a1 8e 11 bf 71 97 57 3e
       -0.14716837 -0.8539333 -0.5685826 0.21053864
000220 ca b6 d5 be 9e 6d 71 bd f3 a9 d8 bd fb 81 e6 be
       -0.4174102 -0.05894243 -0.1057929 -0.45021042
000230 7f 73 d9 be d6 64 57 bf 43 fd 8a bf 5d 32 07 3f
       -0.4247093 -0.8413824 -1.0858539 0.52811223
000240 5e 49 44 be 7d c5 35 be a9 ac 94 3f 4f ee a8 be
       -0.19168612 -0.17751117 1.1615192 -0.32994315
000250 bf b4 47 be 87 66 a0 be d7 45 99 3f 26 fb c1 3e
       -0.19502543 -0.31328222 1.1974438 0.37886924
000260 14 69 16 3f df 65 71 be a8 70 2d 3e d6 78 35 be
       0.58754086 -0.23574017 0.16937506 -0.17721877
000270 81 fb 4a bf 0b 45 80 bf 10 b7 eb 3e 0f 38 75 bd
       -0.79290015 -1.002107 0.46038103 -0.059867915
000280 c3 43 cd bc fa 8d bc be 64 0e e1 3e 2b c5 eb be
       -0.025056725 -0.3682707 0.43956292 -0.46048865
000290 2b fa d6 3f ff 4b ad 3e 84 48 e2 3e a0 65 d8 3e
       1.6795095 0.33847043 0.4419595 0.42265034
0002a0 dc 0a 04 3f 48 92 dc 3e e8 4e 6d 3e ce ab 02 3f
       0.5157907 0.43080354 0.23174632 0.51043403
0002b0 4f 60 72 3f 8a 75 1f be 5c f8 b4 3e 90 f9 29 bf
       0.94678205 -0.15572181 0.35345733 -0.6639643
0002c0 1d c0 ac bd f0 7b 79 be fe b3 01 bf 9c 23 1f bf
       -0.0843508 -0.24363685 -0.5066527 -0.6216371
0002d0 f8 13 16 bc 0d 94 21 3f f6 50 dc 3e e0 27 65 bf
       -0.009160034 0.6311653 0.43030518 -0.8951397
0002e0 26 b3 d0 bf 7e 95 fe 3e ae 88 fc 3d e2 29 23 ba
       -1.6304672 0.49723428 0.12330757 -0.00062241976
0002f0 6c 69 4e 3e ca 71 4e bf e4 65 d0 3d e7 de 8c bf
       0.20157403 -0.8064238 0.10175684 -1.1005524
000300 02 7b 61 bf c7 32 75 3f a4 62 2e 3f c6 6a 43 be
       -0.8807832 0.95780605 0.68119264 -0.190837
000310 04 04 8d 3f 88 ec 0b be 36 4d c7 3f 15 9e 74 be
       1.101685 -0.13664448 1.5570438 -0.23888429
000320 35 6e dd 3e bc 7e 37 3f 27 23 ec be 2d 1f dc 3f
       0.43248144 0.71677756 -0.4612057 1.7197014
000330 3a f9 2e 3e 94 a1 9e be be 59 df bf 0d a7 ce 3d
       0.1708726 -0.3098265 -1.7449262 0.10090456
000340 59 b8 e1 3e 4f fc 8e bf b3 41 23 3f 50 a8 68 3f
       0.4408596 -1.1170748 0.63772124 0.90881824
000350 76 bc ed 3d a3 41 a4 3f 61 f6 29 bf e1 17 2a be
       0.11608212 1.2832531 -0.6639157 -0.16610672
000360 cf 44 1b 3e a7 f8 87 3d 57 d2 31 3e d4 71 95 bf
       0.15162967 0.066392235 0.17365395 -1.1675363
000370 38 52 4a 3e 08 73 b2 bd fc 1d 76 bf c5 3d 9f bf
       0.19757926 -0.08713347 -0.961395 -1.2440726
000380 f1 97 bd be 44 b2 bb 3c 67 b4 40 3e 21 9c 09 c0
       -0.37029985 0.022912152 0.18818818 -2.1501544
000390 88 6b 07 be 8e d7 1b 3e 85 79 d3 bd 2b e0 58 bf
       -0.13224614 0.15218946 -0.103259124 -0.84717053
0003a0 db 72 2c be 4d 3b ca 3f 7c 2d 1f 3f a8 3d 12 3f
       -0.16840689 1.5799347 0.6217878 0.5712533
0003b0 95 72 36 bf fa 1d 30 be 48 bf a5 3e fd 47 b0 3d
       -0.7126859 -0.17198935 0.323725 0.08607481
0003c0 9e 63 02 3e f0 aa 37 bf df 25 49 3e c9 d2 e3 3e
       0.12733313 -0.71745205 0.19643353 0.44496754
0003d0 8a f9 e8 3e 6a 10 99 be 39 7e 29 3e 4f 84 56 3c
       0.45502883 -0.29895335 0.16552056 0.013093068
0003e0 10 88 02 bf f2 06 50 3f 4d bd bd bf 4e a9 da 3e
       -0.50988865 0.812606 -1.4823395 0.42707294
0003f0 04 90 05 c0 d9 5a cc 3e 06 67 79 be 7f aa 35 be
       -2.086915 0.3991306 -0.24355707 -0.1774082

fc2.bias f4 [128]
000000 21 6e 9a bf 7b be 41 bf 9f 0e be 3d 94 ad 24 bf
       -1.2064859 -0.75681275 0.092801325 -0.6432736
000010 ee cb 87 bf 83 03 c6 be b1 d8 52 be 2d 5c 63 be
       -1.0609109 -0.38674554 -0.20590474 -0.22203131
000020 67 d9 f8 be 65 f9 d1 be 00 8c 28 be 04 cb 37 be
       -0.48603365 -0.41010585 -0.16459656 -0.17948538
000030 4f fd 98 bf ac 37 e4 bf b7 ff a7 be 96 5e cc be
       -1.1952304 -1.782949 -0.32812282 -0.39915913
000040 56 7e 03 c0 fd 20 60 be bd 70 e1 3e 5e 3a c1 bd
       -2.054586 -0.21887584 0.44031325 -0.09434961
000050 15 09 bb bf fe 22 48 bf a6 b5 0d c0 23 43 a3 bf
       -1.4612147 -0.78178394 -2.214212 -1.2754864
000060 72 17 15 bf a3 c4 66 bd 42 ad 46 bd ac ba 05 be
       -0.582389 -0.05633987 -0.048505075 -0.13059491
000070 2e 46 39 bf 4d 5f 1d c0 1d cb 08 be 1c 61 82 bf
       -0.7237271 -2.4589417 -0.13358732 -1.0185885
000080 52 34 25 be 04 17 24 3d c9 22 68 bf a1 b6 9f be
       -0.1613324 0.040061012 -0.9067808 -0.31194022
000090 f3 a5 47 bf 7b d1 aa bf dd 63 92 be 15 25 54 bd
       -0.77987593 -1.3345178 -0.28591815 -0.051793177
0000a0 d3 fd eb bf 0a 67 ab bf c8 c0 3d bf 29 e3 88 be
       -1.8436836 -1.339082 -0.74122286 -0.2673581
0000b0 c9 29 9e 3d 43 76 dc bf 46 52 02 bf 76 08 92 bf
       0.07722814 -1.7223591 -0.5090679 -1.1408832
0000c0 78 59 4d bf 56 ee 1b be 9f 06 bd 3e 48 cd 66 3e
       -0.80214643 -0.15227637 0.36919114 0.22539246
0000d0 b1 30 3a bf 26 ef ca bf 42 67 8e bf b5 cd 94 be
       -0.7273055 -1.5854232 -1.1125262 -0.29063192
0000e0 cc 52 0f be 92 d6 61 bf e7 48 62 bf fd c9 72 bf
       -0.13996428 -0.88218033 -0.8839249 -0.9483946
0000f0 08 d7 fe bf 54 e9 94 be 12 5a a4 3d 84 3e 95 bd
       -1.9909372 -0.29084265 0.08024992 -0.072873145
000100 5e ca d4 bd 72 32 e0 be ca ad 15 bf cb a7 b0 bf
       -0.10390161 -0.43788487 -0.58468306 -1.3801206
000110 82 52 a8 bf 31 3f cf be 3a 31 ac bf 88 3f 7c bf
       -1.3150179 -0.404779 -1.3452523 -0.9853444
000120 58 2a 92 bf 14 37 4a be 82 d8 3d bf c6 36 89 be
       -1.1419172 -0.19747573 -0.7415849 -0.267996
000130 86 09 77 bd 6c 9b bd be 2a 10 a7 be fe b8 2e bf
       -0.060311817 -0.3703264 -0.3262952 -0.68251026
000140 5a 51 0a bf a5 14 3c bf e1 e7 cd bf df 01 5f bc
       -0.5403038 -0.73469 -1.6086389 -0.013611286
000150 1e 3c d8 bd 1b ce b0 be 14 02 ad bd 96 5e 13 bf
       -0.105583414 -0.34532246 -0.08447662 -0.575662
000160 3d bd f1 bf 5d 79 10 bf 5f 66 ac 3d 66 8d 51 be
       -1.8885876 -0.56435186 0.08417963 -0.20464095
000170 3e e3 06 be 02 41 b9 be cd 57 95 bf 8c b6 03 bf
       -0.13172624 -0.3618241 -1.166742 -0.5145042
000180 cb f8 b8 be 47 aa a9 3c 3d 1b ad bf e9 22 60 bd
       -0.36127314 0.020711077 -1.3523937 -0.054720793
000190 5d 82 97 bd 62 93 34 bf f9 a3 68 b6 48 0a 2f be
       -0.07397912 -0.7053739 -3.4666139e-06 -0.17093766
0001a0 15 0e 47 bf 5f 4e b7 bf 9b 91 28 3e e0 1f 02 bf
       -0.7775586 -1.4320792 0.16461794 -0.5082989
0001b0 e4 d9 63 bd 19 85 44 bf 6e 66 18 bf e5 b4 5a be
       -0.05562772 -0.7676559 -0.59531295 -0.21358068
0001c0 f5 03 68 bf 28 15 90 3f 9c f7 0e be c6 aa 38 c0
       -0.9063104 1.1256456 -0.13961643 -2.8854232
0001d0 5a 62 cd bd 3b 8b 3c bf c0 86 bc be 07 5b bc bd
       -0.10028525 -0.7364995 -0.36821556 -0.091970496
0001e0 84 ac 17 c0 59 a2 e5 be 1e 4a 3e bf 5a a3 9a bd
       -2.3699045 -0.44850424 -0.74331844 -0.07550688
0001f0 9d 5a 4d bf 52 f3 73 bf 61 9e 70 bf 19 9c bc bd
       -0.8021639 -0.9529315 -0.9399167 -0.09209461

fc3.weight f4 [2, 128]
000000 98 75 88 3d f0 88 12 bd d9 a3 74 be ba 73 96 bd
       0.06663054 -0.035775125 -0.23890628 -0.07346292
000010 e8 d7 1a be dc 87 2a be ba c6 28 3e 07 f3 38 3b
       -0.15121424 -0.16653389 0.16482058 0.0028221027
000020 70 5e b0 3d a9 c4 8b be 98 80 e6 3a 84 6f 12 bd
       0.086117625 -0.27298477 0.0017585931 -0.03575088
000030 73 10 d9 3d d1 e5 5b be 3f 72 91 3d 12 19 56 be
       0.105988406 -0.21474387 0.07101869 -0.20908001
000040 f5 84 18 bf 67 2e 25 bd 3a 85 2e 3f 09 75 66 3c
       -0.59577876 -0.040327456 0.6817204 0.014065989
000050 21 de 8f 3e f0 9d 6d bc 61 00 80 bf 06 d5 73 3e
       0.28099158 -0.014502987 -1.0000116 0.2381173
000060 c6 4d a8 bc 4c 1c 43 3d 68 2f 5f bb 0d a0 3b 3e
       -0.020544898 0.047634408 -0.0034055356 0.18322773
000070 fa 68 d0 3d 11 e1 93 bf 55 29 b2 3c 14 d9 37 bf
       0.10176273 -1.155306 0.021748224 -0.7181561
000080 55 18 fc bc 0d a7 04 40 30 72 5a 3e b7 f2 8c be
       -0.030773321 2.072696 0.21332622 -0.27528927
000090 d0 2c e8 3e ec f7 b1 bf db bb 2f be 28 0a fe bb
       0.4534669 -1.3903785 -0.17161505 -0.0077526756
0000a0 a0 ce a7 bf f6 6e d7 3d c3 83 5d bc 77 2a 66 bf
       -1.3109932 0.10519211 -0.013520184 -0.89908546
0000b0 43 43 39 3e 12 f3 38 bf 13 2b 4c 3e 00 31 e6 bc
       0.18092065 -0.72245896 0.19938307 -0.028099537
0000c0 25 6e 12 3d 65 63 92 bc 78 86 9a 3d 1d 26 43 3f
       0.035749573 -0.01786966 0.07545179 0.7623003
0000d0 01 f6 67 3f cb 49 6b bf 52 1d ac 3e 62 ac 89 be
       0.9060975 -0.91909474 0.3361612 -0.2688933
0000e0 76 0e 8e bc b8 32 0c 3c 4d 8a b9 3d b5 8c 36 be
       -0.01734088 0.008557014 0.09059582 -0.17827113
0000f0 ff 19 8c bf 4e a2 ce bd dc ea 9e bf c6 08 1b 3d
       -1.0945433 -0.10089551 -1.2415423 0.037850164
000100 71 9f 04 3d 53 68 ec 3d 6b 2b 39 be da 29 86 bd
       0.032378618 0.11543336 -0.18082969 -0.06550951
000110 71 2a 40 bf 6d ce 49 3c f3 ed fe 3e f4 f6 5f be
       -0.7506476 0.012317282 0.49790916 -0.21871549
000120 a8 bd 7d 3d 92 ef 43 3d 47 1a 29 3f cc 45 36 bd
       0.06194845 0.047835894 0.6605572 -0.044500157
000130 f9 e9 57 3a e1 ef 5a 3f 9a 8c 15 bf 96 ee cd 3e
       0.0008236464 0.85522276 -0.58417666 0.4022109
000140 49 3e 08 3f 0b 6d a9 3d c6 46 c6 bf 74 6b 19 3f
       0.5322004 0.082727514 -1.5490348 0.59929585
000150 d8 db 62 3d 54 77 83 3e d8 8c ba 3c bf 9d 3d bf
       0.05538544 0.25676978 0.022772238 -0.74068826
000160 48 62 54 bf 56 c7 39 3c d7 14 86 bf 36 47 14 be
       -0.82962465 0.011339029 -1.047511 -0.1448029
000170 7d f9 3b 3c 2b 55 0f 3f a7 a4 59 bf 9c 09 44 3b
       0.011473057 0.5598933 -0.85016865 0.0029912954
000180 8a 6f af bf 10 91 e0 bf 64 20 58 be 02 b6 c3 bc
       -1.3705914 -1.754427 -0.21106106 -0.023890499
000190 1d d1 64 bf 89 ac 78 bc ed bc 2a 3d 03 26 40 bb
       -0.8938158 -0.015177854 0.04168408 -0.0029319532
0001a0 53 cb a3 be 7a 02 a6 3e 81 64 02 3f 2b ad 8a 3e
       -0.31991062 0.32423764 0.50934607 0.27085242
0001b0 14 64 ad 3b 7e 4e c1 3d 5d f7 33 3f f7 82 26 b9
       0.0052914713 0.09438799 0.7029932 -0.00015879782
0001c0 38 8b 2d 3f 94 32 36 3f ad 0c ac 3e 18 82 33 bf
       0.67790556 0.71170926 0.3360342 -0.7012038
0001d0 e1 14 42 3d ba 40 a5 be d9 50 09 bf 24 31 02 bd
       0.047383193 -0.32275945 -0.5363899 -0.031785145
0001e0 92 d3 fb be a6 50 82 be 59 65 ff bd 60 9d 18 3d
       -0.49184853 -0.25452155 -0.124705024 0.03725946
0001f0 ee 2e d8 3d b4 ae 0d bc f2 3b 78 bf 5a 4e 09 bc
       0.10555826 -0.0086476095 -0.9696647 -0.008380497
000200 7b 41 50 bf e9 1b 04 bd 7a 5a 89 be 6c 79 63 bf
       -0.81349915 -0.03225318 -0.2682684 -0.8885715
000210 bf c8 03 bd 22 17 4e 3d a3 0f ed bb fd 4d a3 3d
       -0.03217387 0.05031503 -0.00723453 0.079738595
000220 1a 7e b4 3e c5 a0 21 3f ee 82 90 3d d3 6f 2a 3e
       0.35252458 0.6313594 0.07056223 0.1664422
000230 6a b6 91 3e bc 10 fe 3e 60 db 39 bb 8f 76 8d bd
       0.28459483 0.49622142 -0.0028359517 -0.06907379
000240 2e d5 f3 3e af 28 f3 3e 44 2f 12 3f 34 96 76 3d
       0.4762358 0.47491977 0.5710337 0.06020184
000250 78 9c ba 3f d9 73 8f bf 1d a3 9e 3d a9 7c 65 3f
       1.4579 -1.1207229 0.07745955 0.8964334
000260 85 b4 79 3f 7d 28 8e 3c 2e 0d cb bc 2f dc fb bf
       0.97541076 0.01735329 -0.024786558 -1.967657
000270 ef 25 6b 3e 8b 05 99 3e 32 6d 09 3c 51 d3 fc be
       0.2296369 0.2988704 0.008387851 -0.49379972
000280 f9 a4 20 3d 04 e1 8f 3f d3 1c fc be 74 f2 7b 3e
       0.03921983 1.1240544 -0.4924074 0.24604207
000290 0b f8 9e 3f ec 19 05 bf ea b4 fb bc a0 7a 29 3d
       1.2419447 -0.5199268 -0.030725915 0.04137671
0002a0 2d c5 0d 3f 2f 2b 23 3f 4c e8 8d 3e 20 f1 28 3f
       0.5537899 0.6373777 0.2771629 0.6599293
0002b0 fd fd 69 3e 59 c2 70 3f b7 5c 86 bc de a3 b3 3d
       0.22850795 0.9404655 -0.016401632 0.087714896
0002c0 36 30 8d 3f 6a 6e 33 bc 7a 68 5b 3e 34 13 82 3e
       1.1030338 -0.010951618 0.21426573 0.25405276
0002d0 ad 06 99 be f8 a6 bd be eb 65 2a be e4 0a 00 3e
       -0.29887906 -0.3704145 -0.16640441 0.12504154
0002e0 52 f6 c4 b9 29 31 ea be 62 00 96 be 65 8d 83 be
       -0.00037567556 -0.4574063 -0.29297167 -0.25693813
0002f0 31 31 62 be 47 a7 50 3e f9 b2 4e bf a1 48 5b bc
       -0.22089078 0.20376311 -0.8074184 -0.013384015
000300 08 84 0c bc 71 e5 6b be 7b 9e 2b bf b2 5a 22 bf
       -0.008576401 -0.23036744 -0.67038697 -0.6341964
000310 f4 3b 41 bf ee 19 e5 3e bc 37 26 3f 0d d5 c4 3e
       -0.75482106 0.44746345 0.64928794 0.38443795
000320 40 41 13 bf d2 e2 61 3f a3 56 fb be fc d2 9b 3d
       -0.5752144 0.88236725 -0.49089536 0.076086015
000330 c7 88 5d bd 42 4f 1e bf f2 f4 1b bd 92 74 f6 3d
       -0.05408552 -0.6183969 -0.038075395 0.12033953
000340 ce a0 93 be 15 0f ae bd e5 68 c8 3f 1d 18 58 be
       -0.28833622 -0.084989704 1.5657011 -0.21102948
000350 b0 3b 05 3d 83 74 76 bd da 56 2f 3c b6 93 21 3f
       0.032527626 -0.060169708 0.010701859 0.63116014
000360 c8 c3 37 3f 6f 86 73 3f 91 de 54 3f e0 f5 38 be
       0.71783113 0.95127004 0.8315211 -0.18062544
000370 24 ec ac 3b 4e 28 42 3f 9d 0d 97 be 87 9f 8a 3e
       0.0052771736 0.7584275 -0.29502574 0.27074835
000380 64 8a 8d c0 79 f9 ac 3f 7e 31 16 bf 56 c6 73 ba
       -4.4231434 1.3513633 -0.5866927 -0.0009299269
000390 35 4c 49 be 6a 55 93 bf 7f 51 02 bf d0 42 92 bb
       -0.19657977 -1.1510441 -0.50905603 -0.004463531
0003a0 c7 54 36 bf 18 3b 87 3e 28 21 1b 3f 88 84 b5 be
       -0.7122311 0.26412272 0.6059747 -0.35452676
0003b0 c3 97 cb 3c f3 aa 38 bf c2 c9 9e 3f ef a5 6c 3d
       0.024852639 -0.7213585 1.2405322 0.057775434
0003c0 80 f3 e0 3e fc 41 ca 3f ce 11 0f be 47 39 01 3f
       0.43935776 1.5801387 -0.13971636 0.50478023
0003d0 98 31 81 bb d1 a3 2f 3f ca fd d3 be 0a 7a 61 3c
       -0.0039426796 0.6860934 -0.41404563 0.013762007
0003e0 0a 86 90 3f 67 36 9a 3e a2 49 32 3f 54 23 7d bc
       1.1290905 0.3011963 0.69643605 -0.015450317
0003f0 1f 95 0e 40 27 ca a5 3f 28 c6 d5 3e c6 e1 b7 bc
       2.2278516 1.2952317 0.41752744 -0.022446524

fc3.bias f4 [2]
000000 18 e6 fc bd ed d0 ee bf
       -0.123485744 -1.8657509
