cp_actor1.pth (torch_old, 183824 bytes, 6 tensors)

fc1.weight f4 [256, 48]
00000000: fb3f 9e3e f825 09bf 28af 3e3f 7e8d ab3e
00000010: 2afe f53d 2467 a9bf 80fa 3f3f 6ede c63e
00000020: f1bc 0b3f 8e86 a7bd 88f4 afbe 0922 943f
00000030: accf 9b3e bc45 92bf 164d 90be f7be 9f3f
00000040: 63e2 2f3f 3d3f c83d 2589 8c3e 5ee7 e83f
00000050: 81a7 073f facf ccbe d145 a03e 4ee0 f13f
00000060: a0e7 883f c8f7 46c0 6701 b13f 839f c03f
00000070: ecbc fabd 4c2c b0bf 9523 bd3f 1d54 c13f
00000080: b3c5 943f 7fc9 40c0 9bf6 94be d9b6 d13f
00000090: 2205 a6be f00c 92bf 8ac8 a5be d9bb d73f
000000a0: b1bd 933f 382e 1dc0 b429 12be c401 aa3f
000000b0: cf4e 05bf 4640 cabe 50c8 c4bd e422 ae3f
000000c0: de3b 443f 6c61 c1bf e6db 253f 277b a5be
000000d0: a756 5fbd 9976 0bbf 0f4c 2e3f 8b3f 99be
000000e0: 6a0b 503f 5d50 f4bf 73c4 573d 16e1 973c
000000f0: 5881 c53d b5b7 07bf 0b46 113e 3338 6b3d
00000100: d3e1 3f3f 8fc6 d3bf ab39 863f f81f bf3f
00000110: 8beb 8b3d 12bf 43bf 1562 843f e662 b93f
00000120: 419f 813f d66f bbbf 37b8 803e 3fc4 28be
00000130: 89da e73b 42d6 0cbf 1b79 7d3e 1974 5bbe
00000140: 8f7d 163f 0a04 e1bf fd86 36bf 3685 533e
00000150: 6cef cfbd a768 23bf e567 3dbf 4a62 103e
00000160: 8f76 8a3f d89f dabf 4f36 a73f 3706 38be
00000170: cbb4 2fbe a467 3dbf 6426 9e3f 634d 0fbe
00000180: 1aac a43f d7c3 bbbf ead0 45bf 2049 a1be
00000190: 868d 82bf 9dd4 f83e ecee 4cbf e485 63be
000001a0: ed49 9b3f 29d0 94bf 1306 163f ce75 403f
000001b0: 9631 39bf f847 e03e 0b29 0e3f ae73 2b3f
000001c0: e2c4 373f 4000 8bbf 557b 6dbf 4141 113e
000001d0: dd71 2dbd a91b a43e d37f 71bf 2a6e 203e
000001e0: fc7b d83d 1aa4 d3be f805 bfbe d256 6fbf
000001f0: 55ff 7b3f 1b7e f83e c020 9cbe f355 75bf
00000200: 8cb4 473e 7b24 08bf 886f 01bf f751 1dbf
00000210: 3488 2d3f 60e7 e83e 0a3f e3be 2784 36bf
00000220: cda5 d03e a6af 13bf 757d 80be 4ab9 9c3f
00000230: b498 da3c d9b3 923e 30d6 13be 6ca9 983f
00000240: 3fe4 4f3d f673 9fbf fdac 84bf 313f a1bc
00000250: 965b e73e 9271 1abf 1b21 7dbf 56ca aebd
00000260: 303d 343e 5097 8fbf f8f9 9e3e 5443 913f
00000270: 3a3c bf3e 1ea0 eebe d27d 933e 2b2b 943f
00000280: 6036 ec3e b7b0 8fbf 9ca5 87bf 01be 453d
00000290: de6f e63d 2e14 55bf 0eb1 93bf 64d6 8d3d
000002a0: 633d 033e 4c3e 7ebf a16e 0cc0 02b6 bebf
000002b0: 3cdd 0cbf 8720 24bf 5dac 0ac0 9c0e bfbf
000002c0: 6b63 a43e 805a e3bf 1939 b73e ef1e 77bf
000002d0: 1aa1 afbe f9b5 02bf 75cd c83e ccea 83bf
000002e0: b28b cc3e 7d6d e6bf 50b5 babf d63a 91bf
000002f0: 7405 5abd 7cb1 38bf dc76 c5bf 08d9 92bf
00000300: c24e 753f 20af 82bf 3ea4 b3be 9c69 053e
00000310: 2222 403f 7f3c 43bf c078 91be a975 d53d
00000320: 13dc 4d3f 1639 82bf 19fb a9bd 3df5 97bf
00000330: f59e 4b3f 90bf fabe 3dca 19be 09c7 92bf
00000340: ec3b 4f3f 429a a1bf 636e 3abf 11f2 8cbf
00000350: 4392 0b3f 46a6 91be 9d92 2fbf 0d6b 95bf
00000360: e0e7 1d3f 7fa6 31bf 5f0b 0bc0 a817 aa3f
00000370: f235 52bf afc3 39bf 713c 07c0 f87d b93f
00000380: 6239 353f 76a3 64bf 2a0b 243f 528f 4f3f
00000390: a553 4dbf 4b60 10bf 60e4 313f 44ae 3f3f
000003a0: e168 383f c858 45bf 9302 11bf 00e9 9d3f
000003b0: a66e f9be 66b6 9ebe a212 01bf a80b 973f
000003c0: 2786 6d3f f73c 6e3e 49a9 003f 1503 403f
000003d0: 54a1 b63e 8d8a cbbf 570e 053f f9a2 3f3f
000003e0: 5228 213f b7bb 8a3e dae3 6d3f e091 8d3f
000003f0: 37f9 393f 59c3 f0bf caa9 683f c80b 8d3f
0.30908188 -0.5357356 0.7448602 0.33506387 0.120113686 -1.3234601 0.7499161 0.38841575
0.54585177 -0.08179961 -0.3436625 1.1572887 0.3043188 -1.1427531 -0.28183812 1.2480153
0.68704814 0.09777687 0.27448383 1.8195608 0.52989966 -0.40002424 0.31303266 1.8896577
1.0695686 -3.1088734 1.3828553 1.5048679 -0.12243065 -1.3763518 1.4776484 1.5103794
1.1622833 -3.0122983 -0.29094395 1.6383926 -0.3242579 -1.1410198 -0.32379562 1.6854202
1.1542264 -2.455946 -0.14273721 1.3281789 -0.5207338 -0.39502162 -0.09608519 1.3604398
0.7665385 -1.5107856 0.64788663 -0.3232052 -0.054525997 -0.5447784 0.68084806 -0.29931292
0.81267416 -1.9087025 0.052677583 0.018539947 0.09643811 -0.5301469 0.14186876 0.057426643
0.74953955 -1.654497 1.0486349 1.4931631 0.06832036 -0.76463425 1.0342432 1.4483306
1.0126725 -1.4643505 0.25140545 -0.16481112 0.007075612 -0.5501443 0.2475323 -0.21431006
0.5878534 -1.7579358 -0.71299726 0.20656285 -0.10153088 -0.6383156 -0.73986655 0.14099994
1.0817431 -1.708003 1.3063449 -0.17971121 -0.17158811 -0.7398627 1.2355466 -0.13994364
1.2865021 -1.466914 -0.772719 -0.31501102 -1.019944 0.4859971 -0.80052066 -0.22219044
1.2131935 -1.1626025 0.5860302 0.75179756 -0.7234129 0.43804908 0.55531377 0.6697339
0.71784794 -1.0859451 -0.92766315 0.14185049 -0.042344917 0.32052353 -0.9433567 0.15667024
0.10570523 -0.41336137 -0.3730924 -0.9349185 0.9843648 0.4853371 -0.30493736 -0.95834273
0.19502467 -0.53180665 -0.5056081 -0.61453193 0.67785954 0.45489025 -0.44384032 -0.712954
0.40751496 -0.57689893 -0.25095716 1.2244046 0.026684143 0.28652838 -0.14437175 1.1926703
0.05075478 -1.2457263 -1.0365292 -0.019683452 0.45187062 -0.60329545 -0.9887864 -0.08534686
0.17601466 -1.1218052 0.31050086 1.1348672 0.37350637 -0.46606535 0.2880693 1.1575674
0.46135235 -1.1225804 -1.0597415 0.048276905 0.11251806 -0.83233917 -1.1538408 0.069256574
0.12816386 -0.9931381 -2.1942523 -1.4899294 -0.55025077 -0.6411213 -2.1667702 -1.4926333
0.321071 -1.7761993 0.3578575 -0.96531576 -0.34302598 -0.5105892 0.3921925 -1.0306029
0.3995033 -1.8002163 -1.4586582 -1.134608 -0.053227857 -0.7214582 -1.5426898 -1.1472483
0.958233 -1.0209694 -0.35086244 0.13028568 0.7505208 -0.76264185 -0.28412437 0.104228325
0.8041393 -1.0173671 -0.08299846 -1.1871716 0.79539424 -0.48974276 -0.15018554 -1.1466991
0.8095081 -1.2625201 -0.72824687 -1.1011373 0.5452005 -0.2844717 -0.6858309 -1.1673294
0.6168194 -0.6939468 -2.172569 1.3288469 -0.82113564 -0.72564214 -2.113064 1.4491568
0.70790684 -0.8931192 0.64079535 0.81078064 -0.80205756 -0.5639693 0.694891 0.74875283
0.7203503 -0.77088594 -0.5664455 1.2336731 -0.4871723 -0.30998534 -0.50419056 1.1800432
0.92782825 0.23265444 0.5025831 0.750047 0.3566996 -1.5901657 0.51975006 0.7485805
0.6295215 0.2709634 0.929258 1.1060143 0.72645897 -1.8809615 0.9088408 1.101922

fc1.bias f4 [256]
00000000: 13bc 3dbf 04ce 2abf d2d6 f5bd 7bef 26bf
00000010: 7ff3 55bf 8312 16bf 8c0c 8ebe 7a09 b33f
00000020: fea0 773d 30cd 823e cdc8 abbe 5540 92bd
00000030: 9c03 debe eba4 3cbf 1175 22bf d923 6a3f
00000040: 0390 afbe 292a 65bf a5d0 84bf 3792 123b
00000050: 6976 bdbe 9654 5d3e 0291 4abf 5dc7 80bf
00000060: a9a8 043f 4a76 d23e 5c68 79bf aa52 38bf
00000070: 38d6 8b3f 55fd 8fbe eb20 05bf 2090 a8be
00000080: 3199 83bf 6b67 77bf b7a0 a33e 177b 90bf
00000090: a1b5 bbbf 6ee0 8abf 75ec ce3e 5b31 9fbf
000000a0: 3244 17bf 4b53 77bf 38df febe c1f5 71bf
000000b0: 90e4 15bf d084 23bf d0d7 7fbf 1072 0ebf
000000c0: 23af 26bd 9df5 3dbf 86ac 4bbf e0fb 83be
000000d0: fdb4 7ebf 1f7d 9abe 64bd e23e 1b03 9bbf
000000e0: 30f6 b7be 0918 d8bf 443c 5ebf 93a8 b6bd
000000f0: b069 b1bf 1a0e 5bbe 9e05 84bf 6c65 a3bd
00000100: 03af cbbe 5cea 39bf d987 8f3f e389 08bf
00000110: dd1e 51bf 5cf4 b1bf a348 763d 9c05 0bbf
00000120: 3484 48be cdd7 1d3f 712c 40bf 2432 85bf
00000130: 58ff 1f3f 2091 4cbf 1053 563e 5ccf cb3f
00000140: 45f9 8ebe 1dab e63e 9a18 bfbe 1019 85bf
00000150: e91f 2f3d c6ba 80bf 8193 88be fec0 e9be
00000160: 8916 9e40 0f6a 623e baef 293d 2ed3 dcbd
00000170: 2f00 d8be 6c51 b73e 50cc 71be d1ed 1fbf
00000180: 759a 303e 7457 2e40 1c5d f0be 541c 81bf
00000190: b6b7 53bf 2ac6 9cbf 9a8a 07bf d3ba 64bf
000001a0: 4653 48bf 54b7 63bf 2ee8 92bf 10a8 86bf
000001b0: fb6a 91bf 614b 2cbf 332b 93bf c1ac 023f
000001c0: 3406 e1be bdf5 23be cb71 a1bf 912f 80bf
000001d0: 66d3 fcbe 0985 6ebf 1c36 47bf 6574 943e
000001e0: a29b 42bf 035a 82bf ff33 10bf 7a08 4fbf
000001f0: 7b39 2bbf 71a5 21bf 0b00 32bf 2496 16bf
00000200: a5fa 1ebf 2336 073e d30f 51bf e6f9 88be
00000210: 8a97 21be 5903 5fbf 0da9 003e 927c 64bf
00000220: 13d1 6abf 19ad 8ebe b351 2bbf 92ad a5be
00000230: bc2f 3abf 2c58 8abf beef 833e c5ed 2ebf
00000240: c7e5 123f bbb4 acbe 9f0c 5a3d b13a 1dbf
00000250: 43c2 85bf bfc5 f8bd 9172 d33e a56c 6abf
00000260: daa0 3abe d778 87bf a5f9 54bf 243e f0be
00000270: 184c 26bf 0e78 9dbe 34ef 8dbf f7af f13a
00000280: 3cad e8be de93 10bf 37ba 3fbe 9291 7ebf
00000290: 7805 203d a97c f43d 52a7 2040 b09d 51bf
000002a0: 3d57 b73e 2bbd 73bf 7eb3 5abf 9346 38bf
000002b0: f0aa 8e3d e7b9 4dbf fde5 65bf c2e6 edbe
000002c0: 9735 fbbe 0ae5 003f e7c6 80bf 5a39 753e
000002d0: 9e90 083f 07a6 78be d7d1 ae3d 9169 19bf
000002e0: f0f2 b2bf 8015 59be 5592 07be dd06 0cbe
000002f0: e8ac 13bf da12 b6bf 975f 8c3f f547 e6be
00000300: 0d05 0abf 93dd ea3d 9601 82be 5445 00bf
00000310: 6daa 68bf f715 343f 3261 72bf a44c 5fbf
00000320: 0b23 40bf 45c9 94be 7e21 113f d06e 83bf
00000330: 5691 da3e ae04 86bf 1f46 29bf b69c e9be
00000340: dc58 09be 2fb2 11bd 539a 86bf f382 a8bf
00000350: 6996 513f 7c71 68bf f62a 0fbf 8792 b3bd
00000360: 2ba2 b53d fbd1 b5be 538a bebf 9b53 2cbf
00000370: eb19 8b3b cb3b 923e 1a9e 9cbe 8001 87bf
00000380: d01e 74bf 2069 7ebf 51b4 cbbf d2cd b9be
00000390: 8ed1 e6be 11c7 673e 2a04 973f 1ae7 87bf
000003a0: 4704 bebf 7669 2fbf 9b05 38be 7c02 9ebf
000003b0: 06ab eabe 14a4 05bf 9f91 74bf dfe9 fabe
000003c0: d8b3 3cbe 290b 42bf 1fd3 f1be c385 cbbc
000003d0: 1038 503f 601a 4dbe cb76 2a3e 378c 25be
000003e0: 4710 99bf cffd d9be 469d 8fbf 22ea d2be
000003f0: cbce 83be d603 1abf f92a 35bf b8db 12bf
-0.74115103 -0.66720605 -0.12003864 -0.6520917 -0.8357467 -0.58621997 -0.27743948 1.3987267
0.06045627 0.2554717 -0.33551636 -0.071411766 -0.4336213 -0.73689145 -0.6345988 0.9146095
-0.3428956 -0.89517456 -1.0376173 0.0022364983 -0.37004402 0.21614298 -0.79127514 -1.0060841
0.51819855 0.41105872 -0.97424865 -0.72001135 1.0924749 -0.28122965 -0.52003354 -0.3292246
-1.0281125 -0.9664218 0.31958553 -1.1287564 -1.4664804 -1.084974 0.40414777 -1.2436937
-0.5908843 -0.9661147 -0.49779677 -0.94515616 -0.58551884 -0.6387453 -0.9993868 -0.55642796
-0.040694367 -0.742029 -0.79560125 -0.25778103 -0.99494916 -0.30173585 0.4428512 -1.2110323
-0.35930014 -1.6882335 -0.8681071 -0.08918872 -1.3860378 -0.21392098 -1.0314214 -0.07978329
-0.3978196 -0.7262323 1.1213332 -0.533354 -0.8168772 -1.3902698 0.060127866 -0.54305434
-0.19581681 0.6165741 -0.7506781 -1.0405927 0.62499 -0.79908943 0.20930123 1.5922656
-0.27924553 0.45052424 -0.37323457 -1.0398273 0.04275504 -1.0056999 -0.26675037 -0.45655054
4.940251 0.2211077 0.041488387 -0.10782467 -0.4218764 0.35804307 -0.23613095 -0.62472254
0.1724642 2.7240877 -0.46946037 -1.008677 -0.82702196 -1.2247975 -0.52945864 -0.8934757
-0.78252065 -0.8895161 -1.1477106 -1.0520039 -1.1360773 -0.6730252 -1.1497558 0.5104485
-0.43950045 -0.1601171 -1.2612852 -1.0014516 -0.49380034 -0.93171746 -0.7781694 0.28995052
-0.76018727 -1.0183719 -0.5632934 -0.8087231 -0.66884583 -0.6314307 -0.69531316 -0.58822846
-0.62101203 0.13204245 -0.8166477 -0.26753157 -0.15780464 -0.87114483 0.12564488 -0.8925258
-0.9172527 -0.27866438 -0.6692154 -0.32358986 -0.72729087 -1.0808158 0.25768846 -0.6833156
0.5738186 -0.33731636 0.053234693 -0.6141768 -1.0449909 -0.12147092 0.41298345 -0.9157203
-0.18225423 -1.0583752 -0.8319343 -0.4692241 -0.6495986 -0.30755657 -1.1088624 0.0018439282
-0.45444667 -0.5647563 -0.18723379 -0.9944087 0.039067715 0.119378395 2.5102124 -0.8188124
0.35808745 -0.9521052 -0.85430133 -0.7198269 0.069661975 -0.8036179 -0.8980406 -0.46465117
-0.49064323 0.50349486 -1.00607 0.23947659 0.5334567 -0.24282084 0.085361175 -0.59926707
-1.3980389 -0.21199608 -0.13239415 -0.13674493 -0.5768571 -1.4224503 1.0966672 -0.44976774
-0.53913957 0.11468043 -0.25391835 -0.50105786 -0.9088505 0.70346016 -0.9467956 -0.8722632
-0.7505347 -0.29059806 0.5669173 -1.0268192 0.42689008 -1.0470178 -0.6612262 -0.45627373
-0.13412803 -0.03557032 -1.0515846 -1.3164963 0.8187013 -0.90798163 -0.5592493 -0.08768182
0.08868822 -0.35511765 -1.4885963 -0.6731507 0.004245033 0.28561243 -0.30589372 -1.0547333
-0.95359516 -0.9937916 -1.5914403 -0.3628984 -0.45081753 0.22634532 1.1798146 -1.0617402
-1.4845055 -0.68520296 -0.17970888 -1.2344508 -0.45833606 -0.5220349 -0.955347 -0.49006554
-0.1842798 -0.7579828 -0.47231385 -0.024844056 0.81335545 -0.20029593 0.16646878 -0.16166769
-1.1958092 -0.42576453 -1.1219871 -0.41194254 -0.25743708 -0.60162103 -0.70768696 -0.57366514

fc2.weight f4 [128, 256]
00000000: 7e77 0dc0 a3f4 06bd bd4c 573e 31db 443e
00000010: 0150 3c3e 2dc3 60bf c4b7 893f 9042 b7be
00000020: 806e 653e d3b8 dc3e cb52 d83e 42bf 48be
00000030: fb49 6a3f 0fbb 353f 479d 1fbf 5929 1b3f
00000040: 65e3 403e 18eb b73e 2d3b bfbe 4ee9 6f3f
00000050: 925e 193f 99d2 8640 50cb b43d 0647 df3d
00000060: 9a38 113f 3569 903f b58c 313e 0b55 ea3f
00000070: 27de bcbe f577 b6be 0517 3c3f ff36 96be
00000080: f830 3f3e 6128 293f cfb7 6d3e 3da8 243f
00000090: 3564 043f 90d0 a33f 276b f53f 181d 6e3f
000000a0: b747 e3be 604b e93d 7dfe 0240 176f b13e
000000b0: 1808 633f 121c 73be a6a0 1b3f 606f 43be
000000c0: 0bab 9cbf ef2f 89bd fffe c03e 91c0 f03e
000000d0: 9b49 9dbe bbcb af3f 0ac9 2abf 25af afbe
000000e0: 3ca8 00bf d6c4 143f b689 cd3d e714 973d
000000f0: 1738 b9be 87c2 653f 95d8 9f3e 374b 85bf
00000100: 7228 8cbe b90d ad3f 7bb4 25bf a2f2 ba3e
00000110: 4b7f 8b3f b7f2 8d3e bcc0 19bf d005 463f
00000120: f364 09bf a21c 1bbf 06d8 a0be ca40 f13d
00000130: 2ef9 f13f e264 98bc cab1 153f 9ef5 0bbf
00000140: f232 7ebf 8449 37bf 88fe a5bf 91da 0ebe
00000150: 15e2 03bf c739 a73c 7ae1 fb3e 8f80 68bf
00000160: 610d ba3e 90cd 1040 d60b 903e 0359 97bf
00000170: 9dd7 823f 8bd2 39c0 ba30 3540 cdc0 1ac0
00000180: 5e24 c9bf 29fb 073f d03a 053f 057d bc3e
00000190: cb93 47bf bcdc 3e3f 45bf 9e3e 99e5 58be
000001a0: ea65 3ebf f144 efbe bb6d b73e 90df 1fbd
000001b0: 4560 f33e d3c4 4cbf 6786 d5be b687 c5bf
000001c0: b6c6 2d3e c245 9cbd c7f0 a93d ba67 783f
000001d0: 4091 6bbf 8320 033f 8102 0fbf d549 ddbf
000001e0: e4ab 4e3f 9147 d1bd 9de9 0fbf e8d3 973f
000001f0: 532a b13f c419 a73f 1b2a 1e3f e982 303f
00000200: 76bb 37bf a112 7a3f 7395 ab3d bf8f a4be
00000210: 357e 443f c9fe 7c3f 3741 2140 1f1d ad3e
00000220: 0d5b c63f 41f1 583f ad19 b5bd b8ef 1dbe
00000230: c724 0140 fefc 2a3f a215 1b3f 4ef2 69bf
00000240: 84b9 81bf 7d00 09bf 3c2a 0540 5f41 07be
00000250: c149 0abf 689b 013f 7b97 3440 6f81 24be
00000260: fde8 7fbe f3f0 38bf 74bc e63e 7017 17bf
00000270: e8b3 143f 9754 aabf 00e1 5ebf b0f6 7a3f
00000280: 84d0 fa3f aae1 163e 471e fe3f 6374 18bf
00000290: ace0 3440 b932 c73f 019f e13e 71a2 93bd
000002a0: 4fe5 68be 78f4 e33d e0c5 81bd 8b93 3ebf
000002b0: 425b 52bf 1acc 18bf 7721 51bd 2f76 983f
000002c0: 1566 ad3f 75ff 633f 20cc 9f3e e9ae 103f
000002d0: 5275 82bf 9c87 883f f0d5 dabe 8b23 903e
000002e0: 6c32 e53e 9daf 0740 d6e8 e4bf 61c1 8c3f
000002f0: 1cbd 443f b49a 44be 1270 1b3f 1e54 b03d
00000300: 4f60 6ebf 96a5 f73f 74d7 363f 6592 d8be
00000310: 8b90 553f 6316 8a3f ea90 343f 93fd 1b40
00000320: d5aa 5dbe 6c94 5240 2804 4abe c750 2d3c
00000330: 57bb 6ebe 214f b73e 308d da3f 3d3b 2abf
00000340: 947f 5340 58c9 f53d 3774 293e 5d06 64be
00000350: 406b 3b3f 0fb7 3ebf 26c2 c43d 3d97 273f
00000360: 63ad 73bf a2a1 073f b4ad b13e 8e59 05bd
00000370: 88d6 863e 10c0 6b3f 2f28 203f 9a2b 973e
00000380: e1a2 283e 0c7a e43e 9dbd e0bf 257c 2cbf
00000390: 5379 963f e116 b43f 7492 ca3e ec48 ad3f
000003a0: aac9 6fb9 1db7 a8bf a84b a9bc 71b1 90be
000003b0: 8626 943f 2ad6 713f bd32 8bbf 5811 f63f
000003c0: 709e ae3f 9f1e bb3f def5 2bbf a00b aa3d
000003d0: c8e2 5e3e 6863 b33f 12c0 543f 0b06 e73f
000003e0: dbc7 aa3e b239 e53e 66ba 083f b824 fd3e
000003f0: eaa8 373f fd6a a7be 17e0 983e b553 c2bf
-2.2104182 -0.032948148 0.21025367 0.1922424 0.18389894 -0.87797815 1.0759206 -0.3579297
0.22405434 0.4310976 0.42250666 -0.19604209 0.91519135 0.70988554 -0.6234936 0.60609967
0.18836744 0.3592155 -0.37349835 0.9371537 0.5990993 4.2132077 0.08827841 0.109022185
0.5672699 1.1282107 0.17338832 1.8307203 -0.3688824 -0.35638395 0.73472625 -0.29338834
0.18671024 0.6607724 0.23214649 0.6431921 0.51715404 1.2798023 1.9173325 0.93013144
-0.44390652 0.1139133 2.0467827 0.34655067 0.88684225 -0.23741177 0.60792005 -0.19085455
-1.2239698 -0.06698596 0.37694547 0.47021917 -0.3072022 1.3734049 -0.6671301 -0.34313312
-0.50256705 0.5811285 0.10036032 0.07377034 -0.36175606 0.8974995 0.31219926 -1.0413579
-0.27374607 1.3519813 -0.64728516 0.3651324 1.0898222 0.2772424 -0.60059714 0.7735262
-0.5366966 -0.60590565 -0.31414813 0.11779936 1.8904169 -0.018602792 0.5847441 -0.5467166
-0.99296486 -0.7159655 -1.2968302 -0.13950564 -0.5151685 0.020413293 0.49195462 -0.90821165
0.36338332 2.2625465 0.2813403 -1.1824039 1.022205 -2.9034755 2.831099 -2.4180176
-1.5714223 0.53117615 0.52042866 0.36814132 -0.7795989 0.74555564 0.31005302 -0.21181335
-0.7437426 -0.46732286 0.35825905 -0.039031565 0.47534385 -0.7998783 -0.41704103 -1.5432041
0.16970333 -0.07630493 0.08297878 0.97033274 -0.9201851 0.51221484 -0.55863196 -1.7288157
0.80731034 -0.10218728 -0.5621584 1.1861544 1.3841041 1.3054738 0.61783 0.68949753
-0.7177042 0.97684675 0.083781146 -0.3214092 0.76755077 0.9882627 2.5196054 0.3381128
1.5496536 0.84743124 -0.08842788 -0.15423477 2.0178697 0.66792285 0.60579884 -0.9138535
-1.013474 -0.5351637 2.0807028 -0.13208531 -0.5401879 0.50627756 2.8217456 -0.16065
-0.24991222 -0.7224266 0.45065653 -0.5902014 0.58087015 -1.3307065 -0.8706207 0.98032665
1.9594884 0.14734522 1.985299 -0.5955259 2.826213 1.5562354 0.44066623 -0.072087176
-0.22743724 0.11130613 -0.0633657 -0.7444388 -0.821705 -0.59686434 -0.051057305 1.1911067
1.3546778 0.8906167 0.31210423 0.5651689 -1.0192053 1.0666385 -0.42741346 0.28152117
0.4476503 2.1200936 -1.7883556 1.0996515 0.7685106 -0.1919964 0.6071788 0.08609794
-0.93115705 1.9347408 0.71422505 -0.4229919 0.8342368 1.0788082 0.7053362 2.437352
-0.21647198 3.290309 -0.19728148 0.010578341 -0.23313652 0.35802558 1.7074337 -0.6649664
3.3046618 0.12001294 0.16548239 -0.22268052 0.73210526 -0.74498075 0.096073434 0.65465146
-0.9518644 0.5298101 0.34702837 -0.03255611 0.2633555 0.9208994 0.62561315 0.29525453
0.16468383 0.44624364 -1.7557865 -0.6737693 1.1755775 1.4069482 0.3956486 1.3537879
-0.00022867942 -1.3180882 -0.020665959 -0.28260377 1.1574256 0.94467413 -1.0874859 1.9224043
1.3642101 1.461872 -0.6717204 0.083029985 0.21766198 1.4014711 0.83105576 1.8048719
0.33355603 0.4477058 0.5340942 0.49442077 0.7174212 -0.32698813 0.29858467 -1.5181795

fc2.bias f4 [128]
00000000: 1c1a c53e c392 c7bd 0467 ebbf 0d57 c3bf
00000010: e165 d4bd 1f47 5fbf 1e23 123f 809a 27bf
00000020: 8a37 17be 924b 4fbe 729d 1cbe 6090 d23e
00000030: e89e e6be bf44 61bf 05ac 523e 1c12 30bf
00000040: fb99 1fbe e993 5dbe 1a92 1ebf d215 cbbd
00000050: fa84 8ebf cf8b 64bf 37e6 b0bf 88e6 acbf
00000060: 389a ecbe 7032 7ebd 32fa 2abf 865f b8be
00000070: 50de d5be 8b7d dfbd 954a 9dbd 082e 25bf
00000080: 401f 2cbe 2d3f 00be d922 36bf aa06 ebbe
00000090: 850e 71bf c698 26bd 7585 9fbf b49d 05bd
000000a0: cd82 f6be e3c6 a3bf e001 a33f 0788 02be
000000b0: c275 06bf d4b0 c43c 9508 03bf 11df 80be
000000c0: 1a60 3ebf b6fa 0cbf 2cf7 b3bf 135a d9be
000000d0: 4b21 aabf 075e 7dbf 05f7 96bf c3c5 efbf
000000e0: 0b5d 1bbf 9634 8bbc 2373 a2be ebd6 36bf
000000f0: bf21 04c0 04c6 27be 19a8 223f 7687 68bf
00000100: afee 4ebe 178c 9abe 5dbe 56bf 536a b9be
00000110: 2386 673f d950 083d bca8 903f 3320 b4bf
00000120: 7b48 8bbd 0d2c 8cbf e00b 68bf bb86 d6be
00000130: 2721 f8bf 906c b2be 1e0c 8abf 0b99 4fbe
00000140: 4770 3ebe 4493 20bf d9f4 03be 3629 afbf
00000150: f1c1 b0bf d25f 20bf cf6f b2be f060 45bf
00000160: 3c10 cebe 5c35 26bf 1cb2 c5bf b0d5 4dbd
00000170: 88b5 95bf 534c 89bf d9fc 363f b8c8 7bbe
00000180: 595d ccbf 927a fdbe 6a92 b0bd a2d8 f3be
00000190: bf4b d6bf 9e26 0bc0 b044 c3be bca7 183e
000001a0: f1a3 bdbd f15f 87bf a063 fdbe bcc1 4a3f
000001b0: 52f7 393e 6f55 f7be 2b52 c6be 0024 30be
000001c0: 3cff b4bd fe8c 66be ab63 05bd cac1 8d3d
000001d0: 9d9a abbf 421f 06be 2838 bebf 32a0 acbd
000001e0: 0ab8 c4bf ad30 ccbd 4021 03bf 0729 9cbf
000001f0: 86b7 cfbf 83e0 f6be 08f9 07bf 6738 75bb
0.38496482 -0.097447895 -1.8390813 -1.5260941 -0.10370994 -0.872179 0.57084835 -0.65470123
-0.1476728 -0.20243672 -0.15294436 0.41125774 -0.4504311 -0.87995523 0.20573433 -0.6877763
-0.15586083 -0.21638454 -0.61941683 -0.09916271 -1.1134331 -0.8927583 -1.3820256 -1.3507853
-0.4621141 -0.06205982 -0.6678802 -0.3601038 -0.41771173 -0.10912617 -0.07680241 -0.64523363
-0.16808796 -0.125241 -0.71146923 -0.45903522 -0.9416278 -0.04067304 -1.2462603 -0.0326211
-0.48146668 -1.279507 1.2734947 -0.12747203 -0.52523434 0.0240101 -0.5118497 -0.25170186
-0.7436539 -0.55070055 -1.4059806 -0.42451534 -1.329141 -0.989716 -1.1794134 -1.8732227
-0.6068885 -0.016992848 -0.31728467 -0.7142169 -2.0645597 -0.1638413 0.63537747 -0.90831697
-0.20208238 -0.30185005 -0.8388422 -0.3621393 0.9043905 0.033280227 1.1301494 -1.4072326
-0.06800934 -1.0950943 -0.9064312 -0.41899666 -1.9385117 -0.34848452 -1.0784948 -0.20273225
-0.18597518 -0.6272471 -0.1288637 -1.3684452 -1.3809186 -0.6264621 -0.34850928 -0.7710104
-0.4024676 -0.6492517 -1.544498 -0.050252616 -1.1696024 -1.0726417 0.71479565 -0.24588287
-1.5965987 -0.49507576 -0.08621676 -0.47626215 -1.6741866 -2.174232 -0.38138342 0.14907736
-0.09259785 -1.0576154 -0.4949007 0.79201865 0.18160751 -0.48307368 -0.38734564 -0.17201233
-0.088377446 -0.22514722 -0.032565754 0.06921728 -1.3406559 -0.13097861 -1.4860888 -0.08428992
-1.5368664 -0.09970222 -0.5122261 -1.220002 -1.6227882 -0.48218164 -0.53114367 -0.0037417652

fc3.weight f4 [2, 128]
00000000: aeed bcbf db5f bc3d 0e99 35be a1dc 763e
00000010: f8ec 17bf 563a 3ebf 8ab5 4e3f be58 3c3e
00000020: 0c8c ddbb d33c 00bb cb40 21bc face dd3f
00000030: 99e2 7bbe d136 333e d303 99bf 7646 de3d
00000040: eea9 fd3d 388a 0d3e f40a 3fbf 6773 95bb
00000050: 4e98 883d d055 1cbf 00a7 323e 904f 39bf
00000060: b204 8d3e 05a4 733c 32f2 7bbe 60d9 73bc
00000070: 2478 51bb e254 bd3b 7d3e 713c c471 26be
00000080: ab61 91bd 3cc8 23bf c3a0 69bf 178a 063f
00000090: 87df dd3e f6b3 77bb df35 53be 2e0e 903a
000000a0: c226 2dbe 9961 ec3e d43c 7abf 3cf4 e2ba
000000b0: 7eb3 18bf b891 6ebf fcf4 5f3e 6df4 0d3e
000000c0: dd14 513e fce5 9b3c bd5f 5d3b 6741 923c
000000d0: ac1f cebd ea1d b73e 6a64 a33e 74c3 1e3d
000000e0: 00d0 d6bb bd6b eebc be63 49be 9d84 0b3f
000000f0: 5679 ae3e 65c0 9e3d c159 16c0 ef0e 523e
00000100: 499b 34bb 8bdb 163e 4cbb b2bf 3072 423e
00000110: 4c3b ab3f 1dda 8abc 248b c13f c993 983e
00000120: 26e2 c9bc 7bfa 7fbb e443 59bf bc3f 54bd
00000130: 748f 543e 0760 4d3e 43d4 9cbd 7d59 243d
00000140: 7bbf 01bf 114b c83e 1c01 553c ef1c c63d
00000150: ed88 503e b1ef 823e ae83 24bf bdd2 343f
00000160: 0d92 5e3e 93d5 b63c d8b9 9c3e 9816 5dbc
00000170: 1c77 273f e572 27bf d5c9 84bf 2dbe 9bbf
00000180: c49a 523e 25aa 633e a63a 333d abad 95be
00000190: b1dc f73c d042 493f b375 edbf fd7a 303c
000001a0: 0a47 57bc b40e e1bd e247 5dbe 323e f3bf
000001b0: 69e3 5fbf 7b12 08bd 6592 583f 2869 8abe
000001c0: 726a ec3a 6650 2cbf b136 3f3e 0f61 79bf
000001d0: 8f44 a1bf d1e1 1a3e ea60 07bd ca79 173b
000001e0: 8df6 46bd acac 18bd 7c95 0abf 112c a03e
000001f0: e809 ba3d 114d 93be 537f d03e bf89 31bd
00000200: 78aa 4ebf 2854 923c bfef 0d3f de27 b2bf
00000210: 6815 cd3e 0e84 04c0 86c9 5f40 efaf 6bbf
00000220: a93a e33c b34c 0abe e21e a33f d808 403e
00000230: 05ed bbbe 2f94 633f 31f3 0bbd 6980 f2bd
00000240: c2af c3bc 5807 043f 4bee 69bf f79d afbc
00000250: 17ff 41bd c37e 8bbe 56fc a73c 2202 563f
00000260: d98b bf3d af5b 2c3c c32a 4ebf db1e 2abf
00000270: 80b9 22bf deeb 6ebd 1d4f 363b 69e5 833f
00000280: a51a be3f d7b3 8b3e 5d86 d23e 6f7d 463f
00000290: 5237 81be 2355 323f e93b 8abf b55a 25bd
000002a0: 5b8d d0bf 5a1b e6be 04da af3f 2ad7 10bc
000002b0: 2aed f2be a534 99bf 456d c7bf 0420 273f
000002c0: d7fd 10be a14f 95bf 4ae2 0fbe 8171 303f
000002d0: 61f1 e03f 1087 c13e 55f6 f9bc 707b 5fbe
000002e0: b64f ecbf fd3a 38bb e4f2 c7bf aa5c 91be
000002f0: 33c0 d53e 89ed 01be 5ff1 243e 3263 86bf
00000300: cbd8 3e3d ade8 c9be 3e45 0cc0 a1e0 ab3f
00000310: fd5f 353f d843 4fbc 49f2 a63f 67e8 df3e
00000320: 1509 8bbc fd4e 1a3e 2743 3a3e 792f e23e
00000330: 1aa4 6c3f 0464 74bd 263f 25be 0875 043f
00000340: 8515 913f c772 823e 163a 333c 2f59 98be
00000350: 665d 87bc 2708 d5bf 5bdf a0bf f91c 87bf
00000360: dcab 3ebe d07f d0be de61 4c3f f9b3 95bd
00000370: b8f5 7f3f 9d66 0abf 1884 bdbf 5a51 adbe
00000380: 7ca4 9d3f 8ca8 41bf 89bf 873f dd3f 1740
00000390: a0c6 be3f 67c8 6bbf 6264 0fc0 277e f0bd
000003a0: 3db0 0c3d 99af 9ebe df10 29bf 82e7 60bd
000003b0: 010b 423e 4ddc 06bf ee8e 113f 0695 8f3e
000003c0: 0b6b 70bc 9181 963f ee2d a23f adb2 48bf
000003d0: 7551 e3bf 9114 97be 66f5 f73f c100 5839
000003e0: df36 de3f 1d0b 91bb 97d5 bfbe 8144 f3be
000003f0: 9cfd 7fbd 1e32 07be 5a87 11bf 8559 3fbf
-1.4760034 0.091979705 -0.17734167 0.24107601 -0.5934596 -0.74307764 0.80745757 0.18393227
-0.0067610797 -0.0019567504 -0.009842108 1.7328789 -0.24598159 0.1750138 -1.1954292 0.10853283
0.12385927 0.13822258 -0.7462609 -0.004560876 0.06669675 -0.6106844 0.17446518 -0.7238703
0.27542645 0.014870648 -0.24604109 -0.014883369 -0.0031962479 0.005777941 0.014724371 -0.16254336
-0.07098707 -0.6397741 -0.9126093 0.5255446 0.433346 -0.0037796474 -0.20626019 0.0010990554
-0.16909316 0.4616821 -0.97749066 -0.0017315219 -0.59648883 -0.931911 0.21870798 0.13862772
0.20418115 0.019030564 0.0033778988 0.017853452 -0.10064635 0.3576501 0.31912547 0.038760617
-0.0065555573 -0.029104108 -0.19666955 0.54499227 0.34076947 0.0775154 -2.3492281 0.20513509
-0.0027558377 0.14732186 -1.3963408 0.18988872 1.3377471 -0.016949708 1.5120587 0.2980025
-0.024643969 -0.003905921 -0.8486922 -0.051818594 0.20757848 0.20056163 -0.07657673 0.040124405
-0.506828 0.3911977 0.013000753 0.096734874 0.20364733 0.25573495 -0.6426343 0.7063406
0.21735401 0.022318637 0.30610538 -0.013494156 0.6541612 -0.6540969 -1.0374094 -1.2167412
0.20566851 0.22232874 0.043757103 -0.2923406 0.030256601 0.7861757 -1.8551544 0.01077151
-0.013139496 -0.109891325 -0.21609452 -1.9003356 -0.87456375 -0.03322075 0.8459838 -0.27033353
0.0018037094 -0.6731018 0.18673207 -0.97413725 -1.2599047 0.15125205 -0.03305141 0.0023113363
-0.048574973 -0.037274048 -0.54134345 0.3128362 0.09083921 -0.28769735 0.4072214 -0.043344256
-0.80728865 0.017862394 0.5544395 -1.3918417 0.40055394 -2.07056 3.496675 -0.9206533
0.027737932 -0.13505821 1.27438 0.18753374 -0.3670427 0.88897985 -0.034167472 -0.118408985
-0.023887519 0.51573706 -0.9137923 -0.021437628 -0.047362413 -0.2724515 0.020506065 0.83597004
0.09352846 0.010519906 -0.80534 -0.6645333 -0.635643 -0.05833041 0.0027818151 1.0304385
1.4851881 0.27285644 0.41118136 0.77535146 -0.2523752 0.6966116 -1.0799533 -0.040369708
-1.6293138 -0.44942743 1.3738408 -0.008840362 -0.47446567 -1.1969191 -1.5580221 0.65283227
-0.14159332 -1.1664926 -0.14051166 0.68923193 1.7573663 0.37798357 -0.030512968 -0.21824431
-1.8461826 -0.0028111332 -1.5620999 -0.2839101 0.417482 -0.12688269 0.16107701 -1.0499022
0.04659347 -0.3943533 -2.1917262 1.3427926 0.7084959 -0.012650453 1.304269 0.43731996
-0.016972104 0.15069194 0.18189679 0.44176844 0.924379 -0.059665695 -0.1613737 0.51741076
1.1334692 0.25478193 0.010939142 -0.29755542 -0.016524028 -1.6643113 -1.2568163 -1.0555717
-0.18620247 -0.40722513 0.79836833 -0.07309718 0.9998431 -0.54062825 -1.4805937 -0.3385113
1.2315822 -0.7564781 1.0605327 2.363273 1.4904366 -0.92102665 -2.2405019 -0.11742812
0.03434776 -0.30993345 -0.6604137 -0.054908283 0.1894951 -0.526799 0.5685872 0.28043383
-0.0146739585 1.175829 1.2670267 -0.7839764 -1.7759234 -0.29507878 1.9371765 0.00020599646
1.7360495 -0.0044263736 -0.37467644 -0.47513202 -0.06249772 -0.13202712 -0.56847155 -0.7474597

fc3.bias f4 [2]
00000000: b5a9 d2bf 4ea8 2d40
-1.645804 2.7133975
