cp_critic0.pth (torch_old, 185358 bytes, 5 tensors)

fcs1.weight f4 [256, 48]
000000 e0 08 42 bf 06 62 8d 3f 74 f5 9a 3e c1 b8 1f 3d
       -0.7579479 1.1045539 0.3026539 0.038994554
000010 4e a4 2b bf e8 ec 1a bf 9c b0 92 3e 76 27 8e 3d
       -0.67047584 -0.6051774 0.28650367 0.0694112
000020 94 d8 ff 3c 77 c8 63 3f ed e5 8e be 27 ec f9 3d
       0.031231202 0.8897776 -0.27909794 0.122032456
000030 d9 76 4f bf a6 1c b7 bf af d1 30 be 79 7d ae 3d
       -0.8104072 -1.4305618 -0.17267488 0.08520026
000040 7b 5a 13 3f ce ff dc 3e 9c 1d 76 bd cf a1 a0 bf
       0.5755994 0.43163913 -0.06008683 -1.254938
000050 5b 6d 42 bf 29 4f 82 bf cd f9 a5 bc c9 19 ac bf
       -0.75948113 -1.0180408 -0.020260716 -1.3445369
000060 78 3b d3 3f 44 f4 9e bb 2c 2e 57 3c 50 6b e8 be
       1.6502523 -0.004850896 0.013133567 -0.45394373
000070 f4 aa 19 3f 30 42 2b bf 31 7c be bc 24 14 d7 be
       0.6002648 -0.6689787 -0.023252578 -0.42007554
000080 f4 7c f0 3f e9 79 c4 3e 70 86 aa be db b2 1f bf
       1.8788133 0.3837426 -0.33305693 -0.62382287
000090 fd ed 42 3f 3a c9 b3 bf 4c 46 b5 be ad 6f 11 bf
       0.7614439 -1.4045784 -0.35405195 -0.5681103
0000a0 ff 12 e5 3f a2 16 0a 3f 9b e1 ea bd 74 36 6c 3e
       1.7896422 0.53940785 -0.11468812 0.23067647
0000b0 cd 78 37 3f c1 73 82 bf a7 bd dc bd 1f 72 9d 3e
       0.716687 -1.0191575 -0.10778361 0.3075113
0000c0 fe d5 3c 3d e7 73 b6 3e e9 4f 80 3c 9d 84 96 bd
       0.046102516 0.356353 0.015663104 -0.07349513
0000d0 0b 09 01 40 1d 5f e8 3d d6 f4 86 bc 62 a6 7e ba
       2.016177 0.113462664 -0.016474169 -0.0009714124
0000e0 1c d3 bd 3d 1b f9 86 3f d8 06 03 3d 6d 20 25 3d
       0.092687815 1.0544771 0.03198895 0.040314127
0000f0 a5 59 e1 3e a4 ae 94 3f 93 66 c5 3c b3 8a 6e 3d
       0.44013706 1.1615796 0.024096763 0.058237743
000100 ee ef 9c 3c f6 87 24 c0 fe eb 66 3c f6 55 7d 3e
       0.019157376 -2.5707984 0.014094351 0.24739823
000110 e2 f2 1a c0 06 e7 f4 be 36 41 95 bb 5e 95 28 3e
       -2.4210744 -0.47832507 -0.004554893 0.16463229
000120 f1 80 fc 3d 1f 65 65 bf 2e 14 51 3c f8 b7 bc 3d
       0.12329281 -0.89607424 0.012761159 0.09214777
000130 49 3b 06 c0 28 2c 0c 3e 13 36 0a bd 2c 31 a7 3d
       -2.0973685 0.1368872 -0.033742975 0.08163676
000140 ea 12 e5 3d 5f 54 82 bf 56 5b 87 bc 80 a5 be bd
       0.11185248 -1.0181998 -0.016523045 -0.0930891
000150 0e 0c 00 bf e0 04 9a 3f 1f 0c ba 3c 6f 55 08 be
       -0.50018394 1.2032738 0.022710858 -0.1331384
000160 1b 1a b5 3e dc c3 82 bf de 98 fd 3b 57 91 39 be
       0.3537148 -1.0216022 0.0077391705 -0.18121849
000170 70 57 1b 40 66 a2 d4 be 7f b2 54 bc 13 bd 20 be
       2.4272118 -0.4153015 -0.01298201 -0.15697126
000180 16 dc b0 be ad 6f 8b 3f d8 24 2b be f8 f7 e6 3f
       -0.34542912 1.0893456 -0.16713274 1.8044424
000190 89 1c 18 be 66 14 6a c0 a8 95 39 be aa 0f f3 3f
       -0.14854635 -3.657495 -0.18123496 1.8989155
0001a0 26 b2 e6 3f 12 80 c3 3f 6f 27 c0 be ac 7f 79 3f
       1.8023117 1.5273459 -0.37530085 0.97460437
0001b0 27 00 13 3d 78 88 b7 bf 35 6b 8d be c8 08 74 3f
       0.035888817 -1.4338522 -0.27620855 0.953259
0001c0 54 5f 0c 40 67 bc b2 3f f4 ec 71 3e 31 72 07 3f
       2.1933184 1.3963746 0.23625547 0.5290862
0001d0 0d ba ef 3e f6 0c d5 be 65 31 a7 3e fa 7e 24 3f
       0.46821633 -0.4161145 0.32654873 0.6425625
0001e0 f4 fd 92 3f 3e 66 3a 40 4a 22 b5 bd 96 21 0a bf
       1.148375 2.9124904 -0.08844431 -0.539575
0001f0 10 30 1d 3e a0 2a 69 c0 c6 24 f5 bb e2 fd 1d bf
       0.15350366 -3.6432266 -0.0074811904 -0.6171552
000200 2d 00 74 3f f5 0c 1b 40 13 c2 94 3c 5a b3 24 3e
       0.9531277 2.4226658 0.018158948 0.16084042
000210 16 a0 33 bc 1c 17 ba bf 40 23 8c 3b 08 41 2d 3e
       -0.01096346 -1.4538302 0.004276663 0.16919339
000220 16 32 82 3f 57 fb 0e 40 95 59 7a bd 7e 6a 07 3f
       1.0171535 2.2340906 -0.06112059 0.5289687
000230 f9 34 e5 be c0 33 c2 be 35 e4 24 bd bc fb 17 3f
       -0.44766977 -0.37930107 -0.040256698 0.5936849
000240 ed 10 58 3e f7 fe 88 3e 34 26 17 3b d5 f6 b1 bc
       0.21100207 0.26757023 0.0023063542 -0.021724144
000250 4a 5f b5 bc ee b4 dd bc b2 84 0e bd 8c 3a 01 3b
       -0.022140164 -0.027063813 -0.034794517 0.0019718735
000260 93 d5 57 3e e4 45 6d 3e c7 d7 6b bd 9d 89 96 3d
       0.21077566 0.23171192 -0.05757883 0.073504664
000270 fb a2 83 bb 13 9b 8e bd 0f 3b d4 3a 97 26 22 bd
       -0.0040172315 -0.06963172 0.0016191917 -0.039587583
000280 e2 4f 05 3e 58 2a 84 3e 38 11 9f 3c b2 c8 40 bd
       0.13018754 0.25813556 0.01941739 -0.047066398
000290 68 19 ac 3c a4 c9 37 bd 8e a7 2a bd a7 74 d3 ba
       0.021008208 -0.044870034 -0.0416637 -0.0016132788
0002a0 5a 80 88 3e be 8e 29 3c ce df 03 bd bc a0 07 3d
       0.26660424 0.010348974 -0.03219586 0.033112273
0002b0 66 0f 2e bc ce ee f1 bd 02 93 53 3b a2 66 a8 3d
       -0.010623788 -0.118131265 0.0032283668 0.08222701
0002c0 d1 2e 4d 3e 1e 01 e3 bd dd de 31 3d 43 db f4 bc
       0.2003739 -0.110841975 0.04342543 -0.029889708
0002d0 93 80 b7 3b 07 c0 0f bd 6f 90 81 bd 3c 19 94 bd
       0.005600044 -0.03509524 -0.06326377 -0.072313756
0002e0 85 9e 90 3e 19 af d3 bd f9 84 cb bc 87 c6 9c 3d
       0.2824594 -0.103361316 -0.02484368 0.076550536
0002f0 2f 07 06 3c 9a 6e 86 bd cf 5a 1a bd 5c ce 71 3d
       0.008180424 -0.06564064 -0.037684258 0.05903469
000300 43 f6 d2 be d1 3e 39 3e 4e 9c a5 be 65 9c a4 be
       -0.41203508 0.18090369 -0.32345814 -0.3215057
000310 4b 94 11 3f ae 51 36 bf 02 22 cb be 3b 5d b1 be
       0.568669 -0.71218383 -0.39674383 -0.34641442
000320 47 e7 78 3f 82 06 1d 3f 47 0c 2b 3e f6 04 07 3f
       0.972279 0.61338055 0.16703902 0.52741945
000330 c9 dc 1f 3f 44 9e 44 bf ef 29 38 3e be c8 1d 3f
       0.62446266 -0.76803994 0.17984746 0.61634433
000340 c2 9c 38 3f 11 81 dc 3d 72 52 2a be 77 ab 1d bf
       0.72114193 0.10766805 -0.16633013 -0.6158976
000350 fb 3c f6 3d c9 13 17 bf 1e 34 fa bd 6f f5 1b bf
       0.1202335 -0.59014565 -0.12216972 -0.60921377
000360 67 04 e4 3e 7c 50 0e 3f 25 29 ec bc 71 31 3b 3f
       0.4453461 0.5559156 -0.028828213 0.73122317
000370 33 e4 16 bf 6a cd 25 bf 71 43 cc bc 11 e6 3e 3f
       -0.58941954 -0.6476656 -0.024934502 0.74569803
000380 2a 0f a2 3f 8e ae 81 3f 5c 0f b5 be 7c 5a cf be
       1.2660878 1.0131395 -0.3536328 -0.40498722
000390 3b 1a 0a bf 3e 60 5a bf d6 83 85 be e2 01 9d be
       -0.53946275 -0.85303104 -0.26077145 -0.306655
0003a0 11 2f de 3f e0 62 d2 3f 35 19 7b 3e 59 4d 2c 3e
       1.7358114 1.6436424 0.24521334 0.16826381
0003b0 56 ee c8 bd e3 1b 28 bf 8e 2b 9c 3e 3b 92 e1 3d
       -0.09811084 -0.6566755 0.3050198 0.110142194
0003c0 86 54 ba 3f 6d 0f 8d 3f cf 28 ec bd f8 64 00 bf
       1.4557045 1.1020333 -0.11531221 -0.50154066
0003d0 8e af 70 be 77 a7 9b 3e e5 ec d1 bd 74 f8 e6 be
       -0.23504469 0.30401203 -0.10250262 -0.4511143
0003e0 d8 26 e2 3f 65 80 c2 3f 43 b8 4b be a8 23 f5 be
       1.7668104 1.5195433 -0.19894509 -0.47878766
0003f0 4c 4d 93 bf d5 22 80 3f bd ea 3b be 6a 0f e5 be
       -1.1507964 1.001063 -0.18351264 -0.44738322

fcs1.bias f4 [256]
000000 86 b4 66 c0 61 73 48 bf a4 13 3d c0 66 44 7f be
       -3.6047683 -0.78301054 -2.9543238 -0.24928436
000010 4e ec 32 c0 b4 70 e4 bf 0c b2 cb bf 94 47 e1 bf
       -2.795673 -1.7846894 -1.591371 -1.7599969
000020 80 fe f2 bf 1e 46 d4 bb cb da 2f c0 23 49 94 bf
       -1.8983917 -0.006478085 -2.747729 -1.158482
000030 85 72 fe bd 89 2d 83 3f cc 5a b6 bf 42 8b dd bd
       -0.124241866 1.0248271 -1.4246459 -0.10817577
000040 f7 0b f9 bd 2d 29 89 be ef 28 41 c0 6d 61 29 3d
       -0.12160485 -0.26789227 -3.0181234 0.041352678
000050 ea ce 70 bd 33 0c 37 c0 3f 9e 14 bf be da 3b c0
       -0.05879108 -2.8601196 -0.58053964 -2.935226
000060 3b 2a 4b 3e 46 e7 0e c0 fa 60 a7 bc 27 ad f0 bf
       0.19840328 -2.2328658 -0.020431984 -1.8802842
000070 f6 7a 0c c0 6c 08 19 c0 c5 49 8d bf 5a e4 d4 bf
       -2.195005 -2.391139 -1.1038138 -1.6632187
000080 c0 ff a1 3e 42 39 0a c0 a3 ab 3d c0 0a 0a bb c0
       0.31640434 -2.1597447 -2.9636009 -5.8449755
000090 84 0d 78 bf ed f0 6b be 31 21 cd bf 6b 47 92 c0
       -0.96895623 -0.23041125 -1.6025754 -4.571218
0000a0 c8 48 1c 3f 87 f4 16 be 8c 8b 21 c0 c1 da 35 be
       0.61048555 -0.14741717 -2.5241423 -0.17759229
0000b0 72 5a 24 be 28 6e a0 bf 62 8b 80 bf 80 e6 4a c0
       -0.16050127 -1.2533617 -1.0042536 -3.1703186
0000c0 8d a8 6f 3c 19 88 26 c0 e2 ba e2 be 62 df 46 bf
       0.014627588 -2.6020567 -0.44283205 -0.77684605
0000d0 d8 b0 27 c0 ed 95 e2 be ca e9 0d be 57 f2 de be
       -2.6201687 -0.4425501 -0.13858715 -0.43544266
0000e0 68 67 a5 bf b9 50 43 be 58 bd 16 be 38 78 80 3f
       -1.2922182 -0.19073762 -0.14720666 1.0036688
0000f0 f9 2d 03 c0 f2 c1 67 bf b0 a1 8d bd 8e cc 2c c0
       -2.049681 -0.9053031 -0.06915605 -2.699985
000100 ac 75 95 be 0a 68 06 be 29 02 44 c0 7d 37 25 bf
       -0.2919134 -0.13125625 -3.0626318 -0.64537793
000110 29 51 21 c0 7a 9a 36 c0 a6 5f 06 c0 7d d2 02 bf
       -2.5205786 -2.8531785 -2.099588 -0.5110243
000120 ca b9 5c bf dd 2e 9d c0 1f 91 56 c0 75 79 6e be
       -0.8622099 -4.9119706 -3.3526075 -0.2328852
000130 4c c2 61 c0 d9 78 74 bd 52 89 ad be 62 9b 72 bf
       -3.527484 -0.05968556 -0.3389383 -0.94768345
000140 3d 04 d8 bf 1f ea 19 c0 29 b6 20 c0 e6 c5 96 bf
       -1.6876293 -2.4049146 -2.5111182 -1.1779144
000150 3a 92 f9 bf 47 f1 cd bf 63 88 8c bf 3f 87 90 bd
       -1.949775 -1.6089257 -1.0979122 -0.07057046
000160 0d c5 2f be 26 50 aa 3c ca 0e 97 be 35 93 60 be
       -0.17165013 0.02079017 -0.2950347 -0.21931155
000170 3d 38 1f 3e 61 a1 b9 bc 18 9b 3a c0 34 fa f7 bd
       0.15548797 -0.02265996 -2.9157162 -0.12108269
000180 22 53 71 bf 22 cd e5 be 7f 61 3a c0 15 3e 08 c0
       -0.94267476 -0.44883066 -2.9122007 -2.1287892
000190 da 26 20 be 8f 37 c7 bf b0 cd ed bf c1 d7 20 c0
       -0.1563982 -1.556383 -1.8578396 -2.5131686
0001a0 fc 8a 25 bd 53 ad a0 bd 0e f2 d9 bf be 55 5c c0
       -0.04041575 -0.07845559 -1.7026994 -3.4427333
0001b0 e1 5a d1 bf ec 88 ce bd 6d 8b 62 c0 e5 c8 da bf
       -1.6355859 -0.100847095 -3.5397599 -1.7092558
0001c0 a3 3f c8 3f 1e b1 8c bf 8d 18 df bf 3c 9c ec bf
       1.564442 -1.0991552 -1.7429367 -1.8485179
0001d0 5e 32 b4 bf b8 9a 80 bd 88 0f fc bf 6b f9 c5 bf
       -1.4077871 -0.0627951 -1.969224 -1.5466741
0001e0 e7 a9 50 be a3 58 97 bf 65 1e 8c be f3 76 6c c0
       -0.20377313 -1.1823925 -0.2736694 -3.69476
0001f0 aa 01 78 c0 df 6c 80 3f f5 f3 57 c0 e7 99 cb bf
       -3.8751016 1.0033225 -3.374265 -1.5906342
000200 6a 54 be 3f 0a b6 dd bf 9a 56 40 bf 8f 1a 3f c0
       1.4869511 -1.7321179 -0.75132143 -2.985996
000210 fe 86 0a c0 ab 6f 18 c0 89 a5 2a bf f3 79 54 3d
       -2.1644893 -2.3818157 -0.66658837 0.051874112
000220 f3 d2 26 c0 07 f4 9b be ff 4d ee bf 23 94 3f bf
       -2.6066253 -0.30459616 -1.8617553 -0.74835414
000230 bd 34 f5 bf 34 40 0f bf c6 33 0c c0 89 77 4f bf
       -1.915672 -0.5595734 -2.19066 -0.8104177
000240 ac b4 42 c0 ef a7 3e c0 78 9c 1a c0 c8 01 8c bf
       -3.0422773 -2.9789999 -2.4158 -1.0938044
000250 29 64 8b c0 d0 d5 13 be 6f bc f5 3d dc 4f 08 c0
       -4.3559766 -0.14437032 0.119988315 -2.1298742
000260 e4 5e 9e bd eb 26 16 be da 8f 24 c0 a4 90 93 be
       -0.07732943 -0.14663284 -2.57128 -0.2882129
000270 18 49 1f be 03 cb 35 c0 e6 09 f6 bd 36 2f 1f c0
       -0.15555227 -2.8405159 -0.12013607 -2.4872565
000280 14 43 38 bf 69 2d 11 c0 5b 7b 2f be c2 ee 17 be
       -0.71977353 -2.2683966 -0.171369 -0.14837173
000290 d9 b4 89 be 08 2c fc bf 82 4a 5b c0 8e e0 a0 bf
       -0.26895788 -1.9700937 -3.4264226 -1.2568529
0002a0 76 69 9e bd 60 45 27 be 4e d3 3a c0 45 e3 be bf
       -0.07734959 -0.16335058 -2.919147 -1.4913107
0002b0 11 7a f1 3e 16 29 34 c0 e1 c6 9e bf 9f 70 35 c0
       0.47163442 -2.8150077 -1.2404443 -2.8349988
0002c0 a6 09 df bf 62 e1 97 be c1 bd 2b c0 0f 54 15 c0
       -1.742482 -0.2966414 -2.6834567 -2.3332555
0002d0 49 9f 2a 3f 27 77 c2 bf 17 2d a9 bf d7 6a 46 be
       0.666493 -1.5192612 -1.3216885 -0.19376694
0002e0 af bc b9 bf c7 b3 47 bf 2b 81 19 3e b0 0f 4b bd
       -1.4510707 -0.78008693 0.1499068 -0.049575508
0002f0 fd e4 09 40 1c 52 73 c0 b3 3d cf bf 1e 6d 6b c0
       2.1546013 -3.8018866 -1.6190704 -3.678535
000300 88 d1 1a be 92 4e f3 3c 50 63 16 c0 85 dc 0d c0
       -0.15118992 0.029700551 -2.3498116 -2.2165844
000310 f4 b5 98 c0 00 84 58 c0 95 79 55 40 6d 57 b6 bf
       -4.772211 -3.3830566 3.3355458 -1.424543
000320 43 f3 7f 3f 63 f1 cd bf 6a ae 59 c0 aa cd 27 c0
       0.9998056 -1.608929 -3.4012704 -2.6219277
000330 20 d3 cd be c0 e9 5a 3e ff 40 bf bf 37 2a 47 c0
       -0.40200138 0.21378231 -1.494171 -3.1119516
000340 00 5d bd bf ea 1d 41 3b 23 03 22 c0 ac 27 82 bf
       -1.4794006 0.0029467293 -2.5314415 -1.0168357
000350 83 ae 89 bf 9f eb b9 bf 04 82 d1 bd b0 6d 82 c0
       -1.0756382 -1.4525031 -0.10229877 -4.0758896
000360 9d 2b 30 bf b3 52 ef 3f 33 97 0b c0 fd 5b 40 c0
       -0.6881655 1.8697113 -2.1811035 -3.0056145
000370 04 f7 24 3e f6 42 af c0 92 e6 8e be 07 fc 5f c0
       0.16109854 -5.476924 -0.27910286 -3.4997575
000380 c0 00 12 c0 75 47 a7 be 3d 0e 84 bf b6 4c 10 c0
       -2.2812958 -0.32671705 -1.0316845 -2.254682
000390 a0 10 10 bf bb f0 4c be 02 b6 4a c0 c1 79 15 c0
       -0.5627537 -0.20013706 -3.1673589 -2.3355563
0003a0 60 60 10 be 10 0a f7 bf 08 56 69 bf 27 80 5a bf
       -0.14099264 -1.9299946 -0.911469 -0.85351795
0003b0 44 de 1d c0 a1 71 24 c0 43 8b 10 c0 7e 3f 80 bf
       -2.466691 -2.5694354 -2.2584999 -1.0019376
0003c0 7b 78 c0 bf c9 58 17 c0 a9 1b a2 bd 6b 33 db bf
       -1.5036768 -2.364794 -0.07915432 -1.7125067
0003d0 b2 73 09 c0 d0 c3 9d bf 44 c7 52 c0 9f 4c 51 c0
       -2.1476865 -1.2325382 -3.2934122 -3.2703016
0003e0 a6 85 ef bf 35 8c bb be d8 db 58 3f 3d 50 fe bf
       -1.8712661 -0.36630407 0.84710455 -1.9868237
0003f0 2d 12 f1 bf e0 0f 03 c0 26 b9 f4 bf 2b 6a 34 c0
       -1.8833672 -2.047844 -1.9119003 -2.81898

fc2.weight f4 [128, 260]
000000 6f f9 4c bd 12 2b ea bd e0 5d 1e 3d ed 9e 89 bd
       -0.050042566 -0.11433996 0.038663745 -0.06719766
000010 01 ec c3 bc b5 eb ed 3a f2 78 36 be 7f c1 03 be
       -0.023916246 0.0018151911 -0.17819574 -0.12866782
000020 22 17 5a bd b6 aa 77 bc 26 36 37 bb cc 1d 1e 3c
       -0.053244717 -0.015116384 -0.002795586 0.009650659
000030 2b 30 9b bc d0 d1 e1 3c eb de 3b bd a8 e0 00 3d
       -0.018943867 0.027565867 -0.045866888 0.03146425
000040 f3 a8 0c 3d 5f 56 23 3c d5 99 c0 bd 05 a9 33 bc
       0.03434081 0.009969323 -0.09404341 -0.01096559
000050 d0 84 b7 3c 6f 8b 2f bd 44 05 f0 bb 0c ca 49 3c
       0.022402197 -0.042857584 -0.0073248465 0.012316238
000060 75 ba 01 3d 2c db f8 bd 3f 5a 94 bd 5b dc 81 bc
       0.03167196 -0.12151179 -0.072437756 -0.015852144
000070 81 f4 a0 bd 00 69 0a bd 9f 12 50 3d 28 67 c7 bd
       -0.078591354 -0.033791542 0.05079901 -0.09736472
000080 d3 86 be bb 05 98 d8 bb df 68 39 be b8 ab 12 bd
       -0.005814412 -0.006609919 -0.18106411 -0.035808295
000090 e3 5e 14 3c ad 8d 28 3c 44 91 34 3d 0f 38 59 bc
       0.009055826 0.010287684 0.04408385 -0.013257994
0000a0 47 a0 0b be 1f 21 28 3c 6e 0a f3 bd 4c 62 17 be
       -0.1363536 0.010261803 -0.11867224 -0.14783591
0000b0 3c 6b de bc e8 97 5e 3d d3 2c af ba c1 2c 00 3d
       -0.027150743 0.054344088 -0.0013364799 0.03129268
0000c0 00 02 90 bd 31 cf 58 bd e4 b5 69 3d fc 99 3b bd
       -0.070316315 -0.052931968 0.05705823 -0.045801148
0000d0 5d 56 b5 bc 42 f1 2f bd a3 be 45 39 3a 59 e8 bd
       -0.022135908 -0.04295469 0.00018858402 -0.113451436
0000e0 21 cd 83 bd ad 56 d8 bc 11 d2 76 bd be 3e 4a bd
       -0.064356096 -0.026408518 -0.06025893 -0.049376242
0000f0 9f e0 a2 39 a6 43 0b bc 7e c5 08 be d5 9b 9e bc
       0.00031066404 -0.008500015 -0.13356587 -0.019361416
000100 50 96 58 3d 60 ab 35 bd cb 13 1f bc fc eb a2 bd
       0.052877724 -0.04435289 -0.009709309 -0.07955167
000110 32 61 40 bd 16 8d a5 bd fd ea 83 bd da 81 83 bd
       -0.046967693 -0.08083551 -0.06441305 -0.064212516
000120 12 77 52 3c ec 59 3d 3c 6f f4 91 bd fc 2f ba bc
       0.012845771 0.011557084 -0.071267 -0.022727959
000130 d9 89 02 be dd 1f b1 bc 7a fb c1 3b 45 d7 27 bd
       -0.12747897 -0.021621639 0.005919871 -0.04097678
000140 2c a2 de 3c 97 ba 2d bd 04 8b 35 bd 7f 86 ca bc
       0.027176939 -0.042414274 -0.04432203 -0.024722336
000150 f8 e0 1b be 89 1a 0e be 32 30 b0 3c a5 8d 0d bd
       -0.15222538 -0.1387731 0.021507356 -0.03455891
000160 13 84 e4 3c 79 36 42 3d ec c2 6c 3d f4 fc 4d bd
       0.02789501 0.04741523 0.05780308 -0.050290063
000170 32 56 e2 3b ab f1 46 3c 62 99 25 bd 4d 19 17 3d
       0.006907248 0.012142579 -0.04042948 0.036889363
000180 d6 a0 75 bd bf eb 67 bd 5e 79 69 ba e0 8c 65 bd
       -0.05996784 -0.05662131 -0.000890633 -0.056042552
000190 9d c0 fd bc a8 49 29 bd 75 7a 18 3c 4b f9 62 bd
       -0.030975634 -0.04133001 0.00930654 -0.055413526
0001a0 54 47 87 3c 88 22 d9 bd 62 e4 67 bd 5a cf b5 bc
       0.016513504 -0.106022894 -0.056614287 -0.0221936
0001b0 71 0d 8f bc 70 1e b6 bd b5 61 9f bd b0 7f 62 bd
       -0.017462464 -0.08892524 -0.07782308 -0.055297554
0001c0 ec f4 8d bd 54 fb 40 bd 9a 5f 85 3c 0e a5 c3 bd
       -0.06931481 -0.047114685 0.016280938 -0.09552966
0001d0 59 b9 4d 3d 57 f9 b1 3c 35 b9 7a bc 2e 0d b2 bd
       0.05022559 0.02172534 -0.015302946 -0.0869392
0001e0 b3 50 8d 3d 5e 9c e3 bd d6 3b ea 3c 5f bc c5 bd
       0.06900158 -0.11113809 0.028592985 -0.096550696
0001f0 ce ec 94 bd 71 a6 ba 3c da 35 54 3d 95 55 c0 bd
       -0.072717294 0.022784444 0.05180917 -0.093913235
000200 99 f8 2d bb 67 74 f8 bd 0d 23 82 bc 35 a7 b8 bd
       -0.002654588 -0.12131577 -0.015885854 -0.09016267
000210 77 f0 9a bc 13 73 f4 3b 13 f5 99 3c a8 07 33 bb
       -0.01891349 0.007460007 0.018793618 -0.0027317796
000220 2f 77 ee bd ca 21 5f 3c d1 85 06 3d bc 20 fc 3c
       -0.11643826 0.013618896 0.03284246 0.030777328
000230 b8 7f 23 bd 76 62 5f bd 83 e2 a9 3c 57 28 81 bd
       -0.039916724 -0.05453726 0.020737892 -0.06306522
000240 76 33 c0 bd 47 06 a7 ba cb 73 0c bd 34 40 69 bd
       -0.093848154 -0.001274296 -0.034290116 -0.056945994
000250 65 ec 0c 3d 7d 5f 84 3d cf cd 11 3d 04 32 99 bd
       0.03440513 0.064635254 0.035596665 -0.07480243
000260 cf 75 a8 bd af d4 17 bd 92 06 70 bc c4 3f a0 bd
       -0.08225595 -0.037068065 -0.014650004 -0.07824662
000270 4f 25 20 3d 8d 91 b8 bb d9 f2 e9 bc 4d a3 22 bd
       0.03909808 -0.0056325854 -0.028558182 -0.039706517
000280 80 5c 97 bd ce 6c 37 bc 1e 9c 90 bc 94 ad bf 3b
       -0.0739069 -0.011195375 -0.017652567 0.0058495495
000290 f3 17 07 3c 05 0e 39 3a 6a 0d 85 bd 17 7e 56 3d
       0.008245456 0.0007059279 -0.06496699 0.052366342
0002a0 76 c4 72 3d fb d4 70 3d eb 11 ff bc d0 3d aa 3d
       0.05926939 0.058796864 -0.031136474 0.08312571
0002b0 04 78 e4 bc f0 12 e1 3c 12 2f a2 3c 31 7b 91 3c
       -0.02788926 0.02747485 0.019797835 0.017758938
0002c0 c5 74 c5 bd ea 0f 22 bc 56 0a 04 3d 1f 70 6b bd
       -0.09641413 -0.0098914895 0.03223642 -0.057479974
0002d0 62 4d c6 bd f9 2a 00 3d ca 36 f8 bd 6d ab 47 bc
       -0.09682728 0.031290982 -0.12119825 -0.012186867
0002e0 c0 5a e4 3c 03 df a1 bd 0a cf e0 bd 96 01 88 bd
       0.027875304 -0.07903864 -0.109769896 -0.066409275
0002f0 09 6a a9 bd 94 d5 0d 3d 12 50 96 bc 7f 01 ac bd
       -0.08272178 0.034627512 -0.018348727 -0.08398723
000300 7f 06 c9 bc e9 b3 21 3c 4f 2e b2 bd 96 81 a3 bd
       -0.02453923 0.009869554 -0.08700239 -0.07983701
000310 1b d8 06 be 1a 94 b0 3c ae 18 0e be d4 42 a8 bd
       -0.13168375 0.021554995 -0.13876602 -0.082158715
000320 68 cc 90 bd c2 f5 df bd c6 b6 98 bd 21 4d b5 bb
       -0.070702374 -0.109355465 -0.07456736 -0.005532876
000330 ed fd 45 3b 09 49 31 bd 9c d9 f2 bc d5 79 fc 3c
       0.0030211166 -0.043282542 -0.02964478 0.030819813
000340 e9 ed b9 3c 9c 14 6f 3d 8c 3d 16 bd 30 f1 95 bb
       0.022696452 0.058369264 -0.03667979 -0.004575871
000350 89 22 b2 bb 39 a9 a5 bc 46 e4 75 bd 45 12 d5 bd
       -0.005436246 -0.020222293 -0.06003215 -0.10403875
000360 e8 d6 80 bd f4 e6 cf bd 63 35 01 3d 96 89 28 bc
       -0.0629099 -0.10151473 0.031545054 -0.010286709
000370 98 c3 92 bd bd 33 80 bc ba 51 2e bd d5 65 fa bd
       -0.07166213 -0.01564967 -0.04255841 -0.12226454
000380 c2 57 d1 bd 74 d8 0c bd 0b 81 03 be b6 6e e8 bc
       -0.102218166 -0.034386113 -0.12842195 -0.028373104
000390 56 6b 7f bd 26 99 90 bc 17 96 f7 bc 6f 7a d5 bc
       -0.062358223 -0.017651152 -0.030222936 -0.026059357
0003a0 1e 8d a6 3c d1 07 88 bd 16 97 b8 3c ae 75 b3 bc
       0.020330962 -0.06642116 0.02253298 -0.0219067
0003b0 80 d8 a3 bd e6 54 97 bd 5c 9f 0e bd b2 c1 17 3c
       -0.080002785 -0.0738924 -0.034819946 0.009262489
0003c0 10 16 c3 3c bf 68 99 bd 39 50 64 bd 9f 91 81 bc
       0.023814231 -0.07490682 -0.05574057 -0.015816508
0003d0 f9 21 1c 3d be 31 85 bb b2 49 b4 bc b9 04 a5 bd
       0.038118336 -0.0040647676 -0.022007797 -0.080575414
0003e0 83 2b e2 bd 9f a5 cc bd 24 1f 51 bd 8b ba 4d bd
       -0.110434555 -0.09992527 -0.05105509 -0.05022673
0003f0 45 be d8 3a 3f 14 78 3d ca dc 17 3c 7a 77 bb bd
       0.0016536197 0.060566183 0.009268949 -0.09153648

fc2.bias f4 [128]
000000 33 05 55 be be 99 2b be 75 9f 2b be 4f 3b 9d 3e
       -0.20802765 -0.16757867 -0.16760047 0.3070931
000010 94 c7 94 bf 60 e4 e4 bd 00 61 4c be 98 9f 4a be
       -1.1623406 -0.111763716 -0.19958878 -0.19787443
000020 57 68 f9 bd bc 38 6d be fc 0b 7f be 88 9c 84 3e
       -0.12178104 -0.23166174 -0.24906915 0.25900674
000030 26 2a 5e 3e f1 f5 98 be b6 e8 5b be ac 6d 56 be
       0.21695766 -0.29875138 -0.21475491 -0.20940274
000040 0e 4e 1e be 66 8d 76 be 81 e8 be be 18 7e 41 be
       -0.15459463 -0.24077377 -0.3728676 -0.18895757
000050 40 d5 66 be 03 a5 36 be b8 69 6d be 70 7a 3a be
       -0.22542286 -0.17836384 -0.2318486 -0.18210769
000060 d4 b3 30 be e1 aa 30 be 5c d7 dd be f5 c0 58 be
       -0.17256099 -0.17252685 -0.4332837 -0.21167357
000070 90 e2 42 be 94 22 07 be cf 5d 32 be d9 6c 33 be
       -0.19031739 -0.13196784 -0.17418598 -0.17521991
000080 7d be 22 be 56 30 0e be c9 d8 34 be 02 da 3b be
       -0.15892978 -0.13885626 -0.17660822 -0.18344882
000090 76 67 41 be 73 df 8d be 15 d5 cf bd 1c c3 47 be
       -0.18887123 -0.2770954 -0.10148064 -0.19508022
0000a0 f6 fa 7d be 3d 97 97 be 60 46 0b be 22 81 1f bd
       -0.24802765 -0.29607573 -0.13601065 -0.03894151
0000b0 f1 04 66 be 7d bd 20 be 02 e1 51 be ef ad 42 be
       -0.22462822 -0.15697284 -0.2049599 -0.19011663
0000c0 ef 63 38 be 3f 07 2a be 13 fb 32 be 85 29 33 be
       -0.18006872 -0.16604327 -0.1747859 -0.17496307
0000d0 5c 84 eb bd 54 c0 80 40 0f e8 91 be 0d 12 63 be
       -0.11499855 4.0234776 -0.2849736 -0.22174855
0000e0 51 de c3 be d0 e1 cf be 9d 65 21 be 6e b4 4b be
       -0.3825555 -0.4060197 -0.15761419 -0.19893047
0000f0 47 eb 89 bd 47 6c c7 bf 32 05 4f be b8 b9 12 be
       -0.06734329 -1.5579919 -0.20216826 -0.14328659
000100 7e 55 82 be b5 c3 43 be 0d f8 81 be c4 ce 95 be
       -0.2545585 -0.19117625 -0.2538456 -0.29259312
000110 1c 96 58 be 11 8d 34 be 5b f4 7a be 16 65 26 be
       -0.21151012 -0.17631938 -0.24507277 -0.16249499
000120 aa 0f 38 be 65 be 49 be a5 91 79 3e 99 3f cf be
       -0.17974725 -0.19701536 0.24371965 -0.4047821
000130 ec 14 2b be 50 37 42 be 80 d4 75 bf 44 eb 10 be
       -0.167072 -0.18966413 -0.96027374 -0.14152247
000140 a2 b8 e6 be fa 22 eb bd 73 fe 7e be 24 3f cb bd
       -0.4506274 -0.114812806 -0.24901752 -0.099241525
000150 e0 63 28 be 8f d8 d2 bd d1 32 38 be 68 e7 11 be
       -0.1644435 -0.102952115 -0.17988135 -0.1424843
000160 15 52 b1 bd 12 fd 36 be b6 2c 89 be 8b bc 25 be
       -0.08658234 -0.17869976 -0.26791924 -0.16185205
000170 30 fa 25 be 76 6f ca 3f 0b be 57 be 0d 5f 3d bf
       -0.1620872 1.5815265 -0.2106859 -0.7397316
000180 02 32 e3 bf a0 0a 24 be 3b ec 93 be 47 3d 3b be
       -1.7749636 -0.16019678 -0.28891167 -0.18285094
000190 c1 e6 5c be 03 72 9f 3d a4 1a 83 be 19 94 76 be
       -0.215724 0.07785418 -0.25606263 -0.24079932
0001a0 ba 7d 3c be 60 4c d8 bf cf fb d1 3f bc d1 2b be
       -0.18407336 -1.6898308 1.6404971 -0.16779226
0001b0 e3 6f 6d be 81 51 f6 bd 81 a3 33 be af a5 08 be
       -0.23187213 -0.120272644 -0.1754284 -0.13344453
0001c0 cf cd 39 be 9a f2 91 bf 99 c5 f0 bd 8f d8 7a be
       -0.18144916 -1.1402161 -0.11756439 -0.24496673
0001d0 d9 48 d3 bd e0 75 9a be c0 2f 13 bf ad 97 e6 bd
       -0.10316629 -0.30168056 -0.57494736 -0.112593986
0001e0 40 d5 c8 bd 46 12 90 be 51 f5 0f be 1b a1 57 be
       -0.09806299 -0.28138942 -0.14058425 -0.2105755
0001f0 a2 41 30 be 05 eb 49 be 72 0b a8 be f5 59 75 be
       -0.17212537 -0.19718559 -0.32821232 -0.23960097

fc3.weight f4 [1, 128]
000000 46 bc e7 3b 22 b4 d9 3c bb 4b b0 3c 15 1d a5 bc
       0.0070720045 0.026575152 0.021520486 -0.020155469
000010 e5 87 30 bc 24 35 33 3c b4 d4 95 3c b5 f5 e7 ba
       -0.010774587 0.010937963 0.018289901 -0.0017697128
000020 6f d2 cd bc 83 5e 47 3b dd 6f 7f 3b 9b 1c 9e bc
       -0.025124757 0.0030421324 0.0038976588 -0.01930075
000030 67 00 6d 3c 30 d2 82 3b 9e a8 ac bc 14 be 79 3c
       0.014465428 0.0039923415 -0.021076497 0.015243072
000040 c3 c0 99 3c 3b 31 ee bb 04 bf 17 3c 73 79 ae bc
       0.018768674 -0.0072690523 0.00926185 -0.021298146
000050 d7 65 f8 bc 8a 99 93 3c a0 1f af b7 81 d4 0a bc
       -0.030321999 0.018017549 -2.0876352e-05 -0.008473516
000060 47 23 b7 3b 5e dc 22 ba 3f 01 80 bc f1 4a 9a bc
       0.005588922 -0.0006212647 -0.015625594 -0.018834563
000070 fc e9 0c bc 3e ce 85 3b 65 6a 83 bc f2 3e 84 bc
       -0.008600708 0.004083424 -0.016041944 -0.016143296
000080 26 b2 0b bc aa 6f f4 bb d9 dc 00 3d 3a 91 1c 3c
       -0.008526361 -0.0074596005 0.031460617 0.009556109
000090 9b bc 91 bc d7 ec 92 bc 20 b0 18 3b 10 a6 49 3c
       -0.01779013 -0.0179352 0.0023298338 0.012307659
0000a0 0b 5f 0c 3b e8 cd 5b 3c 1a 25 ed 3a 42 78 dd 3c
       0.0021418955 0.013415791 0.0018092722 0.027034882
0000b0 0e 0c 9c bc ff 82 5c 3c 89 bf 15 3b 92 32 de 3c
       -0.019048717 0.013458966 0.002284976 0.027123723
0000c0 e4 be 40 bb 4e 49 ef bc 28 31 a6 bb 6c ed f0 3c
       -0.0029410655 -0.02920976 -0.005071778 0.029410087
0000d0 3b f6 5e ba 66 a2 a0 bb e8 04 7f 3c 0e ec 75 3c
       -0.0008505319 -0.004902172 0.015565135 0.015009893
0000e0 fb 49 ab bc 8e eb 34 bb b0 b0 b4 bb 70 a4 6a bc
       -0.0209093 -0.0027606222 -0.005514227 -0.0143214315
0000f0 b9 55 ae 3b 61 7a 11 3c e4 74 3a bc a8 be 8a b7
       0.0053202775 0.008879275 -0.011380408 -1.6539663e-05
000100 37 fe 98 3c 02 20 84 bc 64 a3 ba bb c9 46 42 3d
       0.018675907 -0.016128544 -0.005695747 0.047430787
000110 7a ec fe bb 7e 9f fe bb d8 5e 84 bc d8 41 7e 3b
       -0.007779655 -0.007770478 -0.016158506 0.003879657
000120 3e cb 8f 3b 2a b2 a5 3a d9 f1 8b bc 00 c8 ab 3b
       0.004388242 0.0012641598 -0.017083095 0.0052423477
000130 02 5c 7e bb 0b 4e c1 bc 21 06 fc 3c 59 88 c9 3c
       -0.0038812165 -0.023596784 0.030764641 0.024601148
000140 46 bf 9e bc 13 f3 f1 bb 82 10 57 bc 0f 0e 89 bc
       -0.019378316 -0.007383713 -0.013126494 -0.016730336
000150 ae 29 b9 bb 4c 6b 29 3c 68 65 40 bc 22 1a 12 3c
       -0.0056507206 0.010340523 -0.011742927 0.008917363
000160 b3 c8 14 3c 7d d5 28 3b 1a 36 a5 bb df 78 ab 3c
       0.009081054 0.0025762015 -0.00504185 0.02093166
000170 2e 4f 6d 3c a2 7b c6 3c 0e 82 7d bc b6 b5 20 3c
       0.01448421 0.024228875 -0.015472902 0.009808948
000180 47 47 b8 bc 77 4f e5 3c e7 db 20 bc dc 29 dc bc
       -0.022494925 0.027991993 -0.009818054 -0.026875429
000190 0d 49 5f 3c e2 47 c2 bc 74 7b 91 bb 1c a2 38 3c
       0.0136282565 -0.023715917 -0.0044397656 0.011269119
0001a0 52 77 9f bb d5 f7 7c bc 87 ee e4 3b 32 93 b1 3c
       -0.004866519 -0.015439947 0.0069864425 0.021676634
0001b0 a5 86 40 3b 29 d0 e7 3c 3e d5 18 3b 3a bf c4 bb
       0.002937713 0.0282975 0.0023320462 -0.0060042413
0001c0 b0 55 23 3c 20 4e a6 bc dc c4 be 3c ff fc 86 3c
       0.00996916 -0.020300925 0.02328723 0.01647806
0001d0 1b b7 61 3c 26 2a 1a 3a cd cd bb bc 65 8c 94 3c
       0.013776566 0.00058809144 -0.022925282 0.018133352
0001e0 b8 9e eb ba da 81 e8 3a f0 45 94 3c b6 dd 34 bb
       -0.0017976379 0.0017738894 0.018099755 -0.002759797
0001f0 2c a0 ae 3b 51 fe 97 3b 59 b0 dc 3c e5 a7 05 3b
       0.0053291526 0.004638471 0.026939558 0.0020394262
