cp_critic1.pth (torch_old, 185358 bytes, 5 tensors)

fcs1.weight f4 [256, 48]
0	0x3e7ebbda	0.24876347
1	0x3ddcfb09	0.10790069
2	0xbc2bf2da	-0.010494912
3	0xbd0fa0e3	-0.035065543
4	0xbdbfe76b	-0.09370311
5	0xbe9bcac4	-0.30428135
6	0xbcda470a	-0.026645202
7	0xbb986b06	-0.00465143
8	0x3e13ce4c	0.14434165
9	0x3d61f969	0.055169497
10	0xbdb4c75c	-0.08827087
11	0xbd3e1417	-0.046405878
12	0xbb8943c7	-0.004188988
13	0xbe12da80	-0.14341164
14	0x3c94cfcf	0.018165497
15	0xbdaa8210	-0.08325589
16	0x3e81a131	0.25318292
17	0x3d05e5bb	0.03268979
18	0xbd6616b8	-0.05617401
19	0xbdaa8b4d	-0.08327351
20	0xbca1ba3a	-0.01974212
21	0xbcb811b3	-0.022469377
22	0xbc85eb79	-0.016347634
23	0xbe310452	-0.17286804
24	0x3e84e547	0.25956175
25	0x3e13da13	0.14438657
26	0xbbb93609	-0.0056521934
27	0x3ce23fab	0.02761825
28	0x3cc05262	0.023476783
29	0xbebc758b	-0.36808428
30	0xbd2c2de1	-0.04203594
31	0x3d7be226	0.06149497
32	0x3e044255	0.12915929
33	0x3d87ed01	0.06637002
34	0xbc1d8646	-0.009614533
35	0xbd060c0f	-0.032726344
36	0xbd3764f8	-0.044774026
37	0xbdf07dd9	-0.117427535
38	0xbcfac1be	-0.030609962
39	0x3cbc3b08	0.022977367
40	0x3e3624cb	0.17787473
41	0x3d21f235	0.039537627
42	0xbb6e3b81	-0.0036351385
43	0xbdc939eb	-0.098255
44	0xbcbcdce5	-0.02305455
45	0xbcc13a27	-0.0235873
46	0x3b5635b9	0.003268583
47	0xbcaf6aa4	-0.021413155
48	0x3faa8b3b	1.332374
49	0xbf035aa9	-0.5131021
50	0xbcc423f2	-0.023942921
51	0xbeb4c232	-0.3530441
52	0xbfdcb799	-1.724353
53	0xbe26f949	-0.16306032
54	0xbd65b1ba	-0.056077696
55	0xbe8fa100	-0.2805252
56	0x3fd1833d	1.6368176
57	0xbeed85ee	-0.46391243
58	0xbca7464a	-0.020419259
59	0xbee38ccc	-0.44443357
60	0xbf8f3c14	-1.1190209
61	0x3d465972	0.048425145
62	0xbce7ebe3	-0.028310722
63	0xbeda5fa2	-0.42651087
64	0x3fa36944	1.27665
65	0xbdfc7a95	-0.12328068
66	0xbee6f1b6	-0.45106286
67	0x3e734e55	0.2376035
68	0xbeded68b	-0.43523058
69	0xbf35bd1c	-0.70991683
70	0xbef07df2	-0.4697109
71	0x3e1e851d	0.15480466
72	0x3cf4458f	0.029818324
73	0xbec10706	-0.3770067
74	0xbdd12c06	-0.10213475
75	0x3eef3fc2	0.4672833
76	0x3fd25149	1.6431056
77	0xbe0efd69	-0.13963856
78	0xbe183851	-0.14865233
79	0x3ee9dd28	0.4567654
80	0x3f30d38d	0.690728
81	0xbf2b772a	-0.66978705
82	0xbe032fe5	-0.12811239
83	0x3f705469	0.938788
84	0x3f878cd6	1.0589855
85	0x3db8943b	0.09012648
86	0xbdb60785	-0.08888153
87	0x3f6613fb	0.8987424
88	0x4005c03b	2.0898578
89	0x3edd1454	0.43179572
90	0xbd04a983	-0.03238822
91	0x3f936d6b	1.1517767
92	0x3ee1fc87	0.44137976
93	0xbf259b46	-0.64690053
94	0xbd5989b4	-0.05310984
95	0x3f9687cb	1.1760191
96	0xbc8d633d	-0.017259235
97	0x4087c63b	4.242948
98	0xbd0ea069	-0.034820948
99	0xbed88a1a	-0.42292863
100	0x3f34d676	0.7063974
101	0x3ef32eed	0.4749674
102	0xbd485fe6	-0.04891958
103	0xbea82932	-0.3284393
104	0x402c8753	2.6957595
105	0x40906f54	4.51359
106	0xbe7fe04d	-0.24987908
107	0xbf2df3fe	-0.6795043
108	0x3e236658	0.1595701
109	0xbf189912	-0.59608567
110	0xbe1a677e	-0.15078542
111	0xbf336a64	-0.70084214
112	0x403a259b	2.9085453
113	0x40989eba	4.769376
114	0xbe72fe54	-0.23729831
115	0x3ec2aad1	0.38020948
116	0xbe5a23d9	-0.21302737
117	0xbfdc011c	-1.7187839
118	0xbe1686c3	-0.14699845
119	0x3efcc1b6	0.4936654
120	0xbea4e023	-0.32202253
121	0xc08039e7	-4.007068
122	0xbd95c437	-0.07312816
123	0xbdd7c06a	-0.10534747
124	0xbf339142	-0.7014352
125	0x3efa7c98	0.48923182
126	0x3c004eef	0.007831319
127	0xbe3b56a7	-0.18294774
128	0xbed6c485	-0.41946808
129	0xc09b98e3	-4.862413
130	0xbdfd15b7	-0.123576574
131	0xbee008dc	-0.4375676
132	0xbe09e072	-0.13464525
133	0xbf1db5ca	-0.61605513
134	0xbe0cc1f2	-0.1374586
135	0xbedbc1dc	-0.4292134
136	0x3c899679	0.016795384
137	0xc0a67928	-5.2022896
138	0xbd6bfffa	-0.057617165
139	0x3f3eb0a4	0.7448828
140	0x3e6f2f3d	0.23357864
141	0xbfd74af0	-1.6819744
142	0xbd168f7c	-0.03675793
143	0x3f4f41bc	0.8095968
144	0x400781ef	2.1173055
145	0x3e4aa18c	0.19788188
146	0xbdd4e144	-0.103945285
147	0x3eb4d0e8	0.35315633
148	0x3ec1a5f1	0.37821916
149	0x3eaadae8	0.33370137
150	0xbe106e42	-0.1410456
151	0x3ec0f2ac	0.37685144
152	0x401956c2	2.3959203
153	0x3ea92be0	0.33041286
154	0xbedc0e18	-0.42979503
155	0x3e1e4d57	0.1545919
156	0x3ea9185c	0.33026397
157	0x3e09cdf0	0.13457465
158	0xbebdbf30	-0.37059927
159	0x3d29f892	0.04149682
160	0x400fcf30	2.2470207
161	0x3f3a6cd5	0.72822315
162	0x3afc59e1	0.001925286
163	0x3f2fe5fe	0.68710315
164	0x3f05349d	0.52033406
165	0x3ea68997	0.32526848
166	0xbd725588	-0.0591636
167	0x3f3b8896	0.7325529
168	0x3f92c1cc	1.1465392
169	0xc0333292	-2.7999616
170	0xbe4addce	-0.19811174
171	0xbe8a8065	-0.27051082
172	0xbed26bc1	-0.41097835
173	0x3e7876b1	0.24264027
174	0xbe26979e	-0.16268775
175	0xbe62b54d	-0.22139473
176	0x400bc718	2.1840267
177	0xc0310471	-2.765896
178	0xbe756ed1	-0.23968054
179	0x3ed8660f	0.42265365
180	0xbea848d0	-0.32868052
181	0x3e2d2c35	0.16911395
182	0xbeb157a1	-0.34637168
183	0x3ec2ac51	0.38022092
184	0x400b2568	2.174158
185	0xc0308e5a	-2.7586884
186	0xbd0b3eb8	-0.03399536
187	0x3f8ebd1e	1.1151464
188	0xbefb77d2	-0.49114853
189	0x3e9be72f	0.30449817
190	0xbd3fd67d	-0.04683541
191	0x3f8c7ed4	1.0976205
192	0x3f95d835	1.1706606
193	0xc00809fc	-2.1256094
194	0xbe6d149b	-0.23152392
195	0xbf59b4db	-0.8504159
196	0xbe42e43f	-0.19032381
197	0xbfa54bd9	-1.2913772
198	0xbe9c1113	-0.30481777
199	0xbf6015c9	-0.8753324
200	0x3f426355	0.7593282
201	0x3fc78ef3	1.55905
202	0xbe2d8751	-0.1694615
203	0x3ea76a9f	0.32698533
204	0xbec2890f	-0.37995192
205	0xc03ea245	-2.9786541
206	0xbe2069e1	-0.1566539
207	0x3ed4f08d	0.41589776
208	0x3f8db4ee	1.107084
209	0x40019395	2.0246327
210	0xbd9eb32d	-0.07749019
211	0xbeac926c	-0.3370546
212	0x3f414900	0.75502014
213	0xbf0a5a94	-0.5404446
214	0xbd088940	-0.033334017
215	0xbea925d4	-0.33036673
216	0x3c95e0ca	0.018295664
217	0x3f35b6e3	0.7098219
218	0xbd3d4ee2	-0.046217807
219	0x3d935914	0.07194725
220	0x3e2da553	0.16957597
221	0xbf9d0a0b	-1.226869
222	0xbd2d5c96	-0.042324625
223	0x3db0fe74	0.08642283
224	0x3e700c28	0.23442137
225	0x3f8bb2ff	1.0914
226	0xbd8fd2e6	-0.070226476
227	0x40593d0d	3.3943512
228	0x3eee0e83	0.46495447
229	0xc04412f1	-3.063656
230	0x3cb97745	0.02263988
231	0x405f87c7	3.4926622
232	0x3f1d066d	0.6133793
233	0x3f8125be	1.0089643
234	0xbf1f0016	-0.62109506
235	0xc0456c01	-3.084717
236	0xbf3b9f58	-0.73290014
237	0xbf1b6308	-0.60697985
238	0xbf0fb052	-0.5612842
239	0xc04924ab	-3.142863
240	0x3fbd7a6a	1.4802983
241	0x3f25f3aa	0.64824927
242	0xbd31e503	-0.043431293
243	0x3f8adc5f	1.0848502
244	0x3ed07c27	0.4071972
245	0xbf0f3e3d	-0.55954343
246	0xbcfad271	-0.030617924
247	0x3f915181	1.1352998
248	0x3fca1ffd	1.5791012
249	0x3f2e2f1f	0.6804065
250	0xbe8f99c2	-0.28046995
251	0xbf3d0d54	-0.7384846
252	0xbde79543	-0.11307766
253	0xbf344441	-0.7041665
254	0xbe87b2ec	-0.26503694
255	0xbf35032a	-0.7070795

fcs1.bias f4 [256]
0	0xbe355511	-0.17708232
1	0xc010fb65	-2.265344
2	0xc034745d	-2.8196023
3	0xc0496523	-3.146798
4	0xc000a176	-2.0098548
5	0xbfeb07dd	-1.8361775
6	0xc051aba3	-3.2761009
7	0xbfc52fbc	-1.5405192
8	0xbfaaf6a1	-1.3356515
9	0xc03c4230	-2.9415398
10	0xc00eed4a	-2.233233
11	0xbda08344	-0.07837537
12	0x3a7baeb5	0.00096009235
13	0xbe76a8ec	-0.24087876
14	0x3ff4c9a8	1.9124041
15	0xbf9028a9	-1.1262408
16	0xbe5b6f43	-0.21429162
17	0xc06d92f4	-3.7120943
18	0xbffd2a95	-1.977862
19	0xbf9b7d94	-1.2147698
20	0xbd4d07a9	-0.050056133
21	0x3ca60011	0.020263704
22	0xbfb88a62	-1.4417231
23	0xc01006ed	-2.2504227
24	0xbfa277e4	-1.2692838
25	0xc0219aad	-2.5250657
26	0xbfa1dfc0	-1.2646408
27	0xc066e670	-3.6078148
28	0xbfee644e	-1.862436
29	0xbf3612e6	-0.71122587
30	0xc0431d94	-3.0486803
31	0x3f1029a0	0.56313515
32	0xc0624df3	-3.5360076
33	0xc0aaf2ff	-5.3421626
34	0xc02e766e	-2.7259784
35	0xc0270dc6	-2.6102157
36	0xc03282fc	-2.7892447
37	0xc02e4f2e	-2.7235827
38	0xc03fa228	-2.9942722
39	0xbdec74d4	-0.11545721
40	0xc009ecc6	-2.1550765
41	0xc09cae52	-4.8962793
42	0xc00bf8c5	-2.1870587
43	0xbffe7fb0	-1.9882717
44	0xbf964acb	-1.1741575
45	0xbfd53dd6	-1.6659496
46	0xc09ab2b2	-4.8343134
47	0xbfd430e2	-1.6577418
48	0xbd36b02c	-0.044601604
49	0xc008a725	-2.1352017
50	0xbf65e05d	-0.89795476
51	0x3f3b44a7	0.7315163
52	0xc07ebe83	-3.980378
53	0xc04aab7f	-3.1667173
54	0xbf7f693e	-0.9976996
55	0xbfa54834	-1.291266
56	0xc028d114	-2.637761
57	0xc0202cc0	-2.5027313
58	0xc025f47f	-2.5930479
59	0xbd8ae19f	-0.06781315
60	0xbf8c866e	-1.0978525
61	0xbe50cdb4	-0.2039097
62	0xc088915f	-4.2677455
63	0xbe2d321d	-0.16913648
64	0xc02bf67d	-2.6869195
65	0xc03b1c90	-2.9236183
66	0xbfde5eec	-1.7372718
67	0xc01e639a	-2.4748292
68	0xc06d0644	-3.7035074
69	0xbfdff121	-1.7495462
70	0xbd333c36	-0.043758593
71	0xbf70e9de	-0.94106853
72	0xc00442ee	-2.066585
73	0xbd427d93	-0.04748304
74	0xbfd1641e	-1.6358678
75	0xbc057191	-0.008144752
76	0xc004746c	-2.0696058
77	0xc0575fd2	-3.3652234
78	0xc00455a4	-2.067727
79	0xc001c45c	-2.0276098
80	0xbdd60ba9	-0.10451443
81	0xc08f52cb	-4.4788566
82	0xc02d6cf2	-2.7097745
83	0xbe5d12d1	-0.21589209
84	0xc01640f8	-2.3477154
85	0x3e850b66	0.2598526
86	0xbebcbf0a	-0.368645
87	0xc04ac186	-3.1680617
88	0xc031e5e1	-2.7796557
89	0xc0371303	-2.8605354
90	0xbfe6a71f	-1.8019751
91	0xbf987231	-1.1909848
92	0xbdafd31e	-0.08585189
93	0xc0124c08	-2.2858906
94	0xc0085a86	-2.130525
95	0xc02145af	-2.5198781
96	0xc0712084	-3.7676096
97	0xc0272360	-2.611534
98	0xbfcec022	-1.6152384
99	0xbdbdb20a	-0.09262474
100	0xc030b884	-2.761262
101	0xbead65bb	-0.33866677
102	0xc0203d95	-2.5037587
103	0xc01632d0	-2.3468513
104	0xbfbe31b1	-1.4858915
105	0xbf742475	-0.9536813
106	0xbfc624ac	-1.5479941
107	0xbfba04b9	-1.4532691
108	0xbd0d2c20	-0.03446591
109	0xbfe65d28	-1.7997179
110	0xbea9a66d	-0.33134785
111	0xc01a64e1	-2.4124072
112	0xc016011e	-2.3438182
113	0xbf904ae6	-1.1272857
114	0xc00c9829	-2.196787
115	0xc024eea4	-2.5770655
116	0xc092f90c	-4.592901
117	0xbdb7728a	-0.089573935
118	0xc041b028	-3.0263767
119	0xbfe7aea5	-1.8100172
120	0xc02629b4	-2.5962954
121	0xbfb56bca	-1.417352
122	0xc032c2b1	-2.793133
123	0xc0077924	-2.1167688
124	0xc0013fbb	-2.0195148
125	0xbf8a69b7	-1.0813512
126	0xbfe51312	-1.7896445
127	0xbfebc3d7	-1.841914
128	0xbff5f94b	-1.9216703
129	0xc03f7f43	-2.9921424
130	0xbe421f87	-0.18957339
131	0xc0086b5b	-2.1315525
132	0xc03a149a	-2.9075074
133	0xc069ee17	-3.6551569
134	0xbff1cbdd	-1.8890339
135	0xc041e159	-3.0293791
136	0xbe66ab4e	-0.22526285
137	0xbffba319	-1.9659148
138	0xbdbf9813	-0.09355178
139	0xbec119ed	-0.37715092
140	0xbe8cc269	-0.27492073
141	0xbe7dad9c	-0.24773258
142	0xbe9299e2	-0.28633028
143	0xbfa5e2e6	-1.2959869
144	0xc010ba59	-2.2613738
145	0xbe2d9317	-0.16950642
146	0xc086011b	-4.187635
147	0xbb4a01b3	-0.0030823767
148	0xc026d7da	-2.6069245
149	0xbf9731a6	-1.1812027
150	0xc076b4e0	-3.8547897
151	0xbffd99db	-1.9812578
152	0xc00d2b66	-2.2057738
153	0xc0082fea	-2.1279244
154	0xbf351776	-0.70738924
155	0x3f083ef9	0.5322109
156	0xc043e835	-3.0610478
157	0xbd0a4a3f	-0.033762213
158	0xbf3b2a9a	-0.7311188
159	0xbfd33d4b	-1.650308
160	0x3e740f5c	0.23833984
161	0xbf1cf816	-0.6131605
162	0xbf8bea9e	-1.0930974
163	0xc008c615	-2.13709
164	0xc09ee550	-4.9654922
165	0x3e15bf23	0.14623694
166	0xc0342116	-2.8145194
167	0xbfe4dee2	-1.7880518
168	0xc084424c	-4.133093
169	0xbf81d224	-1.0142255
170	0xbdc9fdd0	-0.09862864
171	0xbe2b4044	-0.16723734
172	0xc005bb70	-2.0895653
173	0xbfe5ea0c	-1.796205
174	0xbfe584db	-1.7931169
175	0xbe05b494	-0.13057166
176	0xc037a941	-2.8697054
177	0xc031db22	-2.7789998
178	0xc024939c	-2.5715094
179	0xbfb3b5e4	-1.4039884
180	0xc0688ce7	-3.6336
181	0xc03aa45b	-2.9162815
182	0xbffbd1d1	-1.9673406
183	0xc02e4568	-2.7229862
184	0xbfd313a2	-1.6490366
185	0xc01cce70	-2.4501
186	0xbfa24d25	-1.2679793
187	0xbf405d5b	-0.7514245
188	0xc09f32a0	-4.97493
189	0x3d50ad5e	0.050946586
190	0xc046b75f	-3.104942
191	0xc013af1e	-2.3075633
192	0xc0091fb0	-2.142559
193	0xc0606be3	-3.506585
194	0xbfc4ff3f	-1.5390395
195	0xbdd79ea0	-0.10528302
196	0xbf8e352a	-1.1109974
197	0xc05374c9	-3.304003
198	0xc07d3808	-3.9565449
199	0xbe0e18bd	-0.13876624
200	0xc05ddde0	-3.4666672
201	0x3c3151ac	0.010822695
202	0xc01633a8	-2.3469028
203	0xbe8d90ff	-0.27649686
204	0xc02a8bab	-2.6647747
205	0xc011be94	-2.277257
206	0xc010ff42	-2.2655797
207	0xbff3f391	-1.9058706
208	0xc0645e52	-3.5682569
209	0xbfe167c1	-1.7609788
210	0xbe95657f	-0.29178998
211	0xbfff40bc	-1.994163
212	0xbfc904fd	-1.5704647
213	0xc001c232	-2.0274777
214	0xc0190eb4	-2.3915224
215	0xbf905972	-1.1277297
216	0xbffb467a	-1.9630883
217	0xc00b760a	-2.1790795
218	0xbf69fe69	-0.91403824
219	0xc00f399d	-2.2378914
220	0xbd997c7f	-0.07494449
221	0xc05080ce	-3.2578616
222	0xbecd475d	-0.40093508
223	0xc016c673	-2.3558624
224	0xbf821bf8	-1.0164785
225	0xc026968c	-2.6029387
226	0xbf5f50e2	-0.8723279
227	0xbfd11cda	-1.633693
228	0x3f9d1e18	1.2274809
229	0xc0623c5e	-3.5349345
230	0x400b710d	2.178775
231	0xbe153f54	-0.14574939
232	0xc009c81d	-2.152839
233	0xc030b97d	-2.7613213
234	0xbf941f18	-1.1571989
235	0xc03b4b97	-2.9264886
236	0x3ef7ff7b	0.48437104
237	0x3f9e16d3	1.2350715
238	0xbfa1f837	-1.2653874
239	0xc012a332	-2.2912107
240	0xbfa704d4	-1.3048348
241	0xbeae86f3	-0.34087333
242	0xbff37dfe	-1.9022825
243	0xbebb57be	-0.3659038
244	0xc00d7e2f	-2.2108266
245	0xbfda8c3a	-1.7074044
246	0xbe0679f7	-0.13132463
247	0xbf91a5a7	-1.1378678
248	0xc05eec26	-3.4831634
249	0xbfc72ffa	-1.5561516
250	0xc02084fe	-2.5081172
251	0xbfdff092	-1.7495291
252	0xc00b6255	-2.1778767
253	0xc02224a8	-2.5334873
254	0xbf8f624c	-1.1201873
255	0xc02c0af1	-2.6881678

fc2.weight f4 [128, 260]
0	0xbd4dd773	-0.050254297
1	0xbb252d5c	-0.0025204038
2	0xbd743664	-0.059622183
3	0xbdb14fc8	-0.08657795
4	0xbd00e6a2	-0.03146995
5	0xbcc1c6d5	-0.02365438
6	0xbb8e27f7	-0.0043382603
7	0xbd82ba22	-0.06383158
8	0xbd8284f6	-0.063730165
9	0xbcc06837	-0.023487194
10	0xbd4d6c8e	-0.050152354
11	0x3c01afcd	0.007915449
12	0xbb110a3f	-0.0022131351
13	0x3c5aa016	0.0133438315
14	0xbe0178da	-0.12643757
15	0x3da01030	0.078155875
16	0x3ce64a11	0.02811149
17	0xbd106f00	-0.035262108
18	0xbe0172d7	-0.12641464
19	0xbb427488	-0.0029671509
20	0x3d4e9b3d	0.050441016
21	0xbd6c9669	-0.05776063
22	0xbc6d72ab	-0.014492671
23	0xba00475c	-0.0004893446
24	0x3bb2edb3	0.005460465
25	0xbd5fa55d	-0.054601062
26	0xbdd515ff	-0.10404586
27	0xbaa8b24f	-0.0012870523
28	0xbda7c234	-0.08191338
29	0xbd5b431c	-0.053530797
30	0x3d926082	0.07147314
31	0xbd8c1552	-0.06840004
32	0xbd03a470	-0.03213924
33	0xbd3a7387	-0.04552033
34	0x3b1e7bec	0.002418275
35	0xbd9117a0	-0.07084584
36	0xbabfc181	-0.0014629812
37	0x3cffcdd4	0.031226076
38	0x3d5b426c	0.05353014
39	0x3cca6e7a	0.024710882
40	0xbdf89e24	-0.12139538
41	0xbcb0a8bd	-0.021564836
42	0xbd895463	-0.067055486
43	0xbe00c5d0	-0.1257546
44	0xbcd6c6c3	-0.026217824
45	0x3d6c1c2c	0.057644054
46	0xbdb216bb	-0.08695742
47	0x3db58541	0.08863307
48	0xbd76dcf3	-0.060269307
49	0xbd67fac6	-0.05663564
50	0x3b845f8a	0.0040397095
51	0x3cc2fb87	0.023801578
52	0xbc62ba38	-0.013838343
53	0xbca60183	-0.020264393
54	0x3cc335f2	0.023829434
55	0xbd837fe1	-0.06420875
56	0xbde82ba1	-0.113364466
57	0xbd62e779	-0.05539653
58	0x3d27f60b	0.04100613
59	0x3cf7b8ab	0.030239424
60	0xbcc08a90	-0.023503572
61	0xbd013764	-0.031546965
62	0xbe3b9fff	-0.18322752
63	0x3d845b9a	0.06462784
64	0x3cbc9f1a	0.023025084
65	0xbdf0b7c5	-0.11753801
66	0x3d45172a	0.048117794
67	0xbdc85cfb	-0.097833596
68	0xbd040d21	-0.032239083
69	0xbd75bcc8	-0.05999449
70	0xbd3dd573	-0.04634614
71	0xbd76b6e3	-0.060233008
72	0x3d3736af	0.044729885
73	0xbd10bdc3	-0.03533722
74	0xbdafa38b	-0.08576115
75	0xbb4aa566	-0.003092134
76	0x3c2dec9c	0.010615494
77	0xbd625595	-0.0552574
78	0x3b8f0d36	0.0043655885
79	0xbc36682a	-0.011133233
80	0x3d50caba	0.050974585
81	0xbe00576f	-0.12533353
82	0xbd5dcd30	-0.05415076
83	0xbc5b5299	-0.013386392
84	0xbd973790	-0.073836446
85	0xbdc8ffb6	-0.09814398
86	0x3ca09bdd	0.019605571
87	0xbd61378f	-0.054984625
88	0x3d6efdc3	0.058347475
89	0x3c18e4ee	0.009331925
90	0x3d276b2c	0.04087369
91	0xbd69b261	-0.05705488
92	0x3b8139f5	0.0039436766
93	0x3c2c21c9	0.010506102
94	0xbd93e94c	-0.07222232
95	0xbe4c5cdd	-0.199573
96	0xbd17d41a	-0.03706751
97	0xbdaf5c4c	-0.08562526
98	0x3d5f63a8	0.0545384
99	0xbd9d2ac1	-0.0767417
100	0xbd960500	-0.073251724
101	0xbc4cf285	-0.012508993
102	0xbdd5bd9b	-0.10436555
103	0xbd89062f	-0.066906326
104	0xbd3f8a05	-0.046762485
105	0xbdd47b5d	-0.10375092
106	0xbd8abf3c	-0.06774756
107	0xbd28a06f	-0.041168626
108	0xbd035cd0	-0.032070935
109	0xbe1703c1	-0.14747526
110	0xbdf5cb31	-0.12001646
111	0x3be3d0ac	0.006952366
112	0xbd88a758	-0.06672543
113	0xbdd538b4	-0.10411206
114	0x3c70e8cb	0.01470394
115	0xbde47362	-0.1115482
116	0x3c2b3907	0.010450608
117	0x3c01376a	0.007886747
118	0x3cea8151	0.028626116
119	0xbdd34980	-0.103167534
120	0x3d7f2db7	0.062299456
121	0xbced8acb	-0.028996846
122	0xba46a767	-0.00075780455
123	0xbde62951	-0.11238349
124	0xbdc52078	-0.096253335
125	0xbb8a6e29	-0.004224558
126	0x3da8d34b	0.08243426
127	0xbdf4872a	-0.11939843
128	0x3b8a11a2	0.004213528
129	0xbd9d130b	-0.07669648
130	0xbd0f2d08	-0.034955055
131	0xbda6668d	-0.08125029
132	0xbd10c847	-0.03534725
133	0x3b8de711	0.004330524
134	0xbd32c8f2	-0.043648668
135	0x3c3ed744	0.011648003
136	0xbdcc36c8	-0.09971386
137	0xbd8ddfcd	-0.06927452
138	0x3c9258bd	0.01786458
139	0x3c9679b3	0.018368578
140	0xbd840706	-0.06446652
141	0xbdb25511	-0.087076314
142	0x3cdeda36	0.02720366
143	0xbde3b9e6	-0.11119442
144	0xbdd7393e	-0.10508965
145	0x3d28b38f	0.041186865
146	0xbd1b91be	-0.037980787
147	0xbd9b74e9	-0.07590658
148	0x3d71b35d	0.059008945
149	0xbbfce28b	-0.0077174357
150	0xbc071cf7	-0.008246652
151	0xbd1ffd75	-0.039060075
152	0xbd7addb8	-0.061246604
153	0xbc700eab	-0.014651935
154	0x3d7a564b	0.06111745
155	0xbdad2648	-0.08454567
156	0xbd87cd26	-0.06630926
157	0xbcb98e57	-0.02265088
158	0xbccb1397	-0.024789615
159	0xbe0a815f	-0.13525914
160	0xbc1c15fa	-0.009526724
161	0xbd9a8aba	-0.07545991
162	0xbd1a4379	-0.037662003
163	0xbc5dc4f0	-0.013535723
164	0xbbc995e9	-0.006151904
165	0x3c40c868	0.011766531
166	0xbdc2b28c	-0.09506711
167	0x3d5cb228	0.05388084
168	0x3c1a90d2	0.009433942
169	0x3d9d8b45	0.07692579
170	0xbe2d9731	-0.16952206
171	0x3d9a27fe	0.07527159
172	0xbd0e2c75	-0.034710366
173	0x3d7bd3b6	0.0614812
174	0x3c9f7ba0	0.019468129
175	0x3d366dd2	0.044538327
176	0xbd9b5ad1	-0.07585681
177	0xbd658bfd	-0.056041706
178	0xbd2ad81d	-0.041710008
179	0xbdb51316	-0.08841531
180	0xbcb86dd4	-0.022513308
181	0x3ba6d1bb	0.00509092
182	0xbdc5c99d	-0.09657595
183	0xbd65f73b	-0.05614398
184	0x3d083850	0.03325683
185	0xbe2a05b3	-0.16603737
186	0xbd5f05ae	-0.054448776
187	0xbd4a8c30	-0.0494501
188	0xbd33c8ea	-0.04389278
189	0x3d50195f	0.050805446
190	0xbd8ff2b0	-0.07028711
191	0xbd689741	-0.056784872
192	0x3d1a9d2c	0.037747547
193	0x3b00e074	0.0019665034
194	0xbd836fcc	-0.06417808
195	0x3cb9441d	0.022615487
196	0xbd9c32d6	-0.07626884
197	0xbd716251	-0.058931652
198	0xbd8a8d35	-0.06765214
199	0xbddd68de	-0.108110175
200	0xbe2ae46d	-0.166887
201	0xbd39278e	-0.045203738
202	0xbd8adbdf	-0.06780218
203	0xbb351554	-0.002763112
204	0xbc48d9ae	-0.01225893
205	0x3b8a3102	0.004217268
206	0xbcb04ffa	-0.02152251
207	0x3c98f1db	0.018670013
208	0x3cbb28d1	0.022846611
209	0x3b767970	0.0037609003
210	0xbcc64893	-0.024204528
211	0xbc8a0ed7	-0.01685278
212	0x3d9774e4	0.07395342
213	0xbc572201	-0.013130666
214	0xbd3ad434	-0.04561253
215	0xbd9f5e95	-0.07781712
216	0xbdaad03c	-0.08340499
217	0xbd17b19c	-0.037034616
218	0x3d195a9a	0.03743992
219	0xbd0d6dfa	-0.03452871
220	0xbd1dac23	-0.03849424
221	0x3ce3f122	0.027824942
222	0xbd4ac390	-0.04950291
223	0xbd8ac6a4	-0.06776169
224	0xbd5e74e3	-0.05431069
225	0xbda6519f	-0.08121037
226	0xbd019d84	-0.03164436
227	0xbe3d346f	-0.18477033
228	0xbe05313f	-0.13007067
229	0xbcee8009	-0.029113786
230	0xbe01b18e	-0.12665388
231	0xbd267cfc	-0.04064654
232	0x3cc2d4d7	0.02378313
233	0xbd879e19	-0.066219516
234	0x3d501cee	0.05080884
235	0xbb2e7bae	-0.0026624012
236	0xbdd8f301	-0.10593224
237	0xbd40a02e	-0.04702776
238	0x3d27fbcc	0.041011617
239	0xbc2c804e	-0.010528637
240	0x3cb9cc04	0.02268029
241	0xbd9f6647	-0.0778318
242	0xbd514220	-0.051088452
243	0xbe006e3d	-0.12542053
244	0x3d3a7d49	0.045529637
245	0xbbbd3e88	-0.0057752766
246	0x3cf4ffa8	0.029907063
247	0xbdca0172	-0.09863557
248	0xbd806f26	-0.062712
249	0xbd6af536	-0.057362758
250	0xbc281c0a	-0.010260591
251	0xbdac4cc4	-0.084130794
252	0x3d878e3e	0.066189274
253	0xbb58c6c0	-0.0033077449
254	0x3ca14830	0.019687742
255	0xbd90cbaa	-0.07070096

fc2.bias f4 [128]
0	0xbe6b3daf	-0.22972749
1	0xbe8ba537	-0.27274486
2	0xbe32a265	-0.17444761
3	0xbe4732ad	-0.19452925
4	0xbe38f50e	-0.18062231
5	0xbe334792	-0.1750777
6	0xbe184d5a	-0.14873257
7	0xbda97e04	-0.08275989
8	0xbdca7b4b	-0.098867975
9	0xbe8ed0aa	-0.27893573
10	0xbe6fcb8f	-0.23417495
11	0xbfbb19bc	-1.4617229
12	0xbe990560	-0.29886913
13	0xbe47f34e	-0.19526407
14	0xbe8ed55a	-0.2789715
15	0xbfd7d716	-1.6862514
16	0x400aabc0	2.1667328
17	0xbe736005	-0.23767097
18	0xbe93c938	-0.28864455
19	0xbdfc5091	-0.12320054
20	0xbe8a47e7	-0.27007982
21	0xbdfe2419	-0.12409229
22	0xbe6c9f7b	-0.23107712
23	0xbe4b8000	-0.19873047
24	0xbe35607b	-0.17712586
25	0xbe972910	-0.29523516
26	0xbf206ea1	-0.62668806
27	0xbe863b75	-0.26217237
28	0xbe0bdd6d	-0.13658686
29	0xbe85699d	-0.2605714
30	0xbe96eeec	-0.29479158
31	0xbe7a668b	-0.2445318
32	0xbe440569	-0.19142689
33	0xbe5534a6	-0.20820865
34	0xbef3162d	-0.47477856
35	0x3e1518ef	0.14560293
36	0xbf1d5440	-0.6145668
37	0xbe101793	-0.14071493
38	0xbe2c846c	-0.1684739
39	0xbe4ee9e5	-0.20206411
40	0xbe6c8fb5	-0.23101695
41	0xbe5471d9	-0.20746554
42	0xbe201853	-0.15634279
43	0xbe269faa	-0.16271845
44	0xbe59b8f7	-0.21261965
45	0xbde68dd7	-0.112575226
46	0xbeeb90af	-0.46008822
47	0xbf06023d	-0.52347165
48	0xbeb9592a	-0.3620084
49	0xbe875f68	-0.26439977
50	0xbe83dadb	-0.2575291
51	0xbe8d22e8	-0.27565694
52	0xbe2ee671	-0.17080094
53	0xbfa31167	-1.2739686
54	0xbf2f8527	-0.6856255
55	0xbe1707fc	-0.1474914
56	0xbd255ffe	-0.04037475
57	0xbe9f33d2	-0.31094223
58	0xbde81d49	-0.11333711
59	0xbf21fa48	-0.63272524
60	0x3ed1fd5d	0.41013613
61	0xbf8cd589	-1.1002666
62	0xbe2a5b03	-0.1663628
63	0xbe1b773f	-0.15182208
64	0xbe41f390	-0.18940568
65	0xbbdc5078	-0.00672346
66	0xbeedf406	-0.46475238
67	0xbea8d8d3	-0.32977924
68	0xbe619abc	-0.22031683
69	0xbe30919f	-0.1724305
70	0xbe0b1361	-0.13581611
71	0xbe500bf7	-0.20317064
72	0xbe6dbd86	-0.23216829
73	0xbe7ecc6d	-0.2488267
74	0xbdd4b94e	-0.103869066
75	0xbe4aedcb	-0.19817273
76	0xbe46400e	-0.19360372
77	0xbe8a6480	-0.270298
78	0xbe7f3cb6	-0.24925503
79	0xbf35f509	-0.7107702
80	0xbf53911a	-0.8264328
81	0xbe28d017	-0.1648563
82	0xbff20e69	-1.8910648
83	0xbe1c431a	-0.15259972
84	0xbf1fe0ef	-0.62452596
85	0xbf213a14	-0.62979245
86	0xbf93e960	-1.1555595
87	0xbe21a337	-0.15784918
88	0xbeaf2480	-0.34207535
89	0xbe977949	-0.2958472
90	0xbe3f6759	-0.18691768
91	0xbddb3203	-0.10702898
92	0xbe839d28	-0.25705838
93	0xbebd2959	-0.36945608
94	0xbe820041	-0.2539082
95	0xbea0e0f8	-0.31421638
96	0xbdfa65f7	-0.122264795
97	0xbde7cb8f	-0.113181226
98	0xbe76c6fa	-0.24099341
99	0xbe012ecc	-0.12615508
100	0xbe1bb22b	-0.15204684
101	0xbd5da03a	-0.054107882
102	0xbe8fd613	-0.28093013
103	0xbe7ecd28	-0.24882948
104	0xbf3cdd2f	-0.73775
105	0xbf0167ec	-0.505492
106	0xbe7f916a	-0.24957815
107	0xbe8d4539	-0.27591875
108	0xbf876bdc	-1.0579791
109	0xbf0141dd	-0.50491124
110	0xbe4ab1da	-0.19794407
111	0xbe5f1439	-0.21785058
112	0xbea4d641	-0.32194713
113	0xbe9ab863	-0.302188
114	0xbe8510c2	-0.25989348
115	0xbe6f6c1a	-0.23381081
116	0xbfc09612	-1.5045798
117	0xbe7c1bdc	-0.24620003
118	0xbe0c92b1	-0.13727833
119	0xbe21d034	-0.1580208
120	0xbe3991f8	-0.18122089
121	0xbe624639	-0.220971
122	0xbdfe1098	-0.12405509
123	0xbf3a912b	-0.7287776
124	0xbec4dd35	-0.38450018
125	0xbf78e502	-0.9722444
126	0xbe77b869	-0.2419144
127	0xbe6d7044	-0.23187357

fc3.weight f4 [1, 128]
0	0xba186cae	-0.00058145344
1	0xb9ba2cd1	-0.00035510075
2	0xba5a91a7	-0.0008337744
3	0x3bd95ad1	0.0066331406
4	0x3c84e59b	0.016222766
5	0xb9cde448	-0.0003927073
6	0x3cd403dd	0.025880748
7	0x3c16dad5	0.009207447
8	0x3b840b29	0.0040296507
9	0xbc2e313c	-0.010631856
10	0x3ce05255	0.027383009
11	0xbc38fb88	-0.0112904385
12	0xbb642903	-0.0034814484
13	0x3c24581b	0.010030772
14	0x3c7ef36c	0.015560966
15	0xbbda4d2c	-0.0066620316
16	0xbb6aafe0	-0.0035810396
17	0xbc35edc4	-0.011104051
18	0xbb8e8c4a	-0.00435022
19	0xbb99ee55	-0.004697601
20	0xbcb25266	-0.021767806
21	0x3c529a98	0.012854241
22	0xbb8c8a4b	-0.0042889467
23	0xbce3400b	-0.027740499
24	0xbccb44e1	-0.024813117
25	0x3c0b046c	0.008484941
26	0xbca00fe0	-0.01953882
27	0xbc2377a0	-0.009977251
28	0x3b4f9d56	0.0031679473
29	0xbacfc7ae	-0.0015852356
30	0x3c5532d4	0.013012607
31	0xbc6c10b3	-0.014408278
32	0xbcd444e4	-0.025911756
33	0xbc8ec939	-0.017429935
34	0x3c13ea3d	0.009028015
35	0x3c101ba4	0.008795653
36	0x3c0c6542	0.008569064
37	0x3c92ad18	0.017904803
38	0xbc95c946	-0.018284451
39	0x3c9291b7	0.017891748
40	0x3c4ccdc1	0.012500227
41	0xb8e8e9f0	-0.00011106196
42	0xbcb597c6	-0.022167098
43	0x3cf5b80f	0.029994993
44	0x3bee45cd	0.0072715045
45	0x3c9485d1	0.018130215
46	0x3b483b42	0.0030552899
47	0xbbb7b115	-0.0056058266
48	0x3bd42009	0.0064735455
49	0x3c64a107	0.013954408
50	0x3c683f19	0.0141752
51	0x3ca4fdd0	0.020140558
52	0x3cad294a	0.021137852
53	0xbcf25e5c	-0.02958601
54	0xbcf44efe	-0.029822823
55	0x3c8f44f8	0.017488942
56	0xbb806ed5	-0.003919462
57	0xbb61fc99	-0.0034482835
58	0xbbb1421a	-0.0054094912
59	0xbc65ecde	-0.014033524
60	0xbbaae8e6	-0.005215752
61	0x3c97a15a	0.018509556
62	0x3c8627df	0.016376434
63	0xbc7d4f78	-0.015460841
64	0x3cec406f	0.028839318
65	0x3c884088	0.016632333
66	0xbce47dd0	-0.027892023
67	0x3b910b4d	0.004426396
68	0x3bbeb325	0.0058196955
69	0x3c801fde	0.015640195
70	0x3ccf8779	0.025333153
71	0xbcaafa2c	-0.020871244
72	0x3c2fde1d	0.010734108
73	0xbcb37213	-0.02190498
74	0xbc943ef0	-0.018096417
75	0x3c64045b	0.013917054
76	0xbc742cdf	-0.014903276
77	0x3cb0cd1a	0.021582175
78	0x3c63b633	0.01389842
79	0xbb697044	-0.0035619894
80	0x3c8fe2db	0.017564228
81	0xbca8c8f4	-0.020603634
82	0xbcfa66c8	-0.030566588
83	0x3cabd2ef	0.020974604
84	0xbca69927	-0.0203367
85	0x3cbb2efc	0.022849552
86	0x3c27167e	0.010198234
87	0x3b4536e1	0.0030092525
88	0xbbbac13b	-0.0056993044
89	0x3c970a2b	0.018437466
90	0x3cea6df5	0.028616885
91	0x3cd75113	0.026283776
92	0x3cec9ae8	0.028882459
93	0xbb8309f8	-0.003998991
94	0x3c827543	0.015925055
95	0xbb8a8956	-0.0042277975
96	0xbc97b1aa	-0.018517334
97	0x3b697406	0.0035622134
98	0x3cd1f3ff	0.025629042
99	0xbc2c13f2	-0.010502802
100	0xbc944e68	-0.018103793
101	0xbcb94ef7	-0.022620661
102	0x3cbecbee	0.0232906
103	0x3cb78cb7	0.022405965
104	0x3cc7833c	0.02435457
105	0x3bf43600	0.0074527264
106	0x3bc8c744	0.00612727
107	0xbc46e652	-0.012139874
108	0x3bacad96	0.0052697165
109	0xbba8be1a	-0.005149615
110	0xbc96d0d6	-0.018410128
111	0x3cd5508c	0.026039384
112	0xbc95689e	-0.018238362
113	0xbb34cd54	-0.0027588205
114	0x3d44edc4	0.048078313
115	0x3ce84163	0.028351491
116	0xbca174c1	-0.019708993
117	0x3c11ed5c	0.008906689
118	0x3cff22e0	0.03114456
119	0xbc9581d9	-0.018250393
120	0x3c8f82c7	0.017518414
121	0x3cc59481	0.024118664
122	0xbcac8690	-0.021060258
123	0x3ca167bd	0.019702787
124	0x3cdc631c	0.026902728
125	0x3c9cc3f9	0.019136416
126	0x3c7b5080	0.015339017
127	0x3bdfd1af	0.006830416
